Intelligent car/model_weight/policy_net_para.pkl (torch_old, 277977 bytes, 8 tensors)

weight f4 [256, 3]
000000 3f 74 06 bf dd d6 04 bf c4 62 aa 3e 76 c5 c2 3e
       -0.5252113 -0.51890355 0.33278477 0.38041276
000010 6d 5b dc 3e 60 fb c9 3e c8 af 9a be 89 05 80 3e
       0.43038502 0.39449596 -0.30212235 0.25004223
000020 f5 12 a3 3e d0 c0 c2 3e cf fa 2f bd e6 ca e8 3d
       0.318504 0.3803773 -0.0429638 0.11366825
000030 8e 76 f2 be f8 8f 07 bf 09 92 98 3c e0 69 2a bf
       -0.47356075 -0.52954054 0.018624322 -0.665678
000040 df 49 44 3e fa f7 17 be 86 32 9a 3e f2 65 a1 3e
       0.19168805 -0.1484069 0.3011667 0.3152309
000050 f5 8c a5 be 7a 7e 32 3e 56 0e 0a 3f 27 0f c1 bd
       -0.32334104 0.1743106 0.53928125 -0.09426718
000060 9e db 00 3e 0b 9a a5 be 15 04 76 bd 65 56 19 3e
       0.12583777 -0.32344088 -0.060062487 0.14974363
000070 dd 1c d8 bd 2b b7 98 be 85 d9 df be f4 47 5b be
       -0.1055238 -0.29827246 -0.43720642 -0.21414167
000080 85 0a 34 3d 24 38 f0 be a6 b9 aa be 46 e7 0c 3e
       0.043955345 -0.46917832 -0.33344764 0.13760099
000090 23 c9 07 3e 8a 54 05 be 38 02 17 3f 3c cc 65 3e
       0.13260321 -0.1302053 0.5898776 0.2244119
0000a0 3f 3d f0 be f8 99 dd 3e 80 f6 e9 3e 44 e8 dd be
       -0.46921727 0.4328153 0.45695877 -0.43341267
0000b0 00 36 bf be e6 d4 24 bc 03 6b 46 3e 70 67 5c 3c
       -0.37345886 -0.010060525 0.19376759 0.013452396
0000c0 e6 b8 ed bd 52 5d c4 3e 53 30 20 be 20 cd 04 bf
       -0.11607532 0.38352448 -0.15643434 -0.51875496
0000d0 7b 40 0a 3e 76 3d 8a be a2 bd 3b be d9 75 62 3e
       0.1350116 -0.27000016 -0.18334058 0.22115268
0000e0 63 fd 74 be 34 36 a0 bd 83 87 e0 bd d9 7e e8 be
       -0.23924784 -0.078228384 -0.10963347 -0.45409277
0000f0 4c f5 f0 3d 79 eb e2 be cf 01 4b 3e f0 68 83 bb
       0.11765537 -0.44320276 0.19824909 -0.0040103123
000100 dc d6 a1 be 1a 48 66 3b 60 f7 02 be 56 4b 5e bd
       -0.31609237 0.003513819 -0.12789679 -0.054271065
000110 49 7b c3 be 0d c1 a7 3d d8 fc 87 3d ca 7d dc be
       -0.38179997 0.081911184 0.06640023 -0.4306472
000120 65 ed 82 3e b4 3e 71 be 5a 40 da bd ce a3 d1 3d
       0.25571743 -0.23559076 -0.10656805 0.102363214
000130 30 3a e7 3e 49 2c 06 bf 6d a4 d1 bd 4b 80 7e 3e
       0.4516158 -0.52411324 -0.1023644 0.24853627
000140 88 d8 dd be 30 02 ca 3e 91 13 c9 be 83 b7 0a bf
       -0.43329263 0.39454794 -0.3927274 -0.54186267
000150 48 b8 97 be 30 cd 00 3f 4a ef e8 3e 36 67 99 3e
       -0.29632783 0.5031309 0.45495063 0.29961556
000160 e8 45 f5 be d2 a2 ec 3e 9f 39 ee 3d 5a 3e 7d 3d
       -0.47904897 0.46217972 0.11632084 0.06182704
000170 66 60 c9 be 17 a7 cc be 27 6c 33 bd e0 10 9c 3e
       -0.3933136 -0.3997123 -0.043804314 0.30481625
000180 f8 09 10 3e 71 04 b7 3e 7d c0 bb 3e d2 52 ac 3e
       0.14066303 0.35745576 0.36670294 0.33656937
000190 01 48 b8 3e 1b 03 59 3e 56 b5 f0 be cd b5 33 3e
       0.35992435 0.21192591 -0.47013348 0.1754982
0001a0 56 ee f7 3e 3d 0b a2 be 2f 7a dd be 5b 50 11 3e
       0.48424023 -0.316492 -0.4325728 0.1419081
0001b0 b0 aa 08 3f c4 5a 08 bf 76 31 23 be 0f 29 e1 bd
       0.5338545 -0.532635 -0.15936837 -0.109941594
0001c0 53 80 07 3d 2c 08 ad 3d 08 e9 e8 bd 47 d2 18 3e
       0.033081364 0.08448824 -0.11372572 0.14923964
0001d0 65 18 eb 3e 8d 2d 04 bc d8 f4 63 3d 80 b9 59 3e
       0.4591705 -0.008067501 0.055653423 0.21262169
0001e0 b1 85 9b be 8a 19 bb 3e 47 1d d0 be 12 1f f8 3e
       -0.30375436 0.36542922 -0.40647337 0.48461205
0001f0 c1 8d ea be d4 26 a0 be 99 ab 9f 3e 9b 90 9f 3e
       -0.45811275 -0.31279624 0.31185606 0.31165013
000200 b0 f2 81 3e ab 78 b3 be fe c9 01 3f c3 d3 04 3f
       0.25380468 -0.35053 0.5069884 0.5188562
000210 63 e4 00 be 7e a5 b9 be 2c 26 c4 3c 69 1c d2 be
       -0.12587123 -0.36259073 0.023943983 -0.410373
000220 45 33 fc be 3f b2 d3 3d 06 94 78 be 91 78 df 3e
       -0.49257866 0.10336732 -0.24275216 0.43646672
000230 68 4a 96 be 4f 37 9c be 50 20 92 3e 0f a5 d3 3e
       -0.29353642 -0.30510947 0.28540277 0.41336867
000240 dc bd 11 3f 2b d9 2a be f7 0e 3c be 92 ad eb be
       0.5693033 -0.16684406 -0.18365084 -0.4603086
000250 2e 7c 97 3e 99 70 4f be 6d 7c 1e 3e 01 eb f5 be
       0.2958693 -0.20257796 0.15477152 -0.48030856
000260 0b 48 bd bd 6e ad 1b 3e 47 41 c2 be 63 f4 06 3f
       -0.09242257 0.15202877 -0.37940428 0.52716655
000270 2a 09 4e bc ce ba 8c 3e dd 6a 94 3d b9 8d 44 be
       -0.012575427 0.2748627 0.07246945 -0.19194688
000280 58 d1 cc be 6a cd 9d be 23 1d 9e be 97 6c df 3e
       -0.40003467 -0.3082078 -0.30881605 0.43637535
000290 14 46 ca 3e be 17 b9 be a7 f5 96 3d 7c a4 8a 3d
       0.3950659 -0.36150926 0.07371073 0.06769654
0002a0 ea f6 08 3f 78 db 43 bd c9 b5 33 3e 89 77 ab 3e
       0.5350176 -0.047816724 0.17549814 0.33489636
0002b0 4d 74 ec 3e ae 8f 95 3d ee 86 21 bf 5c 69 bd 3d
       0.4618248 0.07302795 -0.6309651 0.09248611
0002c0 f9 ed 97 3e b5 fa f3 3e a2 58 31 3e 56 3d e8 3c
       0.29673746 0.47652212 0.17318967 0.02834956
0002d0 11 38 81 3e 27 7d 9f be e4 6d 1d 3f c0 c1 00 be
       0.25238088 -0.3115017 0.61495805 -0.1257391
0002e0 be 86 fb bd 1b 85 8a bd cd 2a c3 be 32 2e 3d be
       -0.122815594 -0.06763669 -0.38118592 -0.18474653
0002f0 b3 12 0c 3f 94 d8 bf 3e a2 33 0c bd b4 2c 76 3e
       0.5471603 0.37469923 -0.03422893 0.2404049
000300 d9 cd 0a bf 6c 7d 15 be 6d 11 5f 3d 4b bf a8 be
       -0.5422035 -0.14598626 0.054459978 -0.32958445
000310 b8 de 42 3e a0 cb 0a bf 47 06 37 3e 91 14 53 be
       0.19030273 -0.5421696 0.17873488 -0.20613314
000320 42 e0 35 bf 95 a8 c4 3d 4a 5a e5 3d 18 0c cd 3d
       -0.71045315 0.09602467 0.11198862 0.10012072
000330 44 ec b1 3e 28 28 bd be dd 02 e7 bd d1 25 30 be
       0.3475057 -0.369447 -0.11279843 -0.17201926
000340 3f 04 a7 be fe ab 87 be e2 e7 e2 3e 99 3c df be
       -0.32620427 -0.26498407 0.44317538 -0.4360092
000350 f7 05 aa be fc b7 48 be 40 ac fa 3b ad d2 56 3f
       -0.33207676 -0.19601434 0.0076499283 0.83915216
000360 54 f8 ed be 69 d8 25 3e ec 4d 20 3f af 59 cd 3e
       -0.46478522 0.16195835 0.626189 0.40107486
000370 66 98 81 be e6 15 0f 3e 8d 4a 24 be 5e 53 a1 bc
       -0.25311583 0.13973197 -0.16044064 -0.019693073
000380 0c 5b 80 3f bd 18 98 be 3e f0 39 be ca 8a bf bc
       1.0027785 -0.29706374 -0.18158051 -0.02338161
000390 96 3c 84 be 62 58 06 3d c2 32 b3 be e5 a6 25 3d
       -0.25827473 0.032799132 -0.34999663 0.040442366
0003a0 52 39 32 3e ea 51 26 be 25 36 d7 3e 39 a6 a9 bd
       0.17404678 -0.16242185 0.42033496 -0.082836576
0003b0 10 a4 fa be 98 0e fa 3e 58 af d2 bd 75 20 8a be
       -0.48953295 0.4883926 -0.102873504 -0.26977888
0003c0 50 3b 07 bf fe ba fd 3e 45 68 04 be 70 d0 b6 be
       -0.5282488 0.49556726 -0.129304 -0.357059
0003d0 bd e0 de 3d 7a 89 20 3f 06 70 8a be 8d be af be
       0.10882709 0.6270977 -0.27038592 -0.34325066
0003e0 57 fa 50 be 78 76 a3 3e 82 1d c9 bd 36 04 76 bb
       -0.20407997 0.31926322 -0.09820081 -0.003753913
0003f0 34 13 c3 3e 1c 8a b5 3e 2e c7 8a be 77 21 cb 3c
       0.38100588 0.35456932 -0.27105087 0.02479623

bias f4 [256]
000000 4b c0 9e 3e f8 b4 af be cc 29 e7 3e c0 7a 31 be
       0.31006083 -0.34317756 0.45149076 -0.17331982
000010 22 ac 37 3e 59 8d a2 be 70 5c 8a 3e dd 6e 14 bd
       0.17936757 -0.31748465 0.2702365 -0.03623854
000020 30 d5 ca 3e b4 38 83 3d 0c 0c af 3e 34 8c 45 be
       0.39615774 0.064073 0.3418888 -0.19291764
000030 bd 14 91 bd ab a5 a1 be 99 5b 8e be 13 1d 21 3e
       -0.07084034 -0.31571707 -0.27804258 0.15733747
000040 b7 9d 8e be 01 c3 9f 3e e3 77 bd 3e 3c 53 e9 be
       -0.27854702 0.31203464 0.3700553 -0.45571315
000050 57 d4 70 be 9d e1 f0 3e 2e 1f 1a be 86 ba d1 bc
       -0.23518501 0.4704713 -0.15050957 -0.025601637
000060 81 5a f8 be a3 21 50 bd b2 a6 0c bf 1b c7 2c bf
       -0.4850655 -0.05081333 -0.54941857 -0.6749131
000070 06 7e 0d bf f9 09 61 be 32 cc 00 bf e2 7a 7e 3d
       -0.5527042 -0.2197646 -0.5031158 0.06212891
000080 7a d9 a1 3e 99 92 38 3e 87 9a 00 3e 31 54 a8 bd
       0.31611234 0.18024673 0.12558948 -0.08219183
000090 91 d1 e9 be 36 d6 3f 3e c6 59 33 3d e1 fc fa bc
       -0.456677 0.18734059 0.043786786 -0.03063816
0000a0 af 1a 64 bc 4f 07 af 3e 77 80 8f 3e c6 d4 1b 3e
       -0.0139223775 0.34185264 0.28027698 0.15217885
0000b0 1d 8e 7e be ad df 94 be 96 b9 dd be da 6d 1c be
       -0.248589 -0.290769 -0.43305653 -0.1527628
0000c0 89 20 b0 3e ad dd 2e bf 1d 8d 91 3d 17 a5 d1 bc
       0.34399822 -0.68307 0.07106993 -0.025591416
0000d0 1e 86 7e be 4f 8e da 3d e1 bb ce 3e 66 35 d2 bd
       -0.24855849 0.106716745 0.40377715 -0.10264091
0000e0 b8 ec 6c be 03 40 74 be 5c 15 44 bf c7 7f 0a 3e
       -0.23137176 -0.23852544 -0.7659509 0.13525306
0000f0 1c 27 ce be 97 30 ce 3e a5 0e b1 3e 59 33 f9 bb
       -0.40264213 0.40271446 0.34581485 -0.007604998
000100 6e 5c e3 3e 77 1d 7b 3d fd 3f 7c be 62 61 ad be
       0.44406456 0.061307397 -0.24633785 -0.3386336
000110 90 3b d5 3d 2c 32 a5 be 7d 32 44 be 88 38 65 bd
       0.10411751 -0.3226484 -0.19159885 -0.055962116
000120 16 c0 7f be 9e 4b 92 bc 52 28 4a 3e 34 a4 88 be
       -0.24975619 -0.017858323 0.19741943 -0.26687777
000130 38 f7 9c 3d b1 41 70 3e 92 e6 3e 3c d7 ba 55 3e
       0.07664341 0.2346256 0.011651652 0.20872055
000140 7f 9a 97 bd 4d 8c 88 bd ec cb 48 be 49 1c 03 bf
       -0.07402515 -0.06667385 -0.1960904 -0.51215035
000150 a1 81 51 be a2 26 ea bc 43 e4 50 be 1c b6 33 bf
       -0.20459606 -0.028582875 -0.20399575 -0.7019975
000160 55 7a 6b 3e 12 7a 14 be 6f fc 2d 3d 1f f2 d9 3e
       0.22995885 -0.14499691 0.042477068 0.42567536
000170 7e 94 a7 be b9 dd 5b 3e 21 c6 de 3e ce c0 62 3e
       -0.32730478 0.21471299 0.43510535 0.22143862
000180 b5 56 9b bc 7a 3d ae be 2b b7 47 be 04 5a 41 bd
       -0.018962244 -0.34031278 -0.19503467 -0.047204986
000190 f2 55 fa be 62 93 12 bf 2b 98 ff 3b 02 8d d3 3d
       -0.48893696 -0.5725614 0.0078001223 0.103296295
0001a0 4c 65 25 bf ad 1b 50 be 8a bb f0 bd df 5e 72 be
       -0.6460769 -0.20323057 -0.1175452 -0.23669003
0001b0 c8 7e 22 3e c9 2d 9e be c3 a8 42 be ff 77 36 bd
       0.15868676 -0.30894306 -0.1900969 -0.04454803
0001c0 8e 23 a9 3e 96 1b a3 3e 03 6b 23 be 38 0e 1b bf
       0.3303494 0.31856984 -0.1595879 -0.6056857
0001d0 5e 6c 6e be a7 ec c3 3e 2b 4d 07 3e c1 88 77 3e
       -0.23283526 0.3826649 0.13213031 0.24173261
0001e0 8c c3 4a 3d 1d 48 65 3e f1 eb b0 be a1 60 a9 be
       0.049502894 0.2239079 -0.3455501 -0.33081535
0001f0 ba 82 4e 3e 0b 46 a0 be e2 47 40 bf d9 23 5e be
       0.20167056 -0.3130344 -0.75109684 -0.21693362
000200 b3 8c d7 bc 79 b0 80 bd 70 0f e7 3c f3 b4 88 bd
       -0.026312208 -0.062836595 0.028205603 -0.06675138
000210 10 b3 19 be 36 4a 50 be 1c f4 9e 3d 7f 21 ef 3b
       -0.15009713 -0.20340809 0.07761404 0.007297694
000220 4c 34 a8 3e 19 53 99 3e 64 18 4c be e5 c8 da 3e
       0.328524 0.2994621 -0.1993118 0.42731395
000230 36 83 7e 3d 45 66 04 3d ff e1 13 3d cc 36 48 bd
       0.06213685 0.032324094 0.0361042 -0.048880383
000240 2c 78 e1 bd 64 d5 62 be 3d 23 05 3f 67 8c d1 3e
       -0.11009249 -0.22151715 0.52006894 0.4092743
000250 9d dd db 3d 34 f8 96 be 95 3d 17 bf 1e 3c fc 3e
       0.10735629 -0.2948624 -0.5907834 0.49264616
000260 d9 59 96 bd 30 09 73 be 82 f7 d4 3d e6 d7 88 be
       -0.07341356 -0.23733974 0.10398771 -0.26727217
000270 4b ba 08 bf 79 44 b2 3e 76 0c c1 3d 50 83 91 bd
       -0.5340926 0.34817865 0.09426205 -0.07105124
000280 91 92 e3 3d 1b 67 40 be dc 7b 69 bd 48 ab b1 be
       0.1111194 -0.18789332 -0.057002887 -0.3470099
000290 fc 9c a0 be 3a 29 9f 3e ee ea f2 bd 00 bd ae 3e
       -0.3136977 0.3108614 -0.118612155 0.3412857
0002a0 1a 54 0f bd f7 c7 81 3e 66 de 9e 3c eb b0 2a 3e
       -0.034992315 0.25347874 0.019393157 0.16669051
0002b0 b1 38 b1 3c c3 30 9b 3c 45 9d 6a 3e 62 06 12 bf
       0.021633478 0.01894415 0.22911556 -0.5704099
0002c0 03 23 c7 be 5a c5 24 bd a8 c8 fd be a6 56 b4 bd
       -0.388939 -0.04022727 -0.4956715 -0.088055894
0002d0 e2 97 f4 3e a8 01 dd be 14 de 33 bf 13 0b 31 bf
       0.47772127 -0.43165326 -0.7026074 -0.6915752
0002e0 94 78 e7 3c 7f 3f 44 be 19 14 88 be 34 2a e5 3e
       0.028255738 -0.19164847 -0.26577833 0.4475876
0002f0 9d 4d 9f 3e 51 c4 a1 be 8e b7 96 be 84 bc c7 3e
       0.31113902 -0.3159509 -0.29436916 0.39011014
000300 7a 81 2c 3e bc fc 45 be 56 6b bc 3e 26 21 70 3e
       0.16846266 -0.19334692 0.3680064 0.23450145
000310 f6 7d 15 bf e3 cf 05 bd c2 30 0c 3d 0a 1f 2e bd
       -0.58395326 -0.03266896 0.034226187 -0.04251007
000320 df f7 f3 bc 74 bb eb be b6 aa 4f bd 43 2a ee bc
       -0.02978128 -0.46041453 -0.050699912 -0.029072886
000330 e4 80 a1 bd 0b a7 da be 0c c7 a0 3c 75 5b 31 bc
       -0.07885912 -0.4270557 0.019626163 -0.010825028
000340 e8 87 07 be ff 87 3c bf 42 11 02 bf 23 29 5b 3e
       -0.13235438 -0.73645014 -0.50807583 0.21402411
000350 53 08 0c be 1e f0 9c be 84 d4 dc 3d 98 6c ad be
       -0.1367505 -0.30651945 0.10782722 -0.33871913
000360 4a 90 6e 3e 5e 99 6e be f6 17 73 be 62 ea da 3e
       0.2329723 -0.23300692 -0.23739609 0.42756945
000370 bf 7b db 3e f1 39 52 3d 75 a7 e9 3e 43 94 6a 3e
       0.42867848 0.05132479 0.45635572 0.2290812
000380 9a df c0 3e 6d 64 44 bd 77 da bb be ab de db bb
       0.37670594 -0.047947336 -0.36690113 -0.0067098937
000390 5d 4c 09 bf ec e1 82 3e 3f 53 24 bf 79 e6 b3 3e
       -0.53632146 0.2556299 -0.64189523 0.35136774
0003a0 51 89 3e 3d ad a8 a7 be b3 14 73 bd fe 12 b8 be
       0.046517674 -0.32745877 -0.059345912 -0.3595199
0003b0 a8 3a ab 3d 29 2c 28 bc 5a 4d f5 3a b9 d3 ac 3d
       0.08360797 -0.010264435 0.0018715069 0.084388204
0003c0 64 59 72 bd 03 a7 80 3e 59 73 97 be 59 d6 8d 3e
       -0.05916728 0.2512742 -0.2958019 0.27702597
0003d0 77 8d 98 bc 4f 81 e8 3e aa cc 24 3e 3a a2 62 be
       -0.018622143 0.45411155 0.16093698 -0.22132197
0003e0 2c 05 b0 be c2 93 48 be 8f 16 07 bd b7 fb 13 bf
       -0.34378946 -0.19587615 -0.032980498 -0.5780596
0003f0 89 d9 e3 be 8f be af be 69 f5 5d bd f9 ff 67 3e
       -0.44501904 -0.34325072 -0.05418912 0.2265624

weight f4 [256, 256]
000000 c1 1f 46 3c dd 41 d2 3c 40 65 9f 3d 73 b7 85 bd
       0.012092532 0.025666172 0.07782984 -0.06529131
000010 6d 64 ba bc bb 50 5f 3d 04 cf e9 bb 6c 27 14 3d
       -0.022752965 0.05452035 -0.007135274 0.036170408
000020 68 23 b2 3d c7 53 17 bd 5e 8f ab bc 46 3f a0 3d
       0.086981595 -0.03694513 -0.020942386 0.078245685
000030 dd a5 1e bd 17 5a b1 bd 9a 40 da 3b 86 42 aa bd
       -0.0387324 -0.086597614 0.006660533 -0.083134696
000040 54 57 8d bd a1 8a a6 3d a7 3c 73 3d ca 89 2a 3d
       -0.06901422 0.0813191 0.059384014 0.041635312
000050 3a 9e 93 3d 6c 15 7c 3d 92 70 60 3c 7c 97 82 bd
       0.07207914 0.061543867 0.013698714 -0.063765496
000060 63 00 1e bd a1 8b e6 3c 6c 6d 78 bd e5 f0 26 bd
       -0.038574588 0.028142752 -0.060651228 -0.04075708
000070 c5 ce 4c bd 99 16 d1 bc 59 ab a3 3c a7 c9 42 3d
       -0.05000188 -0.02552347 0.019979166 0.047555592
000080 e3 11 29 3c 32 2b 54 bd 5e ce 8a 3d 63 8a ea 3b
       0.010319206 -0.051799007 0.06777643 0.0071576103
000090 12 72 87 bd fa ce cd 3c ed 3e 43 bd e6 eb 3e bd
       -0.06613554 0.025123108 -0.047667433 -0.04661169
0000a0 c7 6c 57 3d d7 7d 34 bb 65 15 b1 bd 24 1b 0b bd
       0.052593973 -0.0027540827 -0.08646659 -0.03396143
0000b0 55 ed 00 3d 6d 4a 70 3d 95 36 81 bc 6b b4 4d bd
       0.031476337 0.058664728 -0.015773097 -0.050220888
0000c0 e2 6a 12 bd d3 b9 e8 3c b3 b7 cd 3c f1 08 d2 ba
       -0.035746463 0.02840892 0.025112009 -0.0016024393
0000d0 65 fd 19 bd a5 e5 87 3d 62 4d 47 3c f1 64 b1 bc
       -0.03759517 0.06635598 0.012164446 -0.021654578
0000e0 06 fc 09 3d bf 51 57 3b cf 00 36 3d 78 05 0f 3d
       0.033687614 0.003285512 0.044434365 0.034917325
0000f0 f2 be 61 bd 1c a3 83 3d d8 fa ef 3c 95 99 99 bd
       -0.05511374 0.06427595 0.029294416 -0.074999966
000100 6f 77 81 3d ea 1d 92 3c eb 58 60 bd ee 7c 46 bd
       0.06321608 0.01783653 -0.0547723 -0.048458986
000110 c7 e0 63 bc 71 1f 45 3d 54 b4 43 bd 77 5d 03 3d
       -0.013908572 0.048125688 -0.047779396 0.032071557
000120 28 8b 2a bd 31 3e d5 ba 4a e7 c6 3c 61 33 93 bc
       -0.041636616 -0.0016269145 0.02428021 -0.017968835
000130 f3 57 89 bc 99 c7 7b bd ea 49 da bc 13 ff 08 3c
       -0.01676557 -0.061469648 -0.026646573 0.008361596
000140 2c c0 81 3c 4c ab 0b 3b 36 aa 22 3c b6 1a 97 bd
       0.015838705 0.0021311818 0.009928277 -0.073781416
000150 08 3c 74 bd be ca 70 3c 39 3f 92 bd d8 e1 96 bb
       -0.059627563 0.014696775 -0.07140965 -0.0046045594
000160 a1 c8 48 bd 94 85 da bb be 55 92 3d b4 29 71 3d
       -0.04901946 -0.006668756 0.0714526 0.05887766
000170 b2 26 e7 3c 72 47 28 bd 71 9d 3b 3d c3 27 77 3c
       0.028216694 -0.04108376 0.045804445 0.0150851635
000180 89 88 5c bc 08 99 3c bc 0b cb 07 3c fa 27 4b bc
       -0.013460287 -0.011511095 0.008288155 -0.012399668
000190 1d 5c 64 bd f1 da 03 bd 27 a5 09 bc 95 ba 74 bd
       -0.05575191 -0.03219122 -0.008401192 -0.05974825
0001a0 27 4a 25 bd df 7b 15 bc 61 26 c4 3c 31 4b 93 3d
       -0.04035392 -0.009123771 0.023944082 0.07192076
0001b0 1b 83 a9 3c 91 b3 83 bd 23 9a 0c bd 76 9d 14 3b
       0.020692399 -0.06430734 -0.034326684 0.0022676862
0001c0 7a 2d 2c 3d a8 af 0c 3d e5 0f 48 bc 4c b2 0b 3d
       0.042035557 0.034347206 -0.012210821 0.034105584
0001d0 d8 91 1b bd 4d 59 ad 3d a9 8e 5d 3d 67 6a 93 3d
       -0.037980884 0.084642984 0.05409113 0.07198029
0001e0 f2 36 82 bd 2a b4 58 3c 85 74 fb bc fa 7f b7 bc
       -0.06358136 0.013226548 -0.03069521 -0.022399891
0001f0 68 36 23 bd 39 a8 90 3c 4b 28 81 3c ca 0b d4 3b
       -0.039846808 0.01765834 0.015766283 0.006471132
000200 78 2f 43 bd 64 64 9e 3d 65 43 0c bd 3f 1a 85 3d
       -0.04765269 0.07733992 -0.03424396 0.06499147
000210 89 bd d4 3c 53 7a 0e b9 b5 10 e8 3c 50 f0 11 bd
       0.025969284 -0.00013587745 0.028328279 -0.03562957
000220 5d 36 a3 bc 19 36 9b 3c c9 c8 8a bc 4a 28 76 3d
       -0.019923383 0.018946694 -0.016941445 0.060097016
000230 31 c8 a9 3c c3 0f ac bd d1 a8 9b bd a2 75 9d 3d
       0.020725342 -0.08401444 -0.076005585 0.07688452
000240 6d 30 99 3d 48 f9 91 3c 5d 65 75 3d 84 49 cc bc
       0.074799396 0.017819062 0.05991112 -0.024937399
000250 ce b2 85 3d 26 b9 5f bd 06 5b 3d 3d cd 95 8e 3d
       0.06528245 -0.05461993 0.046229385 0.06962166
000260 8f 48 09 3d 8a eb 9c b9 b5 94 f3 3b 70 b2 19 bd
       0.033516463 -0.0002993013 0.0074334987 -0.037523687
000270 95 40 54 bd 85 c0 c9 3b 02 c4 81 bb 78 e4 c1 3b
       -0.051819403 0.0061569833 -0.0039601335 0.005917128
000280 b4 07 3f bd 9f 9e 03 bd 4c 86 b4 bc 19 24 02 bd
       -0.046638206 -0.032133695 -0.022036694 -0.031772707
000290 66 14 e8 3a 46 66 16 bb 1a 24 7c 3d 94 84 81 bd
       0.0017706275 -0.0022949143 0.061557867 -0.063241154
0002a0 fb 55 9b 3d ae a8 82 bc 26 33 82 3d e7 a4 86 3c
       0.07584759 -0.015949573 0.06357412 0.016436053
0002b0 c7 a7 27 3d 43 4d 11 bc 13 25 70 3d 94 56 84 bb
       0.04093149 -0.008868518 0.058629107 -0.004038641
0002c0 13 20 86 bc 9f ec 39 3d 1a 6b 47 bc 93 25 90 bc
       -0.016372716 0.045391675 -0.012171531 -0.017596042
0002d0 36 10 2d 3d ac b8 b6 3c ce 87 59 3c f8 aa 98 3c
       0.042251788 0.022304855 0.013277007 0.018636212
0002e0 bf 0b 1e ba 45 70 3b bc 0b e1 a4 bd 5a 8e b6 3d
       -0.0006028972 -0.011440341 -0.08050736 0.0891387
0002f0 4d c2 b0 3d b6 c1 5d bb 09 b3 82 bd 6b 27 eb 3c
       0.0863081 -0.0033837385 -0.063818045 0.02870532
000300 5d 12 4c bc 2b 70 12 3d 48 ce a2 3d 6c 8c b0 3d
       -0.01245555 0.035751503 0.07949501 0.08620533
000310 b6 e6 06 3d 55 a1 77 bc 4e dd 17 bc b2 dd 3b bd
       0.032934867 -0.015114148 -0.009269072 -0.045865722
000320 b6 da 00 bd c1 63 0c 3d e3 d1 fb 3c 88 77 6e 3c
       -0.03145858 0.03427482 0.03073973 0.014554866
000330 8d ea 1b 3d 01 5c af bd 75 a5 2b 3d b1 d7 44 3d
       0.038065482 -0.0856247 0.04190584 0.04805726
000340 01 d2 d6 ba 55 eb 9d bd f7 35 2c bd 87 03 f6 bc
       -0.001638949 -0.07710902 -0.042043652 -0.030030979
000350 e8 48 04 bd 90 8d 2f bd f7 44 c9 3d 03 6f 02 3c
       -0.03229609 -0.042859614 0.09827607 0.007961038
000360 eb 43 71 3d 47 d5 d4 bb ef e0 a1 bd 05 da 6b bc
       0.058902662 -0.006495151 -0.07904231 -0.014395242
000370 dc 4b 4f 3d c4 f6 05 3d 04 e2 1b bc da 71 06 bc
       0.050609455 0.032706037 -0.009514336 -0.008205855
000380 11 13 96 3d dc 1b d9 bc 55 91 84 3b 20 95 c2 bc
       0.073278554 -0.026502542 0.0040456452 -0.023752749
000390 ce 50 b1 3d aa 5f fe 3c d0 1f 62 bd aa 45 b7 3d
       0.086579904 0.031051476 -0.05520612 0.08948834
0003a0 1b 19 6a 3b e3 25 95 3c 9f 42 79 3c 31 83 6e 3b
       0.003572053 0.018206542 0.015213638 0.0036394114
0003b0 47 fa 0f 3c 21 9b 8d bd 85 32 01 bd e7 2d a5 3d
       0.008787698 -0.06914354 -0.03154232 0.08065396
0003c0 8b a1 82 bb 03 ce d2 bc 13 5c ad bc e7 87 93 3c
       -0.0039865426 -0.025733 -0.021162068 0.01800914
0003d0 06 aa 3f 3d dc b2 6b 3d ce 5f 95 bc ef 10 3b bd
       0.046793006 0.05754362 -0.01823416 -0.045670446
0003e0 c3 a2 83 bc 93 da 62 3d 30 81 a0 bb d2 9f 12 bc
       -0.016068822 0.05538423 -0.004898213 -0.008949237
0003f0 79 6f 3e 3b 01 e6 00 3c 76 24 ea bb 93 0e a3 3c
       0.0029058142 0.007867337 -0.0071454598 0.01990441

bias f4 [256]
000000 81 76 e7 3c 59 69 95 bc d6 19 14 bd 2d af 52 bd
       0.02825475 -0.01823871 -0.03615745 -0.051436592
000010 8b e8 5c bd 02 65 93 bb a8 20 81 bc 7a f2 9a bd
       -0.053932708 -0.004498125 -0.015762642 -0.0756578
000020 ea 5a 21 bd 10 1e 15 bc 09 18 d7 ba f9 c9 01 3d
       -0.039393343 -0.009101406 -0.0016410361 0.031686757
000030 8b d5 15 bc 4b bd b9 3c cd e9 80 3d ab 93 79 bd
       -0.009145151 0.02267327 0.06294594 -0.060931843
000040 e9 1b 10 bd f8 b6 ac 3d 8b e1 cc 3d c6 81 15 bc
       -0.035182867 0.08433336 0.100039564 -0.009125179
000050 9c 0f 39 bd 77 fd 8c bd 34 08 86 3c 34 42 61 bd
       -0.045180902 -0.06884282 0.016361333 -0.054994777
000060 93 19 72 3c b8 51 2a bd e6 dd 71 bd 20 42 85 ba
       0.014776605 -0.04158184 -0.05904951 -0.0010166802
000070 12 a8 91 bd b1 d9 a8 bc 14 b3 fc 3c 41 b7 2f bd
       -0.07112135 -0.020611616 0.03084711 -0.042899374
000080 4f c2 2a 3d ac 2c 17 bd 8b d1 d9 3b 20 1e 43 3d
       0.041689213 -0.036907837 0.006647294 0.04763615
000090 34 b5 e1 bc 0f cc 6b bd eb 54 8f 3c 26 25 c9 3c
       -0.027552225 -0.057567652 0.017496547 0.024553847
0000a0 47 5d 0d bd 14 5d 25 3b a6 d3 7f bc 66 09 1b 3d
       -0.034512784 0.002523248 -0.015614426 0.03785076
0000b0 9b da 6a bd ff 80 19 3d 3d eb 66 bd aa 7d 8d bc
       -0.057337385 0.037476536 -0.056376684 -0.017271835
0000c0 c0 eb 4a bb fa 72 ca 3c b6 2f d6 3b e5 03 f9 bc
       -0.0030963272 0.024713028 0.0065364493 -0.030397365
0000d0 5c 6a 44 3d c0 20 d8 3a 0b d3 a1 3c e5 2c 2e bd
       0.047952995 0.0016489252 0.019753953 -0.042523284
0000e0 0a b4 90 bd 17 a3 8f bb 5e 1b fc bc 40 c1 c6 bb
       -0.0706559 -0.0043834555 -0.030774768 -0.0060655177
0000f0 7a c0 a8 3c a7 1f 5f 3c 01 a7 d5 3c 4c ed d7 3c
       0.020599592 0.013618386 0.02608061 0.02635827
000100 99 1f bb 3c 37 6b 27 3c cb 66 41 3d 0f 01 b0 bc
       0.022842215 0.010218433 0.04721717 -0.02148488
000110 5e 27 71 3d 5c a2 84 3c 6a 33 85 3c b4 44 27 bc
       0.058875434 0.0161907 0.016259868 -0.010209251
000120 81 db 3d bd e3 31 fc 3d 38 6e 4a ba 28 71 5c bd
       -0.046351913 0.12314203 -0.00077221124 -0.05381885
000130 e6 8a 22 bd 4c 73 9f bc 7d 19 25 bd 40 91 05 bb
       -0.039683245 -0.019464158 -0.04030751 -0.0020380765
000140 0d 37 af bb 39 64 27 bd 8c 95 17 3c b9 02 b2 3d
       -0.0053471387 -0.040867064 0.009251963 0.086919256
000150 6c 68 f2 bc dd 66 7e bd f0 7a aa bc d7 fd 85 bc
       -0.029590808 -0.062109817 -0.020810574 -0.016356392
000160 c0 ad 09 3d 5f fb 37 3d 95 10 1c 3d 3d dd b9 bc
       0.033612967 0.04491746 0.03810175 -0.022688502
000170 cb 45 ea bb 15 60 61 bd b0 32 85 bd 83 7e 33 bd
       -0.0071494333 -0.05502327 -0.065038085 -0.043821823
000180 0b cf 5a 3d 39 c1 89 bd a0 c8 04 3d ce 69 8e bd
       0.053420108 -0.067263074 0.032417893 -0.069537744
000190 37 6f 22 bd 80 b0 b5 bc e8 f3 0e 3d 2b 33 3c 3b
       -0.039656844 -0.022178888 0.034900576 0.0028717022
0001a0 2f 5c b9 bc ef fb ad 3d 5c 88 70 3d 36 10 84 bc
       -0.022626964 0.08495318 0.058723792 -0.016121011
0001b0 a2 c6 de 3b c2 49 50 bd 9a b6 b5 3d 28 97 e1 bc
       0.006798581 -0.05085159 0.08872719 -0.027537897
0001c0 c6 5f 0b 3d b8 13 cb 3d 42 d1 00 3d 75 bc fb bc
       0.034026884 0.099158704 0.031449564 -0.030729512
0001d0 06 ec e9 bc 20 29 6a 3d e0 d5 04 3b 42 73 eb 3c
       -0.028554928 0.057168126 0.002026908 0.028741483
0001e0 bf 92 41 3c ae c3 3e 3d 9f 5c 0a 3d 8e 3c 59 bd
       0.011814772 0.046573333 0.033779737 -0.053036265
0001f0 f4 3d d2 3c 23 ac b2 3d 36 c0 e7 bc 5c cb 75 bd
       0.025664307 0.08724239 -0.028289896 -0.06000839
000200 85 62 ed bc c8 71 1d 3d f6 83 0e bd a0 21 91 3c
       -0.028977642 0.03843859 -0.034793817 0.017716229
000210 d3 5a e2 3c d6 aa 46 bd c7 d3 2b bd b9 ae 44 bb
       0.027631199 -0.048502766 -0.041950013 -0.003001137
000220 e6 5e 0b 3d 2a 93 4c 3d 94 fe e0 3c a3 2d c9 bc
       0.03402605 0.049945034 0.027465142 -0.024557894
000230 3e 79 14 3d 21 07 4f bd 4d c5 f2 3c 3f 24 07 3d
       0.036248438 -0.050543908 0.029635096 0.03299355
000240 62 38 56 bd fd d7 5a bd 63 c2 4c bd a1 0f 9e 3d
       -0.052299865 -0.05342864 -0.04999007 0.07717825
000250 4f 37 84 bd 96 18 85 bd ee 63 27 3d 88 db 28 3d
       -0.06455862 -0.0649883 0.040866785 0.041224986
000260 ab a7 0b 3d ed cf 49 3d 6e 80 31 bb 73 f6 27 3c
       0.034095448 0.04927056 -0.0027084607 0.010251629
000270 1e 3b ed 3c bb 97 b3 bc fe c5 42 bd 53 25 04 bd
       0.028958853 -0.021922937 -0.0475521 -0.032262158
000280 17 1b d3 bc 7f 06 d1 3c 82 db be 3d 26 49 47 bd
       -0.025769753 0.025515793 0.093192115 -0.048653744
000290 39 4f 02 bd 78 eb 08 3d fd 5b 46 3c 80 bb 64 ba
       -0.031813834 0.033427685 0.012106893 -0.00087254494
0002a0 77 17 4a bb 20 91 2a bb 79 ee 64 3c d6 a5 6d bc
       -0.003083674 -0.0026026443 0.013972872 -0.01450487
0002b0 c3 61 65 bd 75 57 80 ba 62 85 04 bd 5e 72 15 3c
       -0.056001436 -0.0009791689 -0.032353766 0.009121506
0002c0 ca 1c b0 bc 0b cf 77 bd 08 d3 96 3c fe 42 5e bc
       -0.021498103 -0.060500186 0.018411174 -0.013565777
0002d0 64 fa 4a 3d db 9b 91 3a b2 77 52 3c 9a 1c 4d 3c
       0.049555197 0.0011109071 0.01284592 0.012519026
0002e0 7b 07 5e bc 04 93 5a bc 28 8f 27 3c 62 9d a3 3c
       -0.013551588 -0.013340715 0.010227002 0.019972507
0002f0 d0 09 8e bc 09 e2 5e bd 3f 0c 16 3c 97 5d 30 bc
       -0.017338663 -0.054414783 0.009158193 -0.010764501
000300 73 b3 b6 bb 1a b4 87 3d b4 aa 89 bd 4a 6c 84 bd
       -0.005575591 0.066261485 -0.06722012 -0.06465967
000310 50 2f f7 bb f2 e9 47 bd b1 9c 4a bd cc db 72 bd
       -0.007543482 -0.048807092 -0.04946584 -0.059291646
000320 1a 9c 28 bd 68 5a 2c bd 6b d3 a4 bc 94 cf 6d bd
       -0.041164495 -0.042078406 -0.020120343 -0.05805929
000330 3f 6b 85 bc cd da b0 bd da 2e 0d bd 34 c2 8a bd
       -0.01628649 -0.08635483 -0.03446851 -0.067753226
000340 18 2d 93 3c 79 45 e4 3a 8e a6 4f 3d a8 58 34 3d
       0.017965838 0.0017415724 0.05069595 0.04402986
000350 a2 f5 9b bc 24 6e e4 3c 65 56 97 3c 45 b2 84 bd
       -0.019038025 0.02788455 0.018473813 -0.06479315
000360 29 ef 4c bd da 2f 36 bd 75 1e 9c 3b fb 50 8b bc
       -0.05003277 -0.04447923 0.004764373 -0.017006388
000370 37 79 5d 3c c0 51 0b bc be 2f 35 bb d9 73 56 3d
       0.013517669 -0.008503377 -0.0027646865 0.052356575
000380 20 7e 32 3c 1d 5a 1e bd 93 97 8c bd ee 40 13 bc
       0.010894328 -0.038660157 -0.06864848 -0.008987648
000390 10 b9 9e bd 70 df 83 bc 5f 44 19 3d 16 80 c1 3c
       -0.077501416 -0.016097754 0.03741872 0.023620646
0003a0 0a bf 9c 3d 39 f2 00 bd cb 10 65 bd 7b ee 30 bc
       0.07653625 -0.031481 -0.05592422 -0.010799046
0003b0 73 3d 34 3d cb 0b 16 bb 44 e5 0d bd e9 04 3a bd
       0.044003915 -0.0022895213 -0.034642473 -0.04541484
0003c0 0d d0 27 bc 75 43 37 3d e0 32 69 bd 64 99 28 bc
       -0.010242474 0.044742066 -0.056933284 -0.010290477
0003d0 0b 0a 6b 3d 5b 21 4d bc 83 1e 83 bd 2c 14 bf bc
       0.057382625 -0.01252016 -0.06402304 -0.023325048
0003e0 7e 57 9f bd 9d 75 dd 3c 02 e9 5c bd ea ff 4e 3d
       -0.0778036 0.027033621 -0.05393315 0.050537027
0003f0 0c 35 0a bc c1 91 d0 3d 03 18 86 bd a8 81 51 bc
       -0.008435499 0.1018405 -0.065475486 -0.01278726

weight f4 [2, 256]
000000 ef ca 97 bd 6c 19 db ba d7 38 9a 38 a7 b2 aa 3b
       -0.074117534 -0.001671595 7.3538795e-05 0.0052092853
000010 16 a3 21 bc 36 d1 61 bd 79 36 28 39 6a c9 93 3c
       -0.009865543 -0.05513116 0.00016042021 0.018040378
000020 4b d9 f9 b8 44 cc d4 bb a6 2d 16 3b 93 a4 49 39
       -0.00011913719 -0.006494077 0.0022915392 0.00019230162
000030 ff 4e c6 ba 67 4e 41 3a fa 61 b9 bd 02 5f b0 3c
       -0.0015129744 0.00073740486 -0.09051891 0.021529678
000040 9e 90 7a 3b 13 36 6e bd 0a 4d 07 be 9d 4b b2 3b
       0.0038233171 -0.058157038 -0.13212982 0.0054411427
000050 ce 9a fe bb d1 48 f8 3b 05 a9 42 3a 97 7c 9a 3c
       -0.007769919 0.0075770398 0.00074256986 0.018858237
000060 13 bf 9d bb 73 f5 b5 ba 49 fd 89 39 3a 3f 05 bb
       -0.0048140376 -0.0013882354 0.00026319388 -0.0020331875
000070 01 a1 99 bc 6c 90 5b ba 1b 56 f2 3a 7a db 83 ba
       -0.01875353 -0.00083757075 0.0018488796 -0.0010059916
000080 6f c2 80 3b 7e 5b 8d 3a e2 3d aa 3b b2 04 80 b5
       0.0039294283 0.0010784713 0.0051953653 -9.53811e-07
000090 dc 3b 09 ba 66 46 af ba 40 62 8b 3b 81 f3 f0 ba
       -0.0005235055 -0.0013372421 0.0042536557 -0.0018383117
0000a0 77 84 01 3a 7b cf f2 ba bf 56 bd bc 6f 2a 17 ba
       0.0004940698 -0.0018524969 -0.023112653 -0.0005766516
0000b0 d8 8e 1b 39 a4 10 ba 3a 99 3d dc 3a d5 ac a8 bc
       0.00014835165 0.0014195633 0.0016803026 -0.020590225
0000c0 2c 87 72 b6 53 b4 9f 3a 79 1a 1e ba 01 3e cc 3a
       -3.613949e-06 0.0012184478 -0.00060311664 0.0015582443
0000d0 a8 d9 8d 3b 77 7e 83 b9 b9 ee 7d 3a 12 ce 82 bb
       0.004328925 -0.0002508049 0.00096867565 -0.0039918507
0000e0 37 f2 b6 bc 5d 74 9e b9 29 0e 90 39 d1 af 0b 3a
       -0.022332294 -0.00030222806 0.0002747637 0.0005328628
0000f0 0d f5 1a bb 3b 91 b7 b9 29 c1 96 ba 4f 4e e5 39
       -0.0023644597 -0.00035012685 -0.0011501658 0.00043736628
000100 70 47 82 bd 1a cf 45 b9 ef 0a d8 bb 96 f1 ef b9
       -0.06361282 -0.00018864535 -0.0065931003 -0.00045765628
000110 51 9b 5b ba a0 da b2 b9 ef ae 08 bc be 8e 92 3b
       -0.0008377331 -0.00034113694 -0.008342489 0.0044725826
000120 ff 22 94 ba 9b 45 a9 bc 31 57 b2 bc 50 39 0d bb
       -0.0011301934 -0.020663073 -0.021770092 -0.0021549053
000130 e1 86 a9 3c ad 34 53 39 99 52 65 3a bd af 55 ba
       0.020694198 0.00020142151 0.0008747965 -0.0008151492
000140 44 17 ef ba 15 d5 b1 3b 44 34 63 3b c0 60 98 bd
       -0.0018241187 0.0054270127 0.0034668604 -0.074403286
000150 ba 55 79 ba a5 8d f1 bb f7 05 7e 3a 11 fe 86 3c
       -0.00095113704 -0.0073716217 0.000969022 0.01647857
000160 70 60 98 b9 fe 81 83 3b 23 34 fd 3a 16 34 e6 ba
       -0.0002906355 0.004013299 0.0019317906 -0.001756313
000170 c0 69 22 3c 27 f1 b3 ba 97 d5 8b ba f7 88 46 3b
       0.009912908 -0.0013728485 -0.0010668513 0.003029404
000180 3d 3d 90 b8 21 e1 cc 39 9b a1 25 3b 6b d3 20 3b
       -6.8778616e-05 0.00039077646 0.0025273326 0.0024540077
000190 84 63 01 3b 7d ac a4 b7 95 8b 22 ba 0f a7 3d 3a
       0.0019743154 -1.9630645e-05 -0.0006200609 0.00072346715
0001a0 fd 8e 9b 39 27 e7 b1 bd f0 57 9c 38 c5 b5 bc bc
       0.00029670438 -0.08686667 7.455039e-05 -0.023035893
0001b0 3c 5a c3 3a 50 4e f1 39 9d b3 ab bd 29 54 ea b9
       0.0014904211 0.0004602545 -0.08383868 -0.00044694662
0001c0 d8 f0 a4 bd 31 3a 9a bd 1d aa 2d 39 bf a3 28 ba
       -0.0805375 -0.075306304 0.00016561938 -0.00064330915
0001d0 83 e8 d6 3b a2 4e d0 bd 7b 82 9f 39 5c 10 90 b7
       0.0065584793 -0.10171248 0.0003042406 -1.7173756e-05
0001e0 ad f9 96 bd 8f 49 2f 3b 27 19 44 39 e0 7e 99 3b
       -0.073718406 0.0026746725 0.00018701387 0.004684314
0001f0 d1 f5 04 3a 32 df fd bd 56 9e 9a 38 a2 7f c1 bc
       0.000507203 -0.12396087 7.3727846e-05 -0.02362043
000200 f0 f5 84 b9 b1 50 87 bd 2b 6f ad ba 73 ac a8 39
       -0.0002536024 -0.066071875 -0.0013231983 0.00032171942
000210 36 52 8a bc 08 51 df 3c db 29 0d bc 05 7f 22 39
       -0.016884904 0.027260318 -0.008615936 0.00015496842
000220 25 82 d7 b8 a6 44 3f 3b da a5 cd bd 80 74 31 39
       -0.0001027624 0.0029185205 -0.10041399 0.00016923435
000230 f0 9c 12 3a 6d aa cf b9 8c 3f 0c bb c3 5b 10 3a
       0.00055928435 -0.00039609094 -0.0021400182 0.00055068376
000240 a2 d2 b5 3c 4d 89 bf ba 51 4b 2a 39 23 fd d8 bd
       0.022195164 -0.0014613062 0.00016240521 -0.10595157
000250 65 e2 e4 3b 3a 39 c8 b9 ef 64 55 b9 7a ba ea b9
       0.006984996 -0.0003818961 -0.00020350864 -0.00044770894
000260 0e 9e b8 3b 2e 5c 1e bb 76 ce 06 ba 38 3a ba 39
       0.005634076 -0.002416383 -0.00051424594 0.0003552006
000270 18 be 23 ba a8 86 1f 39 a8 71 be 3b d6 35 a6 3b
       -0.0006246283 0.00015213585 0.0058118887 0.0050723357
000280 8a 9b 15 3b 13 b2 ca 3b 81 bb bb bd 18 90 55 ba
       0.0022828304 0.006185779 -0.09166623 -0.0008146777
000290 e0 5e 44 39 28 11 11 bb 11 54 a0 b9 1b f1 fb 39
       0.0001872736 -0.002213547 -0.00030580212 0.00048054088
0002a0 2f fc c8 bd 86 3b e9 b8 93 35 8d 3c c0 a2 45 38
       -0.09813725 -0.00011121393 0.01723746 4.7120033e-05
0002b0 b0 cf 02 b9 62 0c ba 3c 3f 77 1d ba c9 32 71 3a
       -0.00012475136 0.022710983 -0.0006006844 0.0009200988
0002c0 2e 57 76 3a 2f 6a 92 ba 15 ef 28 ba 3a 1d e0 ba
       0.0009397146 -0.0011170561 -0.00064443174 -0.0017098554
0002d0 a7 18 6e bd 6f 7b 8f 3b 31 14 79 3a 46 e2 93 bc
       -0.05812898 0.004378728 0.0009501605 -0.018052232
0002e0 b0 cd b4 3b e9 29 c0 bc d4 99 81 39 66 9b 9c bd
       0.005517684 -0.023457484 0.00024719408 -0.076468274
0002f0 7d 02 88 3b 71 d2 84 ba 4d 93 bb 3c e9 46 fa ba
       0.0041506873 -0.0010133517 0.022897387 -0.0019094619
000300 25 8e 57 3c 32 1c 81 bd d0 48 34 3c 76 bb b5 39
       0.0131564485 -0.06304206 0.011003688 0.0003466268
000310 bb 91 a9 38 55 2e df 3a b6 db 87 3b 0d 06 04 b9
       8.0856924e-05 0.0017027358 0.0041460646 -0.00012590755
000320 9d 6a 12 bc b5 72 8b ba 1b 02 8b b8 06 f8 97 3b
       -0.008936551 -0.0010639044 -6.628429e-05 0.004637721
000330 79 ed f8 b9 bd f3 8b 3c db 92 79 bc 97 fb a1 3c
       -0.00047479177 0.017083997 -0.015232767 0.019773288
000340 a3 69 82 3a 9a 59 a5 3c 11 10 2e 3a 1b ab 15 39
       0.0009949695 0.020184327 0.00066399673 0.00014273489
000350 f4 65 9c b9 6b b7 c6 b9 ae 3c 89 3b d6 f8 0f ba
       -0.000298306 -0.0003790216 0.004188142 -0.00054920965
000360 a2 6c 82 37 5e 38 8f 3c ea 6c 85 bd e2 21 67 39
       1.5547794e-05 0.017482933 -0.06514914 0.00022042499
000370 c1 81 c4 ba c2 a2 82 3c 22 83 95 b7 00 ca 6b bb
       -0.0014992283 0.01594675 -1.7823248e-05 -0.0035978556
000380 92 35 5d 3a 69 d1 8e b9 8b 64 58 37 bb 90 ab bd
       0.00084384636 -0.00027240373 1.2898013e-05 -0.083772145
000390 81 bd a5 3b 6b 5a 5c 3a 1a 48 cb 37 1a a3 9f 39
       0.005057991 0.00084058073 2.423306e-05 0.00030448363
0003a0 85 23 b5 bd 54 68 bc 39 55 75 45 3a b1 a3 25 ba
       -0.088446654 0.00035935885 0.00075324374 -0.00063186424
0003b0 63 7e a3 bc 05 79 e7 ba 3b bb 5e 3c 32 38 90 3a
       -0.019957727 -0.0017659968 0.013594444 0.0011003076
0003c0 dc 03 cd ba 7a 13 f3 3a 8d c6 00 bb 1b b5 25 bb
       -0.0015641409 0.0018545233 -0.0019649595 -0.002528495
0003d0 41 7e 96 bd d0 a1 c3 38 4a 4a 98 b9 20 34 80 ba
       -0.073483 9.3284645e-05 -0.0002904705 -0.000978116
0003e0 08 82 b0 ba f0 0f 53 3a 88 a0 a2 b9 12 77 92 ba
       -0.0013466487 0.0008051386 -0.00031018653 -0.0011174402
0003f0 c5 81 43 ba 4a d4 b7 3b ee 21 ac ba 26 96 f9 ba
       -0.0007457997 0.0056100236 -0.001313267 -0.001904194

bias f4 [2]
000000 42 63 a6 3e bd c9 32 be
       0.32497603 -0.1745977

weight f4 [2, 256]
000000 9d 5d e5 3b ec a6 8b 3b 78 f1 6e 3b 07 36 04 3b
       0.006999685 0.004261842 0.0036459845 0.0020173804
000010 4e ca 12 bc 21 5e b8 bb 45 ed b8 3b 4b 3d 89 3c
       -0.008959366 -0.0056264554 0.005643519 0.01675286
000020 30 80 b9 3b 64 6d dd 3b 8c 80 ef 38 25 bc b4 3b
       0.005661033 0.006757425 0.00011420352 0.0055155926
000030 29 55 66 ba b5 91 40 3b eb 81 ce bc d3 4e b1 3c
       -0.00087864936 0.0029383723 -0.025208434 0.021644032
000040 6f a8 50 3c 6f 31 dc 3b 48 54 f9 bc a3 89 a4 3b
       0.01273547 0.00671976 -0.030435696 0.0050212904
000050 ac a7 35 3c b4 07 48 bc 4b 8e fb b9 1f ae 8a bc
       0.011087339 -0.012208868 -0.00047980467 -0.01692873
000060 c9 f7 00 bb 85 03 87 ba 09 11 92 3b ec 11 89 3b
       -0.0019678941 -0.0010300732 0.004457597 0.0041830447
000070 b3 f0 82 bc 01 3f 91 3b 32 ec 42 38 ba 96 d5 b8
       -0.015983915 0.0044325595 4.647318e-05 -0.000101847065
000080 54 a3 fb b9 c7 44 ae 3b 6e 2c 04 3b f5 5b 53 3b
       -0.0004799614 0.0053182575 0.0020168084 0.0032250856
000090 de e5 0f ba c0 f6 1b ba 48 ee 04 3a e5 5a 83 3b
       -0.000548927 -0.00059495494 0.0005070907 0.004008638
0000a0 d1 eb b7 3b 7e df 0d bb 04 c8 29 3c e6 1a ef 39
       0.0056128283 -0.0021648104 0.010362629 0.00045605673
0000b0 36 a7 53 3b d7 67 e3 ba 38 06 05 3a 43 4e 6e bb
       0.003229571 -0.0017349672 0.0005074474 -0.0036362566
0000c0 07 af 25 3a e3 f1 37 3b 98 5f a2 3b 3e a7 5f ba
       0.00063203316 0.002806776 0.0049552433 -0.0008531696
0000d0 31 53 a1 3b 88 ee 46 3a 23 42 9d 3b 11 98 5c 38
       0.0049232473 0.00075886445 0.004799144 5.259371e-05
0000e0 79 cb 03 bc c7 70 bc 3b c9 1e 7c 3b 5d 50 1a ba
       -0.008044117 0.005750749 0.0038470498 -0.0005886609
0000f0 8c f8 9a 3b bf 0a 56 ba 75 7f fa ba 2c 1e 6f ba
       0.004729336 -0.00081650534 -0.0019111471 -0.00091216224
000100 de d7 30 3c fc 1e 78 3b be 36 64 ba 69 9a 8f 3b
       0.010793654 0.0037860265 -0.0008705667 0.004382421
000110 2e 2a 66 ba c3 ef dc b9 8b 83 d0 3a 63 37 8b 3b
       -0.0008780089 -0.00042140306 0.0015908343 0.004248546
000120 34 df 8f 3b 61 c6 f7 3a 1c fb e2 3b 62 93 a7 3b
       0.0043906216 0.0018903726 0.006926907 0.005114005
000130 59 bf af 3c 4a 6c f2 38 de b9 ae 3b 03 db 16 b8
       0.021453546 0.0001155963 0.0053322157 -3.5966757e-05
000140 61 26 9d 3b 4d 85 79 3b ff 9e bb bb 20 eb c5 3b
       0.004795835 0.0038073838 -0.005725741 0.006039992
000150 7b d4 29 3b 84 9f 3f 3c 6f 0c f7 39 8f 74 87 3c
       0.0025914002 0.011695746 0.00047120775 0.016535072
000160 42 aa 95 3b 01 93 89 3b 51 3c bf 3a 35 73 93 3b
       0.0045674155 0.0041984324 0.0014590119 0.0044998177
000170 29 5a 78 3b 4f d8 96 3b c8 20 4f b9 b8 f3 5d 3c
       0.0037895537 0.0046034227 -0.0001975327 0.013546877
000180 78 b7 ba 3b fc 6b a0 3b 4d 15 09 ba 46 cc b8 3a
       0.0056981407 0.0048956852 -0.00052293093 0.0014098964
000190 b0 08 17 bb a6 c8 a8 3b 9f 47 8b 3b f6 7b 89 3b
       -0.002304595 0.0051508723 0.0042504813 0.0041956855
0001a0 7b 10 83 3b 1a 38 54 bc 44 84 65 ba 85 0b 4f bc
       0.0039997674 -0.012952829 -0.0008755366 -0.012637024
0001b0 8f b2 00 3a b7 b8 98 3b 11 1c 02 bc 49 fc 9f 3b
       0.000490942 0.0046606916 -0.007941262 0.0048823697
0001c0 09 a8 c9 bb f1 be 2b 3c 94 97 12 3a 7f 97 48 b9
       -0.0061540646 0.010482536 0.0005592045 -0.00019129923
0001d0 6e fa db 3a a4 e6 a7 bc e0 87 27 b9 25 76 82 3b
       0.0016783008 -0.02049572 -0.00015976978 0.003981369
0001e0 6f 55 19 3c 42 f5 f9 3a 66 03 a9 3b bc 16 7f 3b
       0.009358748 0.0019070285 0.005157876 0.0038923463
0001f0 8a f5 bd b9 41 02 0c bd 93 f5 92 3b 11 5e 39 3a
       -0.0003623183 -0.034181837 0.004484841 0.0007071207
000200 d7 9d 85 3b 24 e1 21 3b 27 22 87 3b f2 c9 59 3a
       0.004077654 0.0024700845 0.0041239443 0.0008307985
000210 6b 46 94 3c 92 81 01 3c 1d 96 23 bc 98 1b 7f 3b
       0.018099984 0.007904427 -0.00998452 0.003892636
000220 37 03 9d 3b 5c bf 36 3b 6f e1 79 bc 60 77 6a 3a
       0.004791643 0.0027885055 -0.015251501 0.000894418
000230 1f 81 f3 39 ff e1 9f 3b d3 db 80 ba 35 fe a7 3a
       0.00046444774 0.0048792358 -0.0009831138 0.0012816848
000240 5f 2b ba 3c 01 71 9d 3b 6a 2a b0 3b 3d b8 b2 bc
       0.02272576 0.004804731 0.00537615 -0.021816367
000250 56 08 b9 ba 67 68 4a 3b 60 5d 81 3b 91 44 ff 3a
       -0.0014116864 0.0030884983 0.0039478987 0.001947539
000260 09 81 82 3b 5a fc bd 3b c4 47 8c 3b 65 05 75 3b
       0.0039826673 0.005797905 0.004281016 0.0037387249
000270 5e 78 82 3b a9 c2 a6 3b f9 07 3e 3a 63 e1 9e 3b
       0.003981634 0.0050891233 0.0007249113 0.0048486455
000280 54 43 a4 b8 fd 23 70 3b 40 52 2c bc e2 70 6c 3a
       -7.83267e-05 0.0036642544 -0.010517657 0.00090195064
000290 86 52 91 3b 9a 77 97 3b 17 75 ac 3b 75 2f 2d 39
       0.0044348864 0.004622412 0.0052629816 0.00016516245
0002a0 d0 32 a5 bc 6f eb 7a ba 19 d7 92 3c 53 8d 9e 3b
       -0.02016583 -0.00095718255 0.017924832 0.0048386245
0002b0 45 99 8f 3b aa ad b5 bc 43 a2 92 37 63 23 78 3b
       0.004382285 -0.022177536 1.7480115e-05 0.003786289
0002c0 64 66 d2 ba 12 93 aa 3b 2c 07 38 b9 bc ca a3 3b
       -0.0016052243 0.0052055204 -0.00017550279 0.004998533
0002d0 fa 34 64 3c d0 f1 9f 3b 51 5b 99 3b 71 13 58 bc
       0.013928646 0.004881121 0.004680075 -0.013188229
0002e0 e9 b1 1a 3a 3a f0 0b 3c 3d 83 a1 3b b4 29 e4 bb
       0.00059011445 0.008541161 0.004928975 -0.006962979
0002f0 ee c1 27 3b d4 c0 d3 39 be 05 91 bc 28 c7 8d 3b
       0.0025597769 0.00040388724 -0.017702933 0.00432672
000300 13 fe ae 3b 6e 8b 6e 3b fd f3 79 3c 25 f0 52 3b
       0.0053403466 0.0036399025 0.015255925 0.0032186594
000310 c5 30 b5 38 f6 a0 4e 3a db ff 87 3b 06 5a 90 3b
       8.6398366e-05 0.00078822614 0.0041503734 0.004405263
000320 d6 f4 68 3c 6b 08 44 ba cd e6 a2 3b c6 2f 91 3b
       0.01421853 -0.0007478061 0.0049713613 0.004430744
000330 0b f8 81 3b cb da 4a 3c b4 2b 43 3c 88 00 89 bb
       0.0039663366 0.012381266 0.011912275 -0.0041809715
000340 0e 97 80 ba 09 b4 82 bc ca 9d b9 3b 9e e3 88 39
       -0.0009810643 -0.015954988 0.005664562 0.0002610953
000350 77 80 8f 3b 65 97 8a 3b e8 55 9d 3b 1c 46 8b 3a
       0.004379328 0.0042294734 0.0048015006 0.0010625753
000360 5c 44 62 3b 6b 19 8b bc ec 3e 2a 3c 3c 03 44 3b
       0.0034525609 -0.016979894 0.010390978 0.0029909154
000370 10 bf 2e bb a1 f9 29 bb a9 23 90 3b c7 ad ea b9
       -0.0026664175 -0.0025936144 0.0043987823 -0.00044761432
000380 82 06 83 3a b8 a6 9d 3b 22 db 6f 3b 3e be 14 bc
       0.0009996446 0.004811134 0.003659912 -0.00907856
000390 19 d0 85 bb 03 cb 17 ba db 33 98 3b 3c 8b 9a 3b
       -0.004083645 -0.0005790444 0.0046448535 0.004716305
0003a0 6e 87 19 39 ab fa 8f 3b 87 cf 94 3b 2c 25 b6 3b
       0.00014641669 0.0043938956 0.0045413407 0.0055586305
0003b0 70 a5 8f 3b 10 bf b4 ba 52 c1 f7 bb 5e 75 30 3b
       0.0043837354 -0.0013789851 -0.0075608874 0.0026925425
0003c0 4a ec ae 3b 3c e6 5f 3b 25 d0 83 3b a5 76 b4 3b
       0.0053382264 0.003416433 0.0040226155 0.0055073076
0003d0 67 c8 91 3b 89 6f 1e 3c 8f ca 2e 3b 82 96 06 bb
       0.0044489386 0.009670147 0.0026671027 -0.0020536487
0003e0 20 8c d8 39 2b fc 4a 3b 7b 90 43 ba d1 42 9f 3b
       0.00041303132 0.0030973058 -0.0007460189 0.00486026
0003f0 13 59 91 3b 90 74 80 bb bb 9d 92 3b 62 ab 86 3b
       0.0044356673 -0.0039201453 0.0044743693 0.004109786

bias f4 [2]
000000 6f cc c4 3e 48 64 b5 3e
       0.3843722 0.3542807
