Intelligent car/model_weight/policy_net_para2.pkl (torch_old, 277975 bytes, 8 tensors)

weight f4 [256, 3]
-0.05242379 0.1388289 0.5033204 0.30293107 0.38694942 -0.9465845 0.078242116 0.03350197
-0.48278236 0.19786465 0.09966886 0.35689083 0.2478502 0.001357784 -0.2657122 0.22435765
-0.4235105 -0.8465181 0.036977924 -0.049412396 -0.70479286 -0.04593681 0.0022168993 0.9539117
0.40923026 0.40498748 0.4795053 -0.23108783 -0.40411064 -0.016621018 -0.656547 0.19851296
0.43534884 0.29061976 -0.30387685 0.0854156 -0.62644565 0.5075092 0.30649725 -0.020078495
0.357277 -0.31580707 -0.40597165 -0.31147397 0.05275393 -0.12603419 0.44115403 -0.735766
-0.35156938 -0.017444987 0.004922458 -0.31446138 -0.18500459 -0.4208237 -0.008241364 -0.50318295
0.10252531 0.297706 0.010947014 -0.18097828 0.06932582 0.43828976 -0.64373267 -0.27065358
-0.18675528 1.1410036 -0.18178971 0.1962939 -0.53833544 -0.30299065 0.6157323 0.03508222
0.3777831 -0.35305408 0.60864305 -0.012136526 0.45432305 -0.5345255 -0.03676044 -0.0008667134
0.7234946 0.024468148 -0.008621447 0.90151376 -0.23185764 0.45379147 0.116923526 -0.51596636
-0.017852556 0.2624428 0.1140047 -0.091151334 0.5955472 -0.2680266 -0.33220762 -0.04156703
-0.40617988 0.089298576 -0.87780535 0.36691234 -0.7408323 0.09811221 0.034019254 0.45342052
-1.0253018 0.043507587 -0.42735013 0.76904696 -0.31368363 0.2715056 -0.60124785 -0.30333304
0.48802125 -0.50559914 0.022928568 0.3009489 0.011824968 -0.3294844 0.5393898 -0.47356558
0.48420885 0.23439474 -0.97270244 -0.16299012 0.360948 -0.41047618 -0.37028313 0.21515419
0.4162799 0.15198864 0.47973254 0.46693 0.01920112 0.1016299 0.6789551 -0.41826487
-0.15578564 -0.10297543 0.2025367 -0.40900257 -0.3290375 0.044731915 -0.0551487 0.43539274
0.26624334 -0.10026771 -0.43176925 0.47249374 -0.5824303 -0.37695116 -0.08791561 -0.3502759
0.2042192 -0.39230332 -0.12803195 0.28359058 -0.01030513 -0.41333908 0.20683417 0.3678007
-0.5407761 0.502885 0.2902507 0.2529123 -0.49889055 -0.08659286 0.11929217 0.06482109
-0.3956501 -0.43832853 0.0958173 -0.052227598 -0.5048013 0.02455178 -0.01765185 -0.15095566
0.071537726 -0.0066738045 0.020757731 -0.042515274 0.22947034 -0.3333861 0.424536 -0.0020810892
0.31043845 -0.5948018 0.07369902 -0.08161385 0.54803777 -0.28380698 0.30312294 0.19266883
-0.0877615 -0.32511783 -0.07257534 -0.0236243 0.18077393 -0.76168126 -0.09402737 0.28144023
0.7770762 0.2191153 -0.25971887 0.2748407 0.27712864 0.46122798 -0.51593167 0.023555918
-0.044031058 0.94991386 -0.23451833 0.5386626 -0.3557075 -0.27024183 -0.2200774 -0.36591277
-0.1821204 0.1778228 0.1610708 0.18452524 0.17983638 0.7300084 -0.29019397 0.6186122
-0.62560195 -0.40382215 0.35269198 0.1172329 0.102715544 0.26896262 -0.61977714 0.04181857
-0.6267352 0.6004366 -0.6107329 0.044588357 -0.45841306 0.012405391 -0.5537786 -0.30372936
-0.16212478 0.33728245 -0.11362943 -0.28528407 0.1870215 -0.041376587 -0.18750997 -0.15851054
-0.09162362 0.09319012 0.07036735 -0.91216725 -0.28434744 -0.27494454 -0.21748745 -0.24074367
00000000: 54ba 56bd 2a29 0e3e 9bd9 003f c819 9b3e
00000010: 3c1e c63e 5d53 72bf 673d a03d 5d39 093d
00000020: 402f f7be 089d 4a3e 301f cc3d 65ba b63e
00000030: 71cc 7d3e acf7 b13a 6e0b 88be 03be 653e
00000040: 5ed6 d8be 69b5 58bf 2a76 173d a764 4abd
00000050: 4e6d 34bf 3d28 3cbd 6649 113b 8f33 743f
00000060: a186 d13e 855a cf3e b881 f53e 4aa2 6cbe
00000070: 97e7 cebe cd28 88bc 7713 28bf fb46 4b3e
00000080: 0be6 de3e 1dcc 943e bf95 9bbe 60ee ae3d
00000090: be5e 20bf 1fec 013f 35ed 9c3e a87b a4bc
000000a0: 03ed b63e 77b1 a1be 84db cfbe 8479 9fbe
000000b0: 8114 583d 1b0f 01be f1de e13e 295b 3cbf
000000c0: e700 b4be cae8 8ebc 924c a13b 1501 a1be
000000d0: d871 3dbe 3476 d7be c906 07bc 99d0 00bf
000000e0: caf8 d13d ec6c 983e 1b5b 333c 5f52 39be
000000f0: b2fa 8d3d 8467 e03e aacb 24bf 1b93 8abe
00000100: c73c 3fbe 680c 923f 1527 3abe 4501 493e
00000110: 5ad0 09bf 9721 9bbe a2a0 1d3f 60b2 0f3d
00000120: c96c c13e 81c3 b4be 08d0 1b3f 48d8 46bc
00000130: 089d e83e aad6 08bf 1d92 16bd 2734 63ba
00000140: f136 393f 6d71 c83c f840 0dbc 9bc9 663f
00000150: 176c 6dbe 5b57 e83e 9a75 ef3d 5f16 04bf
00000160: 863f 92bc e75e 863e 4c7b e93d 8dad babd
00000170: c875 183f c83a 89be 1e17 aabe 3142 2abd
00000180: cff6 cfbe 2ce2 b63d dab7 60bf efdb bb3e
00000190: 30a7 3dbf 0eef c83d c657 0b3d bc26 e83e
000001a0: 173d 83bf 0335 323d a3cd dabe 43e0 443f
000001b0: 249b a0be c802 8b3e 61eb 19bf 784e 9bbe
000001c0: ecdd f93e f26e 01bf b1d4 bb3c f915 9a3e
000001d0: 83bd 413c 2eb2 a8be 7315 0a3f 3077 f2be
000001e0: 39ea f73e 2d05 703e 0703 79bf e2e6 26be
000001f0: 2dce b83e ef29 d2be c095 bdbe 6151 5c3e
00000200: a422 d53e e9a2 1b3e 819f f53e 7311 ef3e
00000210: ab4b 9d3c 5623 d03d 00d0 2d3f d026 d6be
00000220: 4586 1fbe c8e4 d2bd c865 4f3e c968 d1be
00000230: 9a77 a8be d038 373d 9ae3 61bd cceb de3e
00000240: 0c51 883e 2859 cdbd dc10 ddbe b3ea f13e
00000250: 271a 15bf beff c0be 190d b4bd 5d57 b3be
00000260: d71e 513e fbdb c8be cf1a 03be c932 913e
00000270: d9d6 28bc 2ea1 d3be 56cc 533e 6050 bc3e
00000280: 4d70 0abf 12bd 003f bd9b 943e b97d 813e
00000290: 956e ffbe 9957 b1bd 744f f43d ebc0 843d
000002a0: a692 cabe 996c e0be dc3b c43d 9bec 55bd
000002b0: a83a 01bf d120 c93c 9d9a 90bc 1f94 1abe
000002c0: 5f82 923d eeaf dabb 1e0c aa3c 7f24 2ebd
000002d0: 46fa 6a3e 95b1 aabe c85c d93e e262 08bb
000002e0: caf1 9e3e ee44 18bf 83ef 963d 2a25 a7bd
000002f0: 344c 0c3f 264f 91be ee32 9b3e fa4a 453e
00000300: 4dbc b3bd d875 a6be 61a2 94bd bf87 c1bc
00000310: cd1c 393e 8bfd 42bf 6c91 c0bd ef18 903e
00000320: 77ee 463f c35f 603e dff9 84be ecb7 8c3e
00000330: cee3 8d3e 1326 ec3e 1914 04bf 57f8 c03c
00000340: e959 34bd 8e2d 733f 9325 70be cbe5 093f
00000350: 4b1f b6be 235d 8abe f85b 61be eb58 bbbe
00000360: c57d 3abe 2e17 363e beef 243e 2ff4 3c3e
00000370: 0727 383e d5e1 3a3f 4e94 94be 5e5d 1e3f
00000380: 7327 20bf c7c1 cebe 0b94 b43e cd17 f03d
00000390: 875c d23d 78b5 893e b7a9 1ebf f349 2b3d
000003a0: b871 20bf 37b6 193f fe58 1cbf 48a2 363d
000003b0: 1eb5 eabe fb3f 4b3c 6fc4 0dbf 6a82 9bbe
000003c0: 0a04 26be 49b0 ac3e 8cb6 e8bd c110 92be
000003d0: 9082 3f3e 7f7a 29bd 9d02 40be 9650 22be
000003e0: 2aa5 bbbd 76da be3d c21c 903d cb83 69bf
000003f0: fd95 91be 88c5 8cbe 08b5 5ebe 8285 76be

bias f4 [256]
0.087645315 -1.5139034 -0.6839148 0.5640992 -0.9631938 -0.85866773 0.33501405 0.09733506
-0.045448024 -0.040689345 0.12865402 -0.6620244 0.32510692 -0.8870203 -0.3932677 0.13945264
0.3057527 0.05536012 -0.51838017 0.09723686 -1.1725947 0.39644513 0.36031127 0.42457736
0.39452884 -1.3195271 -0.0068707527 0.0160492 -0.3432484 -0.64093065 0.023251407 -0.22234687
0.2800583 -0.8252469 -0.5748475 0.12797078 0.33781055 0.32639495 0.20520812 -0.50318456
-0.9351461 -0.5587835 -0.2755044 0.57673156 0.48117033 0.056332365 0.13399854 0.21492669
-0.2554754 -0.68310946 -0.45714805 -0.5419551 -0.42985848 0.27899334 -0.45348477 -0.2880166
-0.32017815 -0.25330162 0.21703471 0.36854744 0.36797148 -1.150516 0.23271216 0.5426017
0.31920114 -0.037173394 0.27567306 0.51841927 -0.18409593 0.16523121 -0.8404099 -0.49912032
-0.563095 0.6787979 -1.2535512 -0.655723 -1.5625834 -0.52554864 -0.75117403 -0.54242414
0.004130954 -0.3116462 -0.3652805 -0.8652022 -0.4848116 -0.35141075 -0.006321168 -0.32377133
-0.4762307 0.3930898 0.42001623 -0.7694735 0.28292978 0.38846147 -1.0937206 -0.7789309
-0.21551645 0.14097764 0.07954327 -1.3318726 -0.008450516 0.36437768 -0.4262296 -0.49026474
-0.15074277 0.090067685 0.019084558 0.44785854 0.3005805 0.36021122 -0.059496213 0.017633293
-0.009468032 -0.95700055 0.02363267 0.12034251 0.40682665 0.4590473 0.12046781 0.2628585
0.39946395 -0.58925736 -0.19972003 -0.10874277 0.16421583 0.6284654 -0.09522775 -0.997361
0.037709147 -0.6247161 -0.3680259 -0.6122456 -0.47453994 0.28290907 -0.23446386 0.30695257
0.3150447 0.8424957 -0.43099487 0.4830937 0.26230282 0.30977225 -0.47969374 -0.3186235
0.24608637 0.3175245 -0.10061057 0.24702406 -0.25829193 0.40543658 -0.13673751 -1.1127023
-1.1104705 0.28521624 -0.05168941 -0.36106294 -0.607412 -0.46828198 -1.4133302 0.21143532
-0.72823614 -0.5307872 -0.008702272 -0.017303262 -0.52581286 0.059944116 0.36891386 0.3628955
0.029534725 0.5986653 0.0028717702 -0.40502122 0.20179482 -0.91537946 0.064533554 -0.042563744
0.14081316 0.45266834 0.30680567 -0.88168204 0.27566898 0.22377421 -0.21472634 -0.32582137
0.024655158 -0.8501684 -0.18259826 -0.2840056 0.5060609 0.57093793 -0.059360616 -0.45976132
0.37451828 -1.060844 0.4589499 -1.2650872 0.38551083 0.32536006 0.17235693 -0.08582083
0.41416112 -0.26310354 -0.27021316 -0.49481344 0.16612948 -0.973247 0.12971 0.0906665
-0.5955413 0.35779625 -0.0210225 -0.067162216 -0.5067714 0.07729413 0.40774557 0.43554306
-0.07048414 -0.25231215 -0.51528573 -0.15593165 -0.5441511 -0.05158261 -0.21552202 -0.88669693
0.37950984 0.01484486 -1.0943689 0.2284831 -0.45332566 -0.19918415 -0.3937244 0.13780817
-0.21470036 0.04641816 0.27184677 -0.4810008 -0.7105482 -0.36203575 -0.31247574 0.46555063
-0.21870635 -0.6060385 -0.7050126 0.41425148 0.06425829 0.17472573 0.30947673 0.30539784
0.41184628 -1.2148876 -0.1882663 0.053316373 -0.112851754 0.7113277 -0.038170096 0.21370515
00000000: 637f b33d 96c7 c1bf 0a15 2fbf ce68 103f
00000010: de93 76bf a6d1 5bbf f686 ab3e 9b57 c73d
00000020: b527 3abd dfa9 26bd e1bd 033e 6e7a 29bf
00000030: 6a74 a63e c313 63bf 625a c9be accc 0e3e
00000040: 9e8b 9c3e 4bc1 623d 90b4 04bf 1e24 c73d
00000050: 9517 96bf dbfa ca3e b87a b83e 3462 d93e
00000060: afff c93e 44e6 a8bf 0d24 e1bb 9d79 833c
00000070: 41be afbe 0814 24bf bc79 be3c e6ae 63be
00000080: cd63 8f3e 6143 53bf 3529 13bf c60a 033e
00000090: 81f5 ac3e 3d1d a73e 1422 523e b4d0 00bf
000000a0: bc65 6fbf 6f0c 0fbf ea0e 8dbe aea4 133f
000000b0: f55b f63e c4bc 663d ea36 093e be15 5c3e
000000c0: accd 82be 43e0 2ebf 4f0f eabe 92bd 0abf
000000d0: 6916 dcbe 37d8 8e3e 282f e8be e976 93be
000000e0: 64ee a3be c0b0 81be 593e 5e3e 40b2 bc3e
000000f0: c266 bc3e 1c44 93bf 194c 6e3e f2e7 0a3f
00000100: 556e a33e 2143 18bd 0525 8d3e 20b7 043f
00000110: a583 3cbe 5f32 293e 1a25 57bf b38c ffbe
00000120: fe26 10bf b3c5 2d3f 5e74 a0bf 76dd 27bf
00000130: bc02 c8bf 5b8a 06bf f14c 40bf 4fdc 0abf
00000140: f45c 873b 1790 9fbe 0c06 bbbe e47d 5dbf
00000150: 3a39 f8be 1cec b3be cd21 cfbb 5bc5 a5be
00000160: 83d4 f3be 1143 c93e 5e0c d73e 37fc 44bf
00000170: 2cdc 903e 6ce4 c63e 09ff 8bbf 0468 47bf
00000180: 58b0 5cbe 715c 103e 95e7 a23d cd7a aabf
00000190: 0874 0abc b68f ba3e c43a dabe fb03 fbbe
000001a0: 505c 1abe 6875 b83d 3857 9c3c b74d e53e
000001b0: b0e5 993e 9b6d b83e 4db2 73bd b273 903c
000001c0: ce1f 1bbc fdfd 74bf 4d99 c13c 2276 f63d
000001d0: 954b d03e 3f08 eb3e d4b7 f63d 6495 863e
000001e0: 8a86 cc3e 92d9 16bf 6883 4cbe 88b4 debd
000001f0: 3228 283e 1ce3 203f c406 c3bd 0d53 7fbf
00000200: e874 1a3d 65ed 1fbf e46d bcbe 21bc 1cbf
00000210: e6f6 f2be 75d9 903e 4b17 70be e328 9d3e
00000220: 8a4d a13e ccad 573f 5cab dcbe 0f58 f73e
00000230: 8e4c 863e 789a 9e3e 6b9a f5be 9f22 a3be
00000240: 11fe 7b3e 9292 a23e ea0c cebd e0f3 7c3e
00000250: d73e 84be 6295 cf3e eb04 0cbe 076d 8ebf
00000260: e623 8ebf dd07 923e 46b8 53bd 3edd b8be
00000270: 5a7f 1bbf a8c2 efbe 01e8 b4bf 8082 583e
00000280: af6d 3abf ace1 07bf f993 0ebc 92bf 8dbc
00000290: ac9b 06bf f687 753d 47e2 bc3e 70cd b93e
000002a0: cff2 f13c 2142 193f 4f34 3c3b f15e cfbe
000002b0: 4da3 4e3e 4f56 6abf 2b2a 843d 5257 2ebd
000002c0: 5331 103e 25c4 e73e a215 9d3e eab5 61bf
000002d0: 7c24 8d3e 1125 653e 39e1 5bbe 0fd2 a6be
000002e0: 9df9 c93c a3a4 59bf 0afb 3abe 2f69 91be
000002f0: 358d 013f fd28 123f 1e24 73bd d665 ebbe
00000300: dcc0 bf3e bcc9 87bf 7bfb ea3e 61ee a1bf
00000310: ad61 c53e 9895 a63e 567e 303e d5c2 afbd
00000320: ed0c d43e 82b5 86be 6159 8abe 3058 fdbe
00000330: d91d 2a3e b726 79bf b3d2 043e 5caf b93d
00000340: 6575 18bf 1231 b73e 6137 acbc 588c 89bd
00000350: c5bb 01bf 634c 9e3d 07c4 d03e 80ff de3e
00000360: fd59 90bd 0f2f 81be c4e9 03bf 8cac 1fbe
00000370: 7d4d 0bbf 4948 53bd ceb1 5cbe 92fe 62bf
00000380: 1d4f c23e db37 733c 4814 8cbf 79f7 693e
00000390: 4d1a e8be eef6 4bbe 3f96 c9be 961d 0d3e
000003a0: 69da 5bbe f820 3e3d 802f 8b3e bd45 f6be
000003b0: 7de6 35bf c05c b9be d2fc 9fbe a75c ee3e
000003c0: 8ff4 5fbe 5725 1bbf b57b 34bf c518 d43e
000003d0: da99 833d 4deb 323e bc73 9e3e 1b5d 9c3e
000003e0: 84dd d23e 7081 9bbf e2c8 40be 4562 5a3d
000003f0: d21e e7bd 9219 363f 3f58 1cbd 86d5 5a3e

weight f4 [256, 256]
-0.01547306 0.04573461 -0.012216539 -0.06620383 0.04617724 -0.039073206 -0.06265882 -0.039185055
-0.00089203106 -0.021545649 -0.044201504 -0.045352567 0.03912843 -0.039805513 -0.019210301 0.025680833
-0.053249247 0.01919707 0.0057907775 0.04118681 -0.055090647 0.005158253 -0.054519106 0.010602888
-0.0100661125 -0.029047469 0.055159055 -0.019548452 0.028189454 0.041436628 0.026699865 0.041657485
0.0589728 0.021187026 0.047481634 -0.056499247 -0.049961954 -0.061448727 0.049937706 -0.012268402
0.052171018 -0.03592819 0.023991533 0.00021770474 -0.024301058 0.021286957 -0.052766383 -0.04204944
0.042007323 -0.040102016 0.049237236 0.00094308704 0.017950833 -0.04865022 -0.062588796 0.033357196
-0.020157464 0.0580874 -0.035184607 0.0074821534 0.0017076433 0.036116473 0.007871795 -0.054274466
-0.008842245 0.01807354 -0.03948975 0.036840428 -0.04045314 0.007268545 0.008699541 -0.00013102591
0.042751383 -0.015700461 -0.057113253 -0.0011556109 -0.02715435 -0.03868183 0.035852388 0.042515025
-0.0122104995 0.023971371 0.034611866 0.015810275 0.040361144 0.04378064 -0.031815626 0.050948408
0.046761297 -0.033623576 0.0515716 0.0024407464 0.007917668 -0.011154369 0.012843701 0.035866242
-0.053791165 0.003669992 0.010402305 0.031540778 -0.06456653 0.049481247 0.00047895312 0.0037385672
0.022184497 -0.018502243 0.018971633 0.0014358909 -0.06502201 -0.054931045 -0.016158633 0.016989363
0.035898328 -0.012066623 0.013575627 -0.036182467 -0.04560454 -0.002812637 -0.028620169 0.050875153
0.017363146 0.020789385 0.016576894 0.0037969083 -0.046637774 0.01150144 -0.025681183 -0.054552846
0.0035362972 0.025900196 -0.0015033679 0.03892779 -0.030809425 -0.03381069 0.059271917 -0.06677546
0.048054006 0.035704773 -0.06574197 -0.021101246 -0.052295886 0.017324345 0.0065331534 0.019983545
-0.0061358423 -0.0038723648 0.05360207 -0.054014876 -0.022885054 0.018206662 -0.0050263926 -0.059916653
0.045599375 0.00063517434 0.048133776 -0.02395291 -0.05345857 -0.04995842 -0.027756885 0.0071452814
0.028777674 -0.012442462 0.025223799 0.0039134184 -0.011201061 -0.015858455 0.04752236 0.016051836
0.018925838 -0.013662869 0.029297438 0.044105142 0.028950429 0.034597058 0.062148258 -0.0485057
0.005115892 -0.022108449 0.007937143 -0.009570937 0.019522874 0.03155752 -0.03568981 0.005635582
-0.021540992 -0.06623176 0.020216908 -0.054984868 -0.041641206 0.022011273 0.019229986 0.050075065
-0.057108298 0.03834801 0.042845428 -0.019630646 -0.05668133 -0.005699202 0.051151205 -0.022088025
-0.028393874 -0.046684235 0.018976362 -0.0438326 0.018108211 -0.028435748 -0.017531715 0.05333653
0.033463858 -0.051851645 0.023378143 -0.048082504 -0.02620272 -0.030496486 0.0061439425 0.032827392
-0.049585134 0.017758174 -0.0025176331 -0.03617435 0.013964238 -0.035177015 0.051437892 -0.0023962904
0.018090554 -0.018876709 0.023702672 -0.05661115 -0.06291246 -0.06723114 -0.0224908 -0.038470693
0.0368218 0.050994076 -0.02079986 0.060829967 -0.0462805 -0.01458849 -0.047313653 -0.0035163683
0.014162853 0.009111173 0.018197935 -0.06926486 -0.042858157 0.00990662 -0.03420227 -0.015681684
-0.06233093 -0.06257211 0.006135246 -0.048381537 -0.010917325 -0.013503328 -0.025177812 0.056330204
00000000: b882 7dbc 3754 3b3d e127 48bc e095 87bd
00000010: 5824 3d3d 3a0b 20bd 4453 80bd 8280 20bd
00000020: 31d7 69ba 8080 b0bc a30c 35bd 9dc3 39bd
00000030: 2245 203d 1b0b 23bd ec5e 9dbc 9c60 d23c
00000040: e21b 5abd 2c43 9d3c 90c0 bd3b 80b3 283d
00000050: bba6 61bd 9006 a93b 6d4f 5fbd bcb7 2d3c
00000060: 56ec 24bc f5f4 edbc 76ee 613d 1324 a0bc
00000070: 92ed e63c 74b9 293d adb9 da3c 0aa1 2a3d
00000080: 768d 713d 6a90 ad3c 1a7c 423d c16b 67bd
00000090: e8a4 4cbd a9b1 7bbd 7b8b 4c3d 6801 49bc
000000a0: 47b1 553d 7029 13bd e489 c43c ac47 6439
000000b0: 0313 c7bc fc61 ae3c 9021 58bd 093c 2cbd
000000c0: df0f 2c3d 0342 24bd fcac 493d 8039 773a
000000d0: a00d 933c 7445 47bd 8e2e 80bd 8ea1 083d
000000e0: 4421 a5bc 0eed 6d3d bc1d 10bd da2c f53b
000000f0: 00d3 df3a deee 133d b4f8 003c e74e 5ebd
00000100: 10df 10bc f60e 943c 01c0 21bd fde5 163d
00000110: 31b2 25bd fa2c ee3b 8588 0e3c 0064 09b9
00000120: 131c 2f3d 419e 80bc 96ef 69bd de77 97ba
00000130: cd72 debc d770 1ebd f4d9 123d 3c24 2e3d
00000140: 8c0e 48bc 9c5f c43c 2cc5 0d3d 8d84 813c
00000150: ba51 253d 5453 333d 1a51 02bd 47af 503d
00000160: c688 3f3d e0b8 09bd be3c 533d eef4 1f3b
00000170: 1bb9 013c d1c0 36bc 636e 523c 7be8 123d
00000180: 2054 5cbd 4084 703b 6e6e 2a3c e730 013d
00000190: 753b 84bd d9ac 4a3d 001c fb39 c002 753b
000001a0: 43bc b53c 0492 97bc 666a 9b3c 8134 bc3a
000001b0: 422a 85bd 60ff 60bd 1c5f 84bc 472d 8b3c
000001c0: 200a 133d 16b3 45bc 4e6c 5e3c 1134 14bd
000001d0: d3cb 3abd 3854 38bb d874 eabc 7762 503d
000001e0: 283d 8e3c 804e aa3c 44cc 873c 8dd5 783b
000001f0: 4007 3fbd 8970 3c3c 5861 d2bc ce72 5fbd
00000200: 39c1 673b a62c d43c a80c c5ba bf72 1f3d
00000210: 0c64 fcbc 147d 0abd 1cc7 723d 93c1 88bd
00000220: 47d4 443d 2b3f 123d baa3 86bd 85dc acbc
00000230: 3634 56bd c9eb 8d3c 1014 d63b 88b4 a33c
00000240: 2d0f c9bb 80c7 7dbb d88d 5b3d b43e 5dbd
00000250: 7079 bbbc 2326 953c 70b4 a4bb 2a6b 75bd
00000260: 69c6 3a3d d481 263a ec27 453d e538 c4bc
00000270: 60f7 5abd 33a1 4cbd 6862 e3bc f722 ea3b
00000280: 28bf eb3c 78db 4bbc 24a2 ce3c 223c 803b
00000290: a884 37bc 97e9 81bc cea6 423d 247f 833c
000002a0: 5c0a 9b3c 3ada 5fbc 2e01 f03c 98a7 343d
000002b0: 7329 ed3c a5b5 0d3d 2c8f 7e3d eaad 46bd
000002c0: 36a3 a73b c71c b5bc ca0a 023c 6bcf 1cbc
000002d0: 6fee 9f3c 7542 013d 7a2f 12bd b0aa b83b
000002e0: bc76 b0bc 84a4 87bd ee9d a53c d037 61bd
000002f0: f88f 2abd fc50 b43c 3488 9d3c 831b 4d3d
00000300: 64ea 69bd ce12 1d3d b07e 2f3d 73d0 a0bc
00000310: af2a 68bd 5fc0 babb ed83 513d f2f1 b4bc
00000320: 459a e8bc f837 3fbd 5174 9b3c d089 33bd
00000330: ac57 943c 16f2 e8bc ac9e 8fbc 6877 5a3d
00000340: 6611 093d 6462 54bd 8583 bf3c 29f2 44bd
00000350: 16a7 d6bc c4d3 f9bc 2053 c93b 0476 063d
00000360: c819 4bbd 9779 913c e0fe 24bb 8e2b 14bd
00000370: 42ca 643c c615 10bd 8ab0 523d 150b 1dbb
00000380: a432 943c 54a3 9abc 1b2c c23c 18e1 67bd
00000390: 3fd8 80bd 7bb0 89bd a03e b8bc 7293 1dbd
000003a0: 75d2 163d 2adf 503d 7864 aabc d828 793d
000003b0: 9f90 3dbd 9004 6fbc f6cb 41bd df72 66bb
000003c0: 500b 683c 0847 153c d613 953c bcda 8dbd
000003d0: 098c 2fbd 604f 223c ae17 0cbd e076 80bc
000003e0: b84e 7fbd ce25 80bd 2c0a c93b b82b 46bd
000003f0: 94de 32bc 103d 5dbc b341 cebc 80ba 663d

bias f4 [256]
0.025502564 0.03117966 -0.085296616 0.00641142 0.014759293 -0.029221984 -0.06852537 -0.021981176
0.03801828 -0.035640266 0.026046727 0.033957373 0.027921977 0.020997943 0.027814142 -0.051683642
0.047151793 0.007842918 0.020737635 0.045157515 -0.014228599 0.019553825 0.036477033 -0.0768981
-0.022938183 0.04786732 -0.0456604 -0.017573163 -0.05194109 -0.07198839 -0.04868364 0.018537479
0.0031402227 0.017784158 -0.026798263 -0.043012265 0.0055048345 -0.0050730277 -0.028639397 0.04753441
-0.08275828 0.050413813 -0.012557273 -0.04154905 0.004263972 0.01680726 -0.03343481 -0.03648219
0.03784251 -0.045700267 0.023422487 -0.04304433 0.046223518 -0.00784186 -0.060340375 -0.015901456
0.0309189 -0.061433844 -0.023290068 -0.060673546 0.043619484 -0.021872075 -0.051218256 -0.041628577
0.017780524 0.009177784 -0.052859776 -0.018605024 0.048357535 0.04155798 -0.04415853 0.02742128
0.006583728 -0.061082873 -0.031899035 0.043547858 -0.06217266 -0.054681234 -0.05439724 -0.009851219
0.025320593 0.0115640955 -0.032556992 0.003835583 -0.043524288 -0.02435411 0.0039214417 -0.034973852
0.036091413 0.044874653 -0.0705529 0.02039605 0.00543101 0.04430948 -0.020273365 0.16559342
-0.037320327 -0.010070806 0.023590118 0.022353573 -0.03968858 1.5662461e-05 0.035435162 0.0009007945
0.038082954 0.041730046 -0.00907875 0.024528475 0.014161338 -0.059284415 -0.007737304 -0.046900682
0.010546529 0.016622547 -0.008003071 0.040242974 0.031980988 0.0098998705 0.11046924 -0.0164915
0.029890498 -0.008412287 -0.05142343 -0.06846317 0.013398207 -0.011638744 -0.02278606 -0.013491823
-0.032307684 0.012719653 0.03827028 -0.010485386 -0.038398538 -0.01452956 -0.008223666 -0.049115017
-0.05286006 0.033485707 -0.027906872 -0.06487803 0.04285139 -0.043437254 -0.051588465 -0.057314865
0.031686615 0.03179738 0.0015326934 -0.057616614 -0.060506728 -0.042102918 0.048031133 0.0298806
-0.0021390482 -0.04851308 -0.012793711 -0.014422615 0.04407981 -0.067945294 -0.031438652 -0.014755257
0.0113008935 0.04896908 -0.044409417 -0.010286557 0.041903593 0.013183393 -0.033617243 0.012197822
0.0028092978 -0.05206893 -0.0566525 -0.011100496 -0.034461584 -0.05433166 0.048246287 0.03517957
-0.067956604 0.019788446 0.035039786 0.014884669 0.022391768 -0.040404268 0.14742146 -0.047373466
-0.038664065 -0.019146353 0.03714773 -0.0036881815 0.009486429 -0.006504619 -0.018951057 -0.05666272
-0.007759778 -0.03163355 0.02474736 -0.06268075 -0.03008961 -0.04163579 0.046530567 -0.068482034
-0.0052754804 -0.026853437 0.03561479 -0.008432378 -0.023080504 0.02791965 -0.00448352 0.030601315
0.13002369 -0.024938887 -0.06246524 -0.05794601 0.03820012 -0.01643565 0.031297993 0.036781512
0.053729136 0.040575888 0.032086927 0.020486925 0.029551618 -0.019909337 0.037168365 -0.016096517
0.02087446 -0.0035854212 0.006642328 -0.052509032 -0.017130611 0.008688243 -0.076581106 0.054364104
-0.034504943 -0.004028267 -0.03005896 0.02612695 -0.003811329 -0.018135265 -0.044691566 -0.037053633
-0.061205048 0.013422582 -0.07011893 -0.03736117 -0.05936139 0.028746039 -0.004563544 0.019477114
0.043305103 -0.038629 -0.059976343 -0.04670226 -0.0028875065 -0.054250877 -0.008314222 -0.0384148
00000000: c1ea d03c 7d6c ff3c feaf aebd e416 d23b
00000010: f6d0 713c f162 efbc 0757 8cbd de11 b4bc
00000020: 0eb9 1b3d 87fb 11bd f25f d53c e316 0b3d
00000030: a1bc e43c e103 ac3c 7cda e33c 3ab2 53bd
00000040: 3d22 413d 957f 003c f9e1 a93c 16f7 383d
00000050: 121f 69bc 582f a03c f168 153d c07c 9dbd
00000060: dbe8 bbbc 8610 443d 6606 3bbd 98f5 8fbc
00000070: 2ec0 54bd a66e 93bd 7f68 47bd e9db 973c
00000080: 32cc 4d3b 15b0 913c 0888 dbbc a12d 30bd
00000090: e661 b43b a43b a6bb 2b9d eabc 71b3 423d
000000a0: 2c7d a9bd b77e 4e3d 05bd 4dbc 562f 2abd
000000b0: cab8 8b3b 61af 893c f0f2 08bd 596e 15bd
000000c0: bf00 1b3d 3430 3bbd 84e0 bf3c 404f 30bd
000000d0: df54 3d3d 257b 00bc 7827 77bd c543 82bc
000000e0: a249 fd3c 0ea2 7bbd d0ca bebc d384 78bd
000000f0: 58aa 323d 112d b3bc 3cca 51bd ba82 2abd
00000100: 76a8 913c 6b5e 163c 7e83 58bd 9069 98bc
00000110: 8d12 463d b338 2a3d 93df 34bd 98a2 e03c
00000120: 50bc d73b 0932 7abd 90a8 02bd 3d5f 323d
00000130: c2a8 7ebd 6ef9 5fbd a4cf 5ebd 0267 21bc
00000140: 226d cf3c 5577 3d3c 7b5a 05bd 685e 7b3b
00000150: 8646 32bd 4582 c7bc 707f 803b be40 0fbd
00000160: 97d4 133d 7cce 373d 0a7e 90bd 9e15 a73c
00000170: 9df6 b13b db7d 353d 5414 a6bc 5291 293e
00000180: 33dd 18bd 0600 25bc 1040 c13c d71e b73c
00000190: 7e90 22bd e162 8337 7624 113d 4c23 6c3a
000001a0: dffc 1b3d 20ed 2a3d 0abf 14bc f1ef c83c
000001b0: f504 683c 37d4 72bd 3689 fdbb ee1a 40bd
000001c0: 59cb 2c3c 022c 883c 501f 03bc d1d5 243d
000001d0: 7ffe 023d 1133 223c b23d e23d 2f19 87bc
000001e0: ebdc f43c b0d3 09bc 60a1 52bd 6b36 8cbd
000001f0: 2784 5b3c 6eb0 3ebc d5a9 babc cf0c 5dbc
00000200: 1055 04bd 1766 503c 4cc1 1c3d e5ca 2bbc
00000210: c947 1dbd 640d 6ebc 8ebc 06bc d42c 49bd
00000220: ca83 58bd 4f28 093d f49c e4bc c6de 84bd
00000230: f084 2f3d 43eb 31bd 6d4e 53bd fec2 6abd
00000240: d3c9 013d f83d 023d a8e4 c83a 66ff 6bbd
00000250: e7d5 77bd 1c74 2cbd 4bbc 443d 29c8 f43c
00000260: 462f 0cbb a7b5 46bd b79c 51bc d54c 6cbc
00000270: 088d 343d e726 8bbd d1c5 00bd 09c0 71bc
00000280: 6227 393c cd93 483d a6e6 35bd f288 28bc
00000290: 1aa3 2b3d 28ff 573c 3cb2 09bd 60d9 473c
000002a0: 321c 383b 3b46 55bd 740c 68bd dbde 35bc
000002b0: 9727 0dbd e08a 5ebd e69d 453d 7418 103d
000002c0: d52c 8bbd 611b a23c e185 0f3d d4de 733c
000002d0: f16e b73c f27e 25bd a7f5 163e ae0a 42bd
000002e0: 365e 1ebd d0d8 9cbc 3828 183d 6bb5 71bb
000002f0: f86c 1b3c b324 d5bb 3f3f 9bbc 2b17 68bd
00000300: bc45 febb 2e92 01bd faba ca3c c45e 80bd
00000310: 7c7e f6bc 4a8a 2abd d696 3e3d 4f40 8cbd
00000320: f0dd acbb bdfb dbbc d0e0 113d f527 0abc
00000330: 5313 bdbc c0b7 e43c 7eea 92bb 9caf fa3c
00000340: ee24 053e a34c ccbc 8ddb 7fbd cc58 6dbd
00000350: bb77 1c3d 0ea4 86bc 5332 003d 36a8 163d
00000360: 1513 5c3d e732 263d 956d 033d 32d4 a73c
00000370: 3c16 f23c e818 a3bc db3d 183d d8dc 83bc
00000380: ea00 ab3c 63f9 6abb e3a7 d93b b613 57bd
00000390: 7f55 8cbc 2259 0e3c 8ed6 9cbd e5ac 5e3d
000003a0: 0e55 0dbd 8eff 83bb 353e f6bc 2f08 d63c
000003b0: 7dc7 79bb 6890 94bc 810e 37bd 8dc5 17bd
000003c0: 25b2 7abd 64ea 5b3c 839a 8fbd 0708 19bd
000003d0: ee24 73bd d07c eb3c c889 95bb 788e 9f3c
000003e0: b160 313d 7139 1ebd c1a9 75bd de4a 3fbd
000003f0: 523c 3dbb 2b36 5ebd 6038 08bc d658 1dbd

weight f4 [2, 256]
-0.005064554 -0.0047426573 -0.028378375 -0.0042229714 -0.0049425783 -0.0033235992 -0.005509439 -0.005072612
0.015741425 0.015536989 -0.004846624 -0.04605426 -0.001808873 -0.0038118197 -0.00474106 -0.0017591491
-0.0050097997 -0.0053008203 0.017044516 -0.012909264 0.029751398 -0.0055741584 -0.004410115 -0.023560518
0.033543937 0.030553073 0.0044055292 0.0009065924 -0.004696626 -0.0027035356 0.005387177 -0.0021482797
0.0033014542 0.022757635 -0.00036637427 -0.005477909 -0.046527877 -0.002616517 -0.005762631 0.0064887214
0.0042270776 -0.00488015 -0.0040487964 -0.004085299 -0.015933165 -0.0055223866 -0.0043607573 0.00785129
-0.08508957 -0.0040078796 0.0075401696 0.03519028 -0.0010706644 -0.0008594895 -0.0002847173 0.024453556
-0.06867505 -0.0023088807 -0.020471921 -0.0058299187 0.021318702 0.0049419724 -0.020477137 -0.004842238
-0.0048855445 -0.005128448 0.0007289751 0.00023996772 -0.0042160098 -0.0050629545 0.025902681 0.013096685
-0.00022868623 -0.082884386 0.024235701 -0.062176514 -0.028664958 -0.00020954049 0.011122965 0.039329074
-0.0027128288 -0.004745903 -0.0029529775 -0.03952809 -0.004070845 -0.004639248 0.00050187483 -0.0035410284
-0.0035147693 -0.00083966996 -0.029493311 -0.041400958 -0.02911353 -0.026484657 -0.0059286505 0.048732594
-0.0045632143 4.2566837e-05 0.030688735 0.023389082 -0.00014130128 -0.004852084 0.03324563 -0.0023272359
-0.0058376025 0.027098008 -0.0022610668 -0.0054452484 0.010674317 -0.0015201954 -0.053957917 -0.0039027845
-0.005412361 -0.002550241 -0.00052026106 0.005704263 -0.0012169819 -0.0041733123 -0.05928116 -0.0049843695
0.0012432485 -0.0016428857 -0.0057953573 -0.004625866 -0.0041454993 0.0038561712 0.0063545476 -0.0030726022
-0.003995909 0.03307954 0.0015805067 0.010174656 -0.0045078583 0.0061033624 -0.0042681466 -7.805169e-05
0.0038339307 -0.0025591394 0.008326581 0.00079128443 -0.055447485 -0.004849894 -0.03053731 0.0008906262
-0.0035816128 0.0017471185 -0.005603981 -0.004994517 0.0034849483 -0.004706987 -0.0051924265 -0.0054555465
-0.029798212 -0.017178252 -0.0012376871 -0.005083931 -0.006929949 0.025831006 -0.0029937187 -0.0008245303
-0.005524248 -0.005302411 0.0008900253 0.016141966 0.017947778 3.9024353e-06 0.00040762592 0.0008753971
-0.002137301 0.0077164546 -0.0060059824 -0.0042364937 -0.006424421 0.025040733 0.00419113 -0.0042608674
-0.016521662 0.017351663 -0.043692928 -0.005103945 0.018600361 0.022333778 -0.22451577 -0.0008381608
-0.00038232756 -0.0055590277 0.00087915757 0.02992105 0.024387125 0.0063757515 0.0032449453 0.022773363
-0.005230048 0.000434899 -0.00017201652 -0.0037862582 -0.00035080436 -0.000255775 -0.005715911 -5.326797e-05
-0.004920476 0.031720523 -0.012935353 -0.0044075064 -0.0025049557 -0.005086232 -0.0050539905 0.025026498
-0.12837934 -0.0032556162 -0.0054864036 0.015823267 -0.044349812 0.022617884 0.027754629 0.0005952223
-0.10724834 -0.0049659717 -0.002480374 0.0042481576 -0.0041513448 -0.08146114 -0.0027235986 -0.012762959
0.007300316 0.025606863 -0.005304062 -0.0013585467 -0.0058502983 -0.0026451403 -0.028886553 0.0064507215
-0.0045477683 0.034739994 -0.005492282 -0.02335282 -0.005409886 -7.791996e-05 -0.002815039 -0.0032865452
-0.002366061 0.0028122673 -0.004150063 0.001350352 -0.006242504 -0.062364765 0.016892368 -0.075315356
-0.00021386294 -0.0018717989 0.025091495 0.0077452366 -0.0036620891 0.0046602185 -0.0053526177 -0.005690928
00000000: 8ff4 a5bb 4b68 9bbb c479 e8bc da60 8abb
00000010: 5af5 a1bb bed0 59bb 8688 b4bb 2738 a6bb
00000020: 29f4 803c db8e 7e3c 6ed0 9ebb 64a3 3cbd
00000030: b517 edba b9cf 79bb e55a 9bbb 4093 e6ba
00000040: 3f29 a4bb 81b2 adbb f1a0 8b3c 6181 53bc
00000050: 34b9 f33c 6ea7 b6bb ba82 90bb fd01 c1bc
00000060: 5e65 093d 704a fa3c 425c 903b 63a8 6d3a
00000070: 28e6 99bb cd2d 31bb eb86 b03b 27ca 0cbb
00000080: 365d 583b 386e ba3c ec15 c0b9 0880 b3bb
00000090: 0494 3ebd df79 2bbb 74d4 bcbb 579f d43b
000000a0: 4c83 8a3b aae9 9fbb c4ab 84bb f9dd 85bb
000000b0: 4586 82bc 23f5 b4bb afe4 8ebb b2a2 003c
000000c0: 7143 aebd 8854 83bb 8713 f73b af23 103d
000000d0: 8955 8cba 5d4f 61ba 1c46 95b9 d352 c83c
000000e0: 81a5 8cbd 9750 17bb bbb4 a7bc e708 bfbb
000000f0: 8fa4 ae3c 45f0 a13b abbf a7bc a3ab 9ebb
00000100: eb16 a0bb 8a0c a8bb b118 3f3a d89f 7b39
00000110: 7426 8abb 24e7 a5bb dc31 d43c 7a93 563c
00000120: 7ecb 6fb9 4abf a9bd f389 c63c cdac 7ebd
00000130: c6d2 eabc 19b8 5bb9 193d 363c 8617 213d
00000140: b7c9 31bb 8583 9bbb be86 41bb 35e8 21bd
00000150: b964 85bb d504 98bb 4090 033a 9910 68bb
00000160: 0b58 66bb 4c1d 5cba f59b f1bc 0d94 29bd
00000170: 7f7f eebc 5af6 d8bc 2045 c2bb d49b 473d
00000180: 0487 95bb cb89 3238 f166 fb3c 769a bf3c
00000190: 462a 14b9 3bfe 9ebb 922c 083d 8a84 18bb
000001a0: 5c49 bfbb a4fc dd3c 682e 14bb 0e6e b2bb
000001b0: 55e3 2e3c 4b41 c7ba fa02 5dbd dcc5 7fbb
000001c0: 2d5a b1bb f221 27bb 2162 08ba d4ea ba3b
000001d0: 2383 9fba 48c0 88bb cdd0 72bd ec53 a3bb
000001e0: 7ff4 a23a 1956 d7ba fbe6 bdbb 9494 97bb
000001f0: f8d6 87bb d1b7 7c3b cf39 d03b b65d 49bb
00000200: 1df0 82bb 697e 073d 0129 cf3a 9ab3 263c
00000210: a8b6 93bb b7fe c73b cfdb 8bbb afaf a3b8
00000220: af42 7b3b 3cb7 27bb 366c 083c 336e 4f3a
00000230: e71c 63bd dceb 9ebb 6129 fabc ea78 693a
00000240: 7eb9 6abb 92ff e43a 9aa1 b7bb 0ca9 a3bb
00000250: bb63 643b 123d 9abb 3b25 aabb 71c4 b2bb
00000260: 611b f4bc 68b9 8cbc e339 a2ba 1b97 a6bb
00000270: a014 e3bb 8c9b d33c 4432 44bb 4b25 58ba
00000280: c004 b5bb d9bf adbb 9650 693a 283c 843c
00000290: 3807 933c aaf1 8236 a0b6 d539 e87a 653a
000002a0: f611 0cbb 50da fc3b d5cd c4bb 49d2 8abb
000002b0: f383 d2bb 3922 cd3c bf55 893b bf9e 8bbb
000002c0: 7058 87bc 1325 8e3c 5bf7 32bd fe3e a7bb
000002d0: c95f 983c 54f5 b63c 76e7 65be 05b8 5bba
000002e0: 2373 c8b9 8128 b6bb 4477 663a fd1c f53c
000002f0: 82c7 c73c aeeb d03b 26a9 543b 348f ba3c
00000300: d360 abbb 2803 e439 555f 34b9 df22 78bb
00000310: 2aec b7b9 8a19 86b9 894c bbbb 0c6c 5fb8
00000320: f23b a1bb 61ed 013d ceee 53bc d86c 90bb
00000330: 2f2a 24bb 68aa a6bb f29b a5bb 5f04 cd3c
00000340: e075 03be 2d5c 55bb 4ac7 b3bb cc9f 813c
00000350: 26a8 35bd 2449 b93c ad5d e33c b108 1c3a
00000360: 05a5 dbbd 97b9 a2bb c58d 22bb 2134 8b3b
00000370: 0108 88bb 19d5 a6bd 677e 32bb bb1b 51bc
00000380: 7d37 ef3b 7cc5 d13c b2cd adbb 4311 b2ba
00000390: dcb3 bfbb 175a 2dbb 7ea3 ecbc 9360 d33b
000003a0: 7205 95bb 864b 0e3d 9af8 b3bb 6a4e bfbc
000003b0: 6a45 b1bb f668 a3b8 847c 38bb 1463 57bb
000003c0: eb0f 1bbb 044e 383b 40fd 87bb 4bfe b03a
000003d0: eb8d ccbb 3272 7fbd dd61 8a3c f03e 9abd
000003e0: 6540 60b9 2657 f5ba ae8c cd3c c1cb fd3b
000003f0: a9ff 6fbb bfb4 983b 0365 afbb f77a babb

bias f4 [2]
-1.3330215 1.3560275
00000000: 73a0 aabf 4f92 ad3f

weight f4 [2, 256]
0.0064511457 -0.00038213577 0.018630017 -0.00492139 -0.0021990575 0.004937684 -0.001957863 0.0018569949
-0.026233414 -0.026089882 -0.003560966 -0.009612851 0.0065216655 0.0029917343 -0.0050798473 0.0037107177
-0.005175648 -0.005973373 -0.025263645 -0.018407706 -0.019253395 -0.0054117725 -0.00063513697 0.03674481
-0.016881224 0.03466747 0.025810497 0.00051662506 -0.007071641 0.0071545336 -0.017832825 0.0047893682
0.005598175 -0.010317664 -0.00025837374 0.0010888152 -0.014459799 0.0039223987 -0.005534238 0.004311621
0.012562769 -0.00042215697 0.004108737 0.0063080904 0.022356642 0.0017887427 0.0036806103 -0.0033161896
0.052416082 -0.0037457978 0.0043336395 -0.015886322 0.0015919133 0.004858645 0.0031850636 0.0255195
-0.021027667 0.0040519373 0.04152092 0.007348567 -0.024315188 -0.0044879024 -0.024015976 -0.0052596787
0.005737149 0.0025769642 0.0004976324 4.324818e-05 0.0031028653 -0.0047598057 -0.012616702 0.0037777324
-0.00022748114 -0.016963478 -0.020910338 -0.0036320188 -0.027816365 -0.00097555795 -0.030332586 -0.0029639038
-0.0055390024 -0.00076558586 0.0052268635 -0.013056034 0.006061661 0.0062038307 0.0004800079 0.0024129613
-0.005695817 -3.7707687e-05 -0.027652297 -0.0060086804 0.029820058 -0.0062177326 -0.004124413 -0.00487663
0.0065548155 0.0067467312 -0.0031573211 -0.024027903 -0.0006683432 -0.0031295146 -0.0027081822 0.00513311
-0.0034795273 -0.020687561 0.013274867 -0.0043085827 0.02003945 0.004399996 -0.021363756 0.005308289
-0.0045774677 0.005096053 -0.0006863073 0.007568496 0.009455344 0.0050231074 -0.0027026709 -0.0045737205
0.0052215285 0.004365466 -0.0058770925 0.0005236337 0.0046496484 0.0097159995 -0.010388983 0.005841716
0.00068542483 -0.014281029 0.0060245553 -0.01518097 -0.0020357221 -0.014036283 0.0032979401 -0.00012591362
0.0060135536 -0.03284419 0.007694124 0.006212609 -0.025350343 -0.0050191893 -0.020970091 -0.00064748194
0.0031763373 0.0061094505 0.0017041612 -0.0037881518 0.0043554693 -0.004806983 -0.0015580271 -9.059101e-05
-0.019653292 0.031015042 0.006238937 0.0031948346 -0.005351223 -0.021977661 0.0053098993 -0.03256717
0.0053045102 -0.0030781203 -0.0006888603 -0.025321996 -0.023239145 0.00079126994 -6.56066e-05 -0.000672713
-0.009699546 -0.0035167523 -0.0013025911 -0.0038195692 -0.005040948 -0.023308922 -0.00034292453 -0.0049437843
-0.04054106 -0.0023088607 -0.015656311 -0.0058757374 -0.018754963 -0.023801725 -0.023094876 0.0061069527
0.00024518443 0.00326524 -0.00015492059 -0.015156173 -0.022051087 -0.0022371006 0.004987968 0.025540644
0.0030057088 0.0076924283 0.0041715708 0.0064253747 0.0003892372 0.0008240847 -0.003582511 0.009192923
-0.00069025974 -0.015769675 -0.0137647865 0.0034686439 0.0064023547 -0.0002827189 -0.0035704786 -0.006286639
-0.045617335 0.005799074 -0.0019830798 -0.02448158 0.029647471 -0.017045135 -0.0076283165 0.005458977
-0.029519506 -0.0027173753 0.0057665873 0.0043869643 0.002818872 -0.018342678 0.00044123625 -0.012346009
0.013963393 -0.008729859 -0.002888498 0.00424986 -0.0037760143 0.006206194 -0.003434811 -0.0054792734
-0.005553724 -0.017171867 0.0066654775 0.036967725 -0.0059217615 -0.0002496555 0.007984483 0.004910296
0.005606083 0.006874606 -0.0021365539 -0.035229087 -0.0060924375 0.07890066 -0.02508975 -0.015565222
0.008040478 0.0052622994 -0.021368446 -0.014250867 0.0065749884 -0.027242735 0.0048601963 0.0024343235
00000000: 2264 d33b 6559 c8b9 fa9d 983c 9d43 a1bb
00000010: 101e 10bb 4ccc a13b 7e4f 00bb 6966 f33a
00000020: 75e7 d6bc 73ba d5bc 195f 69bb 387f 1dbc
00000030: b2b3 d53b f910 443b d974 a6bb 832f 733b
00000040: 7b98 a9bb 49bc c3bb b4f5 cebc c2cb 96bc
00000050: 4cb9 9dbc 3d55 b1bb 527f 26ba ba81 163d
00000060: 7e4a 8abc 7aff 0d3d 8970 d33c 1f6e 073a
00000070: 39b9 e7bb 9470 ea3b 2516 92bc 22f0 9c3b
00000080: e570 b73b 6b0b 29bc 5676 87b9 93b6 8e3a
00000090: cbe8 6cbc 7787 803b 8e58 b5bb 8048 8d3b
000000a0: 13d4 4d3c f354 ddb9 96a2 863b 19b4 ce3b
000000b0: 4725 b73c 3f74 ea3a 6536 713b 6e54 59bb
000000c0: 3fb2 563d 0f7c 75bb 3401 8e3b 0824 82bc
000000d0: bfa7 d03a 4535 9f3b 80bc 503b 450e d13c
000000e0: 3742 acbc 1dc6 843b d711 2a3d 3fcc f03b
000000f0: a530 c7bc 410f 93bb 27bd c4bc 6259 acbb
00000100: b2fe bb3b 49e2 283b 8c73 023a 6165 3538
00000110: 7159 4b3b 25f8 9bbb 49b6 4ebc d593 773b
00000120: 0188 6eb9 fef6 8abc 284c abbc 2a07 6ebb
00000130: 25df e3bc 96bc 7fba 0b7c f8bc 0e3e 42bb
00000140: 8580 b5bb 99b1 48ba 1c46 ab3b fae8 55bc
00000150: e6a0 c63b 8149 cb3b 92a9 fb39 c622 1e3b
00000160: faa3 babb 5228 1eb8 1287 e2bc 77e4 c4bb
00000170: 3249 f43c 1fbe cbbb 1526 87bb 23cc 9fbb
00000180: c7c9 d63b af13 dd3b 0feb 4ebb 2ad6 c4bc
00000190: c133 2fba 8b18 4dbb c27b 31bb a633 a83b
000001a0: c808 64bb f678 a9bc d47e 593c 032f 8dbb
000001b0: c629 a43c d72d 903b 0b03 afbc 28f1 ad3b
000001c0: 95fe 95bb cafc a63b 4ee9 33ba 2501 f83b
000001d0: 96ea 1a3c e198 a43b 4b1f 31bb 26df 95bb
000001e0: 5b19 ab3b 2f0c 8f3b a094 c0bb 7644 093a
000001f0: 145c 983b db2f 1f3c 8e36 2abc de6b bf3b
00000200: 15ae 333a fafa 69bc a269 c53b 9ab9 78bc
00000210: c069 05bb 70f8 65bc 4122 583b ae07 04b9
00000220: 580d c53b a187 06bd fd1e fc3b 2493 cb3b
00000230: 86ab cfbc 0378 a4bb 78c9 abbc c7bb 29ba
00000240: 192a 503b c931 c83b 295e df3a a442 78bb
00000250: 53b8 8e3b e583 9dbb b736 ccba aefb bdb8
00000260: f1ff a0bc 4213 fe3c ff6f cc3b 6e60 513b
00000270: 5059 afbb 7f0a b4bc aafe ad3b 2765 05bd
00000280: 75d1 ad3b 4aba 49bb a294 34ba 1370 cfbc
00000290: 0560 bebc 3a6d 4f3a 4696 89b8 0159 30ba
000002a0: d8ea 1ebc 5079 66bb b4bb aaba bd51 7abb
000002b0: 892e a5bb 5af2 bebc 8dca b3b9 78ff a1bb
000002c0: 620e 26bd 4150 17bb aa41 80bc 4289 c0bb
000002d0: 02a4 99bc d6fb c2bc 7731 bdbc d51c c83b
000002e0: 198c 8039 a3fd 553b 2e72 22b9 9951 78bc
000002f0: 7ba4 b4bc 529c 12bb 1c72 a33b 9d3a d13c
00000300: 6dfb 443b c410 fc3b acb1 883b f38b d23b
00000310: 8812 cc39 6307 583a 90c8 6abb ea9d 163c
00000320: 8cf2 34ba 682f 81bc b385 61bc 3052 633b
00000330: d8ca d13b e339 94b9 b1fe 69bb 2600 cebb
00000340: 3ed9 3abd 2906 be3b 8ff6 01bb 988d c8bc
00000350: 41df f23c 3da2 8bbc f5f6 f9bb 38e1 b23b
00000360: e4d2 f1bc fe15 32bb a4f5 bc3b 86c0 8f3b
00000370: d3bc 383b 6243 96bc ba55 e739 ea46 4abc
00000380: b7c6 643c af07 0fbc f44c 3dbb 6942 8b3b
00000390: 0277 77bb 545d cb3b 911a 61bb 7a8b b3bb
000003a0: 03fc b5bb 04ac 8cbc 146a da3b 786b 173d
000003b0: 560b c2bb 32e4 82b9 59d1 023c 8ce6 a03b
000003c0: 3cb3 b73b 6044 e13b 6d05 0cbb 604c 10bd
000003d0: 12a3 c7bb ab96 a13d 0589 cdbc 4605 7fbc
000003e0: 36bc 033c 5e6f ac3b e10c afbc 787c 69bc
000003f0: 0073 d73b 282c dfbc 4842 9f3b 2c89 1f3b

bias f4 [2]
-0.60948354 -0.7645008
00000000: 1d07 1cbf 53b6 43bf
