Intelligent car/model_weight/policy_net_para1.pkl (torch_old, 277975 bytes, 8 tensors)

weight f4 [256, 3]
000000 d9 11 c6 be 02 1a 50 3e 5f a4 75 bd 65 22 ca bd
       -0.38685492 0.20322421 -0.05997121 -0.098698415
000010 f0 ba 4c 3e 6e ba ec 3e b4 98 d7 be 23 f2 0c bf
       0.19993186 0.46235985 -0.4210869 -0.5505697
000020 2e 33 2b 3e 6d b4 3e be e8 c3 a6 3e f1 77 e9 3e
       0.16718742 -0.18623514 0.3257134 0.4559932
000030 e4 81 1d 3c eb 80 5c 3e 2e f8 ad be 78 8b 9e be
       0.009613488 0.21533553 -0.3397841 -0.3096578
000040 8c e3 02 3d e0 d2 30 bf eb 3a f9 bd f0 b1 9b 3e
       0.031955287 -0.6907177 -0.12169441 0.30409193
000050 ce c7 16 3f b4 ba 0e 3f c2 ca 0e bf 0d 90 83 be
       0.5889863 0.55753636 -0.55778134 -0.2569584
000060 9e 1e f1 be 52 94 d6 3e a5 ab 95 be 7e 1d c7 3c
       -0.47093672 0.41910034 -0.29232517 0.024306055
000070 ac c8 db 3e d7 41 00 bf 86 76 a8 be 77 2c c6 3e
       0.42926538 -0.50100464 -0.32902926 0.387058
000080 35 db 4f 3e 78 13 c6 bd 07 51 dc 3e 26 87 31 3e
       0.20298465 -0.09671682 0.4303057 0.17336711
000090 ea 38 f2 3e 92 43 f0 be 2e 51 20 bf 1a 01 78 3e
       0.47309047 -0.46926552 -0.6262387 0.2421917
0000a0 f1 0f 0f bf 11 ea 4c 3f a7 63 cd be 18 42 63 bd
       -0.558837 0.80044657 -0.4011509 -0.055482954
0000b0 c4 b1 2d 3e 5a d7 28 bd 0b e0 9b 3e 12 67 16 3e
       0.16962343 -0.041221 0.3044437 0.14687756
0000c0 93 77 17 bf 9a 56 e0 bd 3d 9c e6 3e 21 7b 52 3e
       -0.5916683 -0.10954018 0.45041075 0.20554782
0000d0 cc f0 3c bd 9e ef 2a 3f 22 35 49 be 30 11 03 3f
       -0.04612808 0.66771877 -0.19649175 0.511981
0000e0 7f 7c 36 3e 3d e9 7f 3e 5b f0 d4 be 73 58 a4 be
       0.17820929 0.24991317 -0.41589627 -0.3209873
0000f0 db 3b b7 3e 37 c3 01 be 2b 36 ff be f0 04 85 3d
       0.35787854 -0.12672125 -0.49846014 0.064950824
000100 f0 12 9d be d7 8b 8f be 12 2a f5 be eb 9c 3d 3e
       -0.3067851 -0.28036377 -0.4788366 0.1851689
000110 99 71 10 bf de 42 88 3e 59 e2 16 bf bc 65 95 be
       -0.56423336 0.26613516 -0.5893913 -0.2917918
000120 c1 8d 9f be 59 1e 87 3c 5a 83 31 3d d4 4d 96 3e
       -0.31162837 0.016493963 0.043338157 0.29356253
000130 e0 0e 2b bd 08 db 09 bf 71 01 54 3d 8e 2f 72 be
       -0.041762233 -0.5384984 0.051759187 -0.23650953
000140 cd a9 0f 3c 2a e9 96 be 9f 1f 16 bf c4 4d 4b 3e
       0.008768511 -0.29474765 -0.58642 0.19853884
000150 f8 ed 98 3d e5 92 d6 be dc a7 e6 3d 9b 6c 34 be
       0.07467264 -0.41908947 0.112624854 -0.17619555
000160 0d ee c6 3e ce 62 d8 be 04 eb 25 be 15 c2 ab 3d
       0.38853493 -0.42262882 -0.16202933 0.083866276
000170 71 a8 f1 bd a6 ab 07 bf c3 2a e2 3e e1 51 25 3e
       -0.11799706 -0.5299629 0.4417325 0.16144516
000180 9b 7b 06 3e 92 7d e2 3d fb ef 00 bd 7c 25 be 3e
       0.13133089 0.11059107 -0.031478863 0.37137973
000190 d7 c1 5e 3e ba df 18 3d 8c 2e c6 3e 43 4c 28 3d
       0.21753632 0.037322737 0.38707387 0.041088354
0001a0 43 d3 9b be ef 31 c4 3e de f7 cc 3e 57 99 73 be
       -0.30434617 0.38319346 0.40032858 -0.23788963
0001b0 71 bd 8e 3e 0e 50 93 3e 32 4f 9a 3e 7f 59 c0 3e
       0.27878907 0.28772014 0.30138546 0.3756828
0001c0 b1 f5 03 3f b9 61 2c 3e cd c7 80 3e 9a e8 bb 3e
       0.5154677 0.16834153 0.25152436 0.36700898
0001d0 f9 d4 4e 3e 57 e3 ea 3e 5b 38 ca 3d a7 76 ca be
       0.2019843 0.45876572 0.0987403 -0.3954365
0001e0 8f 99 03 3d b1 6d 23 3e ba f7 21 bf f9 f1 de 3d
       0.032128867 0.15959813 -0.63268626 0.10885996
0001f0 a4 44 57 bd 53 b0 25 3f 53 28 4d bd ab b6 9c ba
       -0.052555695 0.64722174 -0.050087284 -0.0011956295
000200 87 cc 7d 3e 39 ca bb be 45 94 2b 3c 14 32 03 bf
       0.24785052 -0.3667772 0.010472362 -0.5124829
000210 79 e2 12 3e c5 1a 7e be d2 45 a8 be 7f 75 15 3e
       0.14344205 -0.248149 -0.3286577 0.14595602
000220 d3 a7 0c be ea 3a 07 be 37 dc dd bd 52 77 b9 be
       -0.13735895 -0.13206068 -0.10833018 -0.36223847
000230 01 ff df be 16 b2 e8 bd 2d ed d2 3e 2a 7c aa be
       -0.4374924 -0.11362092 0.41196576 -0.33297855
000240 f7 72 00 3f bb 94 b5 be 5a 58 96 3e b7 0d 11 3f
       0.5017542 -0.35465035 0.29364282 0.5666155
000250 68 29 c7 3c fa 8d 2a 3f 00 49 8b 3d ab e5 09 be
       0.024311736 0.6662289 0.06801033 -0.13466518
000260 ce 70 f5 be 30 35 f8 3e 10 af 03 3f 04 34 d7 bd
       -0.47937626 0.4847808 0.51439 -0.10507968
000270 05 e6 02 3d bc de c6 be cb 39 cc bc 43 42 75 bd
       0.031957645 -0.38841808 -0.024929902 -0.059877645
000280 32 50 95 bc 2d a3 ce be 13 73 35 be 27 60 04 bd
       -0.018226717 -0.40358868 -0.17719679 -0.03231826
000290 62 85 91 3e 9b 6a 8d 3e 16 33 a9 be 13 23 c9 be
       0.28422076 0.27620396 -0.33046788 -0.39284572
0002a0 c9 66 04 bf 6e 30 57 bd b4 ed f4 3e e4 de dd 3d
       -0.5171934 -0.05253642 0.47837603 0.10833529
0002b0 19 42 b8 bd 79 16 c3 bc 6f 1f 31 be 21 f2 3c 3e
       -0.08996982 -0.023814427 -0.17297147 0.1845174
0002c0 31 a4 9f 3e 02 14 db be cd 10 ad bd 00 1f 6b bd
       0.31179956 -0.42788702 -0.0845047 -0.05740261
0002d0 50 89 06 be 8c 98 4d bf 0e 26 ee 3e cc b3 c8 be
       -0.13138318 -0.80310893 0.46513408 -0.39199674
0002e0 7e 07 49 3c ec bc f7 be 45 08 9c 3e 8a 90 81 be
       0.012269853 -0.48386323 0.3047506 -0.25305587
0002f0 c7 a9 72 3e 7b 4e b7 be 4e bb ae be f6 33 16 3d
       0.23697577 -0.35802063 -0.34127277 0.036670648
000300 7b 06 c7 3e e6 7e ee be 1a d5 a3 be a3 6b 79 3e
       0.38872132 -0.4658119 -0.3199852 0.24357466
000310 b2 88 b9 be 19 d0 dd 3d 75 c2 80 3e a3 e7 85 3c
       -0.36237103 0.10830707 0.2514836 0.016345805
000320 f0 88 0c bd 08 ac 5d bd 42 cb 3a 3e e6 ce 04 be
       -0.03431028 -0.05411914 0.18241599 -0.1296955
000330 18 f8 b7 3e 90 61 f6 be 08 36 79 3d e7 2a e7 bd
       0.35931468 -0.4812131 0.060842544 -0.1128748
000340 87 c6 1f 3e 73 de 10 bf 02 dd ff be 5f f4 1b be
       0.15603076 -0.5658943 -0.49973303 -0.15229939
000350 6b 1a d2 3e 9d 8e 16 3e c8 53 d4 3d 94 0b dc be
       0.4103578 0.1470284 0.103675425 -0.42977583
000360 44 ae 94 bd a9 9b 96 be a4 7a 87 3e d3 4e 8a be
       -0.07259801 -0.29415634 0.26460755 -0.27013263
000370 b0 f6 05 bf 7f 0c dc be 44 b9 58 3e 32 3d b9 be
       -0.5232954 -0.42978284 0.21164423 -0.361795
000380 c8 3f a8 be df 55 0b be 53 cb 2e be ec 3f c9 bd
       -0.3286116 -0.13606976 -0.1706975 -0.09826645
000390 89 27 55 3e 2c 75 00 bf 10 45 2d 3f 57 11 dd be
       0.20815863 -0.5017879 0.67683506 -0.43177292
0003a0 32 be d0 bd ea e8 96 be 30 49 e0 be b9 9d 7b b9
       -0.10192527 -0.29474574 -0.43805838 -0.00023995982
0003b0 fc b2 a3 be 6c 66 de be 0a 5e 9f be 3c fa 93 3e
       -0.31972492 -0.43437517 -0.31126434 0.2890185
0003c0 82 d3 f4 bd 87 98 8d 3d e3 ca 3a be ee e5 df bd
       -0.119544044 0.06913858 -0.18241458 -0.109325275
0003d0 88 7e 17 3e 73 7f 02 bf ff f2 a9 3e 5e 1d 40 bd
       0.14794362 -0.5097572 0.33193204 -0.046903007
0003e0 35 9c dc 3e 35 20 ab be 3d 35 c2 3e f3 87 52 bf
       0.43087927 -0.3342301 0.37931243 -0.8223869
0003f0 6d d9 aa be db 09 bf 3e 87 69 1a bf 0a 2f 14 3c
       -0.33369008 0.37312207 -0.6031727 0.009044418

bias f4 [256]
000000 f7 27 3d be cc 17 21 bf 12 6a d0 3e d1 78 06 3e
       -0.18472277 -0.62926936 0.40705925 0.13132025
000010 72 52 60 be c1 a6 ad be 74 12 06 bf 3a 7d f4 3e
       -0.2190645 -0.33916286 -0.5237191 0.4775179
000020 6f 95 25 3e 1d 05 d2 be 2d 6b 54 bd 6e 05 a6 3e
       0.16170286 -0.41019526 -0.051860023 0.32426018
000030 6d 92 8e be f2 03 b1 be 6a 06 c3 3c 44 f3 b1 3e
       -0.2784609 -0.34573323 0.02380677 0.3475591
000040 a5 9b 8b be d8 c8 f7 3d 9f 17 b9 be 77 04 a0 bc
       -0.27267185 0.12098855 -0.36150834 -0.019533379
000050 b6 aa a2 3e 95 7f 60 3e eb f0 3d 3e 4d 47 06 bf
       0.31770867 0.21923669 0.18548934 -0.52452546
000060 c8 bb a2 3e 42 7c 6e be 4f 53 a2 3d a9 ba 8f 3e
       0.3178389 -0.23289588 0.07926046 0.28072098
000070 ed 40 d1 3e 2b 2c 28 be 18 1a 41 3e 99 d6 93 3e
       0.40869847 -0.16423099 0.1885761 0.28874663
000080 de 88 5a bd 10 4e 11 bf 29 37 d0 3e dc 5a c6 be
       -0.053353183 -0.5675974 0.40667084 -0.38741195
000090 3b 79 37 bf 44 30 99 3e a2 8f 25 bd c6 80 1a bf
       -0.7166936 0.29919636 -0.040420182 -0.6035274
0000a0 4d b2 15 be 3d 55 c1 bb a4 99 a3 be d1 f2 ef 3c
       -0.14618798 -0.005900054 -0.31953156 0.029290589
0000b0 97 61 02 3f ed 28 7e 3e fd 1b 8e bd 93 8a 0e 3e
       0.5093016 0.248203 -0.06938932 0.1392005
0000c0 97 b6 08 3e 4a 60 f7 3e 0e 42 08 3f c1 b6 bf 3e
       0.13350902 0.4831565 0.5322579 0.37444118
0000d0 4a 7a ae 3e 5a 25 04 be 3c 25 93 be 51 d8 15 bf
       0.34077674 -0.12904873 -0.28739345 -0.585332
0000e0 c6 0b 18 bf 4b a1 27 bf 95 82 13 bf b9 72 f8 3e
       -0.59392965 -0.6548049 -0.5762113 0.48525026
0000f0 9e d3 43 3e d4 2d c5 3e db 35 00 3f 08 ff ba be
       0.19123694 0.38511527 0.50082177 -0.36522698
000100 45 7c 80 3e 2f 7b a4 bc b0 ea 42 3e 41 de 11 bf
       0.2509481 -0.02007827 0.19034839 -0.5697976
000110 10 cc d6 3e f4 68 0d 3f 2d 23 2f be 3c a7 f7 be
       0.41952562 0.5523827 -0.17103262 -0.48369777
000120 bb 66 f0 be 52 02 4f be 23 00 9e 3e 0d 53 ae be
       -0.46953377 -0.20215729 0.3085948 -0.34047738
000130 f9 06 08 bc e1 b0 4d 3e 14 d4 e3 be 1e 94 c1 3d
       -0.008302444 0.20087005 -0.4449774 0.09452079
000140 55 61 18 3f 70 a8 c9 3c 02 41 7f 3e 0b 25 5a bd
       0.59523517 0.02461645 0.24927142 -0.053257983
000150 c2 db 9e be ed 8d 37 be 38 57 fc bc 82 fc 0b be
       -0.31027037 -0.17925234 -0.030803308 -0.13670543
000160 c3 e9 4e bf c2 58 84 3e c5 f2 b2 bc ea 2e e1 3e
       -0.8082544 0.25848967 -0.021844277 0.43981105
000170 10 20 cf be 81 c7 f4 bd 46 8a 52 be ae a1 b8 bb
       -0.4045415 -0.11952115 -0.2056056 -0.005634508
000180 95 33 d3 be c0 42 0a be 8f 99 1d be f9 7e b1 3e
       -0.4125029 -0.13502026 -0.15390609 0.34667185
000190 c7 61 9f bd 91 04 0e be ba ea 51 3e 23 59 0b 3e
       -0.077823214 -0.1386893 0.20499697 0.13608222
0001a0 5b ea 65 3e 5c 7e f3 3e 4f eb a7 be 6a 02 12 bf
       0.22452681 0.47557342 -0.32796714 -0.57034934
0001b0 28 07 c5 be 6a fa a0 be f3 bc 91 be bf 1b 40 be
       -0.38482022 -0.3144105 -0.2846447 -0.18760584
0001c0 23 f1 3d bf ca 55 28 3e 42 67 c9 3d 5d ae 0a bf
       -0.7419607 0.16438976 0.09834148 -0.5417231
0001d0 3f 0c cf be 20 8c ab be 3f ae b9 3e c5 fe 06 3f
       -0.4043903 -0.33505344 0.36265752 0.527325
0001e0 9b 1c 90 3d 3c 6c 53 3e 10 78 b5 3e 65 36 53 3c
       0.07036706 0.20646757 0.35443163 0.012891387
0001f0 4b ae 3d be d1 d8 9a be 7f 86 77 3e 9e 67 3a be
       -0.18523519 -0.30243543 0.241724 -0.1820359
000200 0c e7 0d 3d 83 f4 8a be 06 0c 73 be 39 28 e3 3e
       0.03464417 -0.27139673 -0.23735055 0.44366625
000210 6a 9f 1d bf aa 24 e1 bd 88 23 06 3f 50 88 66 3e
       -0.6157137 -0.10993321 0.52397966 0.22512937
000220 3e 7f 8f 3e df 4e 48 3e c2 78 e0 3d 39 be d1 3c
       0.28026766 0.19561337 0.10960533 0.0256034
000230 bb 44 45 3e 3e dd fd 3e 83 81 91 3c 97 ea 25 be
       0.192645 0.49582857 0.017761951 -0.1620277
000240 be 85 68 bd 2a d8 50 3e 21 ac ae 3d 56 9c 86 3e
       -0.05676817 0.2039496 0.08528925 0.2629115
000250 ee f4 22 3e 94 dc f9 be 9f e5 27 be 0c 4c 94 be
       0.15913746 -0.488011 -0.16396187 -0.2896427
000260 5d 65 10 bf 5a 49 4b 3e 03 78 cf 3e 11 69 39 be
       -0.5640467 0.198522 0.4052125 -0.18106486
000270 24 ab 8b 3e 86 12 da bd 7b 40 06 3f a3 cf e1 3e
       0.27279007 -0.10648064 0.5244214 0.44103727
000280 2a 70 eb bd e9 b7 94 3e e5 31 1b 3e 17 d9 74 be
       -0.11496003 0.29046562 0.15155752 -0.23910938
000290 29 89 e7 be 41 39 28 3e 92 dc b0 3e f5 28 20 bd
       -0.45221832 0.1642809 0.34543282 -0.03910156
0002a0 5e 7a 89 3e 69 d2 2b 3e f0 a8 b3 bc 23 39 6a be
       0.2685117 0.16779484 -0.021931142 -0.22873358
0002b0 3b ba b5 be 96 df f2 be 2e 82 45 be 43 6f 0f 3f
       -0.35493645 -0.47436208 -0.19287941 0.56029147
0002c0 b6 14 fb 3e dc a2 54 3e 76 2f 31 be b2 4b 7d be
       0.4903924 0.20765251 -0.17303261 -0.24735907
0002d0 e0 61 1d bf 11 5e a0 be 7c 9f ef 3d 45 f7 b4 be
       -0.6147747 -0.31321767 0.11700341 -0.35344902
0002e0 03 36 d6 3d 01 d5 b7 bd 0e d9 1f bf 0c 31 a4 3e
       0.10459521 -0.08976174 -0.62440574 0.3206867
0002f0 f9 08 6a 3e 9d 5a 5b be 5d 11 b8 be 04 1c 6c be
       0.22854985 -0.21421285 -0.35950747 -0.23057562
000300 2c 9f f9 3e 95 7c b1 be ac fd 35 3e 42 ff 0e 3f
       0.4875425 -0.3466536 0.1777255 0.5585824
000310 32 2a ca 3e 12 11 ba 3e f7 98 04 bf 29 12 85 be
       0.39485317 0.3634115 -0.51795906 -0.25990418
000320 7e 1a bd 3e 59 4a 43 3d 7b b9 c9 be f3 07 7a be
       0.36934274 0.047678325 -0.39399323 -0.24417095
000330 22 d4 0e 39 2d 7d c6 be 00 e5 5f 3e 2e d3 9f 3e
       0.00013621201 -0.38767377 0.218647 0.31215805
000340 e7 e4 36 bf e2 30 b7 be ef 48 f8 be 8d 4b bb be
       -0.7144303 -0.35779482 -0.48493144 -0.36581078
000350 67 4e 0e bf 0c 84 dd be a6 12 0a 3f 69 d4 e0 3e
       -0.5558838 -0.43264806 0.53934705 0.43912056
000360 2a de 1a 3f 49 2d f2 be 21 74 92 3c c5 f9 88 be
       0.60495245 -0.47300175 0.01787764 -0.2675306
000370 e9 e5 24 3e 5d 35 6f be c6 bb 8c 3d 49 2e 26 bf
       0.16103329 -0.233602 0.068717524 -0.64914376
000380 44 0b 9a bd 00 8b 37 3e 7d 45 0a 3f 37 1f e0 3e
       -0.0752168 0.17924118 0.5401228 0.43773815
000390 f3 e3 a1 bd 77 cc c5 3e b0 99 b7 be bd 92 f2 3d
       -0.07904806 0.38632557 -0.35859442 0.11844394
0003a0 5f ec 16 bf 73 d9 11 bf 5a 36 c6 3e f7 fc a3 be
       -0.58954424 -0.56972426 0.38713342 -0.32028934
0003b0 36 d2 2a 3e 2a 9e 3b bf 49 63 33 3d dc 5b a8 3e
       0.16681752 -0.73288214 0.043795858 0.32882583
0003c0 a3 42 41 be 11 2f 08 bf 77 7b eb 3d 53 3b 1a be
       -0.18873076 -0.5319682 0.114981584 -0.15061693
0003d0 5b 3e d0 be f4 30 e7 be 40 3f 87 3e 68 7f 4e 3d
       -0.40672573 -0.45154536 0.26415443 0.050414473
0003e0 bb 66 c3 3e c2 80 99 3d 75 21 b6 3e cf d5 79 3e
       0.38164315 0.07495262 0.355724 0.24397968
0003f0 04 7d 39 bd bd a2 36 be 11 e7 f1 be 7d 0f 98 3e
       -0.04528524 -0.17835517 -0.47246602 0.29699317

weight f4 [256, 256]
000000 55 fd 43 bd e3 56 f9 3c 44 a4 4e bd 14 e8 53 bc
       -0.047849018 0.030436939 -0.050449625 -0.01293375
000010 65 44 45 3d 58 69 73 3b d9 25 34 3d 93 81 4d bd
       0.04816093 0.0037141647 0.043981407 -0.0501724
000020 d2 f3 e7 bc 23 66 bf 3c 45 46 47 3d 4f 8b 5f 3c
       -0.028314505 0.023364132 0.048651 0.013644054
000030 5f b2 83 3c 78 d0 81 bc 20 d3 3a 3d fe 0b 26 3d
       0.016076265 -0.015846476 0.0456115 0.04053878
000040 b8 cf 52 bd 69 b1 33 bd cc bd 28 bd 70 14 3b 3d
       -0.051467627 -0.043870363 -0.04119663 0.045673788
000050 c7 3a b8 bb 58 fd f6 3c a6 a9 34 bd c0 ff 66 3c
       -0.005622241 0.0301501 -0.0441071 0.0140990615
000060 30 92 02 bc 12 c7 99 3c 22 22 1b 3d ad b6 05 3d
       -0.007969424 0.018771682 0.03787435 0.032644916
000070 c0 91 49 bc cc 0c 32 bd f4 ef 98 bd 36 c0 aa bc
       -0.012302816 -0.043469235 -0.074676424 -0.020843606
000080 71 58 99 bd 0a 12 3f 3d 10 d8 62 bb 6f 4e 8c 3c
       -0.07487572 0.046648063 -0.0034613647 0.017127244
000090 8f a4 1a bd 41 03 f2 3c 68 61 76 bd 32 55 3e bd
       -0.03775459 0.029542567 -0.060151488 -0.046467967
0000a0 9a 00 b7 3c 8b 4f 93 bd 2f 59 41 bd 36 8f 01 3d
       0.022339154 -0.07192906 -0.047204193 0.031630717
0000b0 1e 01 3b 3d f0 1c 00 3d 68 21 0c bc 82 32 82 bd
       0.045655362 0.031277597 -0.008552887 -0.0635729
0000c0 6f ff 42 bd 1e 08 d2 bb d0 b1 5f 3c bb bd 6e bd
       -0.04760688 -0.006409659 0.013653234 -0.05828641
0000d0 8c a7 3e bd e0 04 3d 3b fe 5a 6a 3d 6e 63 88 bd
       -0.046546504 0.0028842017 0.057215683 -0.0665959
0000e0 3d 1e 62 bd 52 7e b3 bc 03 f9 a7 3b d0 c5 74 bd
       -0.05520462 -0.02191082 0.00512612 -0.05975896
0000f0 48 60 3e bc ba 5b 5e 3b dc 20 1b 3d dc 57 a2 3c
       -0.011619635 0.0033929185 0.037873134 0.019817285
000100 c1 cf 89 3b 83 28 ec bb 30 9d 22 bc 39 d0 3f bd
       0.0042056744 -0.007206978 -0.009925172 -0.046829436
000110 b6 6c 6a 3d 41 4e 95 bd f0 92 95 3b 48 9f 85 bc
       0.05723258 -0.072903164 0.0045646355 -0.016311303
000120 ce 8b 77 3d ba 27 15 3d d4 23 b6 bc 00 5e 2a 3a
       0.060436063 0.03641484 -0.022233881 0.00064989924
000130 08 d6 5a bc ae ce 38 bd b0 75 c0 3c 28 a2 9e bc
       -0.013356693 -0.04511898 0.023493618 -0.019364432
000140 cd a5 27 3d 2b 9f 93 bd 35 d9 49 3d 2f 39 d9 3c
       0.040929604 -0.07208093 0.04927941 0.026516525
000150 22 6f 2a 3d 31 35 13 bd 6c fc f7 3a a8 a8 db bc
       0.04160989 -0.0359394 0.0018919832 -0.02681382
000160 6d ab 99 bc 9e 82 85 bd f5 b6 14 bd e4 e4 90 3a
       -0.0187585 -0.06519054 -0.036307294 0.0011054543
000170 72 69 3b bc 2a 29 d9 3c 85 91 1e bd fa 27 1b 3d
       -0.011438714 0.026508886 -0.038712997 0.03787992
000180 00 9d df b9 52 1a 7b bd 74 c8 3f 3d ce c1 02 3d
       -0.0004265085 -0.061304398 0.046822026 0.031923108
000190 47 5c c9 3c 8a 4a 11 bd a4 7a a1 bc 30 c5 97 3c
       0.024580134 -0.035471477 -0.0197118 0.018526644
0001a0 a0 7a a1 3a 7a 29 58 3d 1c 20 00 3d 2c db 5f 3d
       0.001231987 0.05277393 0.031280622 0.054652378
0001b0 f8 50 28 bc 00 f8 9f 38 44 69 24 bd 94 a7 2c bd
       -0.010273211 7.6279044e-05 -0.04013945 -0.042152002
0001c0 42 3a 41 3d 60 24 4d bd d5 46 7e 3c b6 2c 34 bd
       0.0471747 -0.050083518 0.015519817 -0.043987952
0001d0 68 3e 8a bd 06 2c 0c 3d 61 73 b9 bc 24 e7 09 3d
       -0.06750184 0.03422167 -0.022638025 0.0336677
0001e0 7f 47 8d bd c6 b4 53 bd aa fd 25 3c b1 f6 da bc
       -0.068984024 -0.05168607 0.010131279 -0.02672896
0001f0 14 fd d6 3c 6a 96 02 bb 9c 9d db 3c 00 c0 2d bb
       0.026243724 -0.001992608 0.026808552 -0.0026512146
000200 d7 45 97 bd 30 ee 61 bc ab 1f 2f 3d 2c 6f 3c bc
       -0.07386368 -0.0137896985 0.04275481 -0.011501115
000210 00 ff 8d 3c 30 dd 28 ba 90 53 c2 bb 34 e5 a3 3c
       0.017333508 -0.0006441651 -0.0059303716 0.020006754
000220 bf 15 77 bd ee 1b 08 bd 48 00 6c bc c4 27 13 3d
       -0.060323473 -0.03322976 -0.014404364 0.035926595
000230 37 47 10 bc a2 d9 37 bd 66 2d 6f bd 1d 96 77 bd
       -0.008806041 -0.044885285 -0.058392905 -0.060445894
000240 33 8f 8d bd 3d 80 70 bd 13 e1 3e 3c d8 0a 21 3c
       -0.06912079 -0.058716048 0.011650342 0.0098292455
000250 c6 cf a9 3c 01 c6 c6 bc e6 ec 48 3d c8 ed 77 3d
       0.020728957 -0.024264337 0.04905405 0.0605295
000260 54 cc de bc 90 6a e7 bc 0d 9d 67 bd 1b 92 3c 3d
       -0.02719704 -0.028249055 -0.05654626 0.046037775
000270 0c b0 3d bc 32 99 9f 3c 24 be 85 bc b8 ac 34 bd
       -0.011577617 0.019482229 -0.016326018 -0.04411003
000280 c8 c2 1b 3c 4c bc d0 3c bc 27 0e bd d0 a8 49 3c
       0.009506889 0.025480412 -0.034705862 0.012308314
000290 0e bf 2e bd 1c bf 8b 3c ce 49 2c 3d 09 b9 21 bb
       -0.042662673 0.017058901 0.042062573 -0.002467694
0002a0 b0 83 3f 3c 2f 8e 8d bd 2f 00 07 3b 3c 5a 4e 3d
       0.011689112 -0.06911885 0.0020599475 0.050379023
0002b0 16 a7 da bc 20 ec 9a 3b 70 9f 96 bc ae b2 08 3d
       -0.026691 0.0047278553 -0.018386573 0.033373527
0002c0 be 3f 15 bd 40 e1 f0 3c 1f df 12 3d 48 0d 90 bd
       -0.036437742 0.029404283 0.035857316 -0.07033783
0002d0 98 11 38 bd 34 1b fa 3b aa 56 74 bc 1e 29 3b 3d
       -0.044938654 0.0076326374 -0.01491324 0.04569351
0002e0 78 f5 7a bd ec cc 48 bd 39 3a 8e 3c c4 d6 f7 bc
       -0.061269253 -0.049023554 0.017361747 -0.030253775
0002f0 e2 63 a9 3c 52 7d 2d 3d 18 c9 67 bc e8 a4 a8 3c
       0.02067751 0.042355843 -0.014147066 0.020586446
000300 fa e6 ce bc 69 f7 e0 bc d5 0b 9e bc 58 42 42 bd
       -0.025256623 -0.027461724 -0.019292751 -0.04742655
000310 ef cc 13 3c 00 84 8d bb 74 0f fb bc d0 37 54 bd
       0.009021028 -0.004318714 -0.030647017 -0.05181104
000320 04 c2 3c bc 1c 4f 29 3d 70 7c 94 bb 86 98 4b 3d
       -0.011520866 0.04133521 -0.0045314357 0.049706005
000330 e1 bf cd 3c e4 7e 7b bd e1 cc ab bc c5 23 3b bd
       0.025115909 -0.06140031 -0.020971717 -0.04568841
000340 08 d4 e2 3c 62 3a d3 bc b0 1a 4f bc a0 e6 1c bc
       0.027688995 -0.025784675 -0.01264064 -0.00957647
000350 c8 b4 ef 3c 5e 0b 74 bd 08 33 9a bd d7 bd 84 bd
       0.029261008 -0.059581153 -0.07529265 -0.064815216
000360 44 79 e7 3c 6e ef 91 bd c8 a6 b1 bc 60 27 49 bb
       0.028256066 -0.07125746 -0.021685973 -0.0030693635
000370 e4 13 af 3c 44 43 d7 bc 8c 35 b4 bc ea 96 a7 3c
       0.02137179 -0.026277192 -0.02199819 0.020457704
000380 b8 26 75 bd f0 35 b2 3c 01 5a 12 bd 7b db bc 3c
       -0.05985138 0.021754235 -0.035730366 0.023053875
000390 fc c1 da bc ac 77 6e 3d b3 df c5 bc 48 ee 97 bb
       -0.026703827 0.058219597 -0.02415452 -0.0046365596
0003a0 60 dc 55 bb 3f d3 4c bb 4e 49 40 bd d4 b2 12 bd
       -0.0032632574 -0.0031253842 -0.04694491 -0.035815075
0003b0 30 88 05 3c c7 96 25 bc dd f1 1b 3c 69 6d a0 3b
       0.008150145 -0.010106749 0.009518114 0.004895855
0003c0 00 50 8a bd 42 91 4e bd ef f5 81 bd 70 bd 36 bd
       -0.0675354 -0.050431497 -0.06345736 -0.044614255
0003d0 63 4b 9e 3c b5 e5 6e bd 8f c8 a9 3c 5d 39 09 bb
       0.019323057 -0.058324534 0.020725517 -0.0020938732
0003e0 51 f5 5c 3b 90 50 4b bd 22 2a 14 3d 39 c4 c9 3c
       0.0033715556 -0.049637377 0.036172993 0.024629699
0003f0 02 ed 19 bd f6 d7 59 bd 00 ee 1c 3c 1c 42 1a 3c
       -0.037579544 -0.053184472 0.009578228 0.009415176

bias f4 [256]
000000 cb 5d 06 bc ce df 89 3c 09 0e e9 b8 64 61 f7 bc
       -0.008201073 0.016830351 -0.0001111292 -0.030197807
000010 6d b9 8a bc 6c 6f 46 bd 94 20 bd bc e4 db 2a 3d
       -0.016934121 -0.048446104 -0.023086824 0.04171361
000020 53 af 7e bd e8 dd d9 bc 19 0b 2e 3b c4 a1 ef bc
       -0.06217892 -0.026595071 0.0026556908 -0.02925194
000030 9e 41 29 bd 8a cb 7e bd 01 3c 46 3b 73 4a 75 bd
       -0.041322343 -0.06220583 0.0030248167 -0.059885453
000040 47 5e 00 3a ce 58 1b bc 43 36 e3 bc 20 a8 70 3c
       0.0004896861 -0.009481622 -0.027735835 0.014688522
000050 eb 71 47 3d f0 eb f2 bc 7e 72 04 3d 2c d1 c6 bb
       0.048692625 -0.02965352 0.03233575 -0.0060674157
000060 4d 85 85 bd 8c fe e1 3c 6d fd 82 bd 9f 1c 50 bd
       -0.06519566 0.027587198 -0.063959934 -0.050808545
000070 16 61 cf bc 7c de 47 bc c4 d0 24 bc 08 b8 3d bd
       -0.025314849 -0.0121990405 -0.010059539 -0.046318084
000080 36 1d 19 3b ec 70 04 ba be 39 22 3d 2a 75 7b 3b
       0.0023363358 -0.0005052227 0.03960585 0.0038369396
000090 57 f1 b3 bc e5 79 79 3c 1f 84 ae bc fa 61 84 3c
       -0.021965666 0.015226816 -0.021303235 0.01616
0000a0 f6 a9 19 3c 54 23 89 bc d0 e4 09 bc ec fa 24 3d
       0.009378901 -0.016740479 -0.00841637 0.04027836
0000b0 3c 5d 85 bd 6d ac 34 3d 07 90 12 3d 5f b5 92 bd
       -0.06511924 0.04410975 0.035781886 -0.071635
0000c0 69 a4 4a bc 23 10 8e 3b ef 61 45 bd 30 8a d2 3c
       -0.0123683 0.0043354197 -0.0481891 0.025700659
0000d0 b1 a5 2f bd 08 27 11 3c e3 d3 7e bd f1 5b 07 bd
       -0.042882625 0.008859403 -0.06221379 -0.033046667
0000e0 2a 86 50 3d 20 8b 9d 3b f4 82 06 3d aa d4 8d bd
       0.0509092 0.0048078448 0.03283973 -0.06925328
0000f0 e8 6d bf bc d9 3b 3c bb 47 78 69 bd 16 2b 64 3d
       -0.023367837 -0.0028722195 -0.05699947 0.055705152
000100 32 f9 61 3c 31 d1 18 3d bb 67 2d bd c0 df e5 3a
       0.013792323 0.037308875 -0.042335253 0.0017537996
000110 ca 6d f8 3c 58 15 21 3c bb 32 9b bc 2e c5 9e 3c
       0.030325789 0.009831749 -0.018945089 0.019381132
000120 62 75 d6 3b af ef 30 3d fa 54 2c bd 9c 05 7c bd
       0.006544755 0.04319733 -0.042073227 -0.061528787
000130 9c ba 65 3d 7c 2d 89 ba 1f d9 c5 bc 2e 8a 4e 3d
       0.056086168 -0.0010465826 -0.024151383 0.050424747
000140 34 bc ea bc f9 ca 3c bd b9 f7 65 3c 66 aa 47 3d
       -0.028654195 -0.046092007 0.014036112 0.04874649
000150 97 63 2c 3d 0a 34 62 3e a4 2a 38 bd 97 f1 24 bc
       0.042087164 0.22090164 -0.04496254 -0.010067365
000160 48 41 9b 3c 8a 38 1e 3d 74 a2 6f bb bc a8 e5 bb
       0.018952027 0.03862814 -0.0036565335 -0.00700864
000170 af 6b 1b bd 90 ba 1e 3d ad 02 48 bc 71 ae 56 3d
       -0.037944492 0.03875214 -0.012207669 0.052412454
000180 85 cc 32 bd 38 06 f4 3c b4 a0 2b bd 81 3b 27 3d
       -0.043652076 0.029788122 -0.041901305 0.04082823
000190 16 a9 9d 3b 4e d4 ed bc e3 de 03 3d 72 ce 59 3d
       0.0048114164 -0.029031899 0.032194983 0.053175397
0001a0 d3 b8 45 bd 7c 8c 45 3c 81 8b bc bc 1c f2 17 3d
       -0.048271965 0.01205742 -0.02301574 0.037096128
0001b0 14 76 06 3d ba 8c 16 bd 02 bf 80 bc 15 61 62 3d
       0.03282745 -0.0367553 -0.01571608 0.055268366
0001c0 11 58 92 bd 12 75 bd 3c 14 c5 a5 bc b2 59 06 bd
       -0.071457036 0.023127113 -0.020235576 -0.032800384
0001d0 fa ad 0c 3d 5a 37 4e bd 43 6f 2d 3c b4 82 47 bd
       0.034345604 -0.050345756 0.010585609 -0.048708633
0001e0 63 80 8d bc a1 42 f8 bc 81 c1 54 3d b1 46 81 3b
       -0.017273134 -0.030305209 0.051942352 0.0039451947
0001f0 dd 6c b8 bb 42 67 0f 3c 07 5e f8 bb f4 b4 40 3d
       -0.005628212 0.008752646 -0.0075795683 0.04704757
000200 b5 97 5f 3d 9a b0 66 bd 36 4a 56 bd 87 6a ef 3b
       0.05458804 -0.056320764 -0.052316867 0.0073064
000210 4e f6 12 3d 24 8c 05 3d 46 01 2d bd 00 7b 0c 3d
       0.035879426 0.03260435 -0.042237543 0.03429699
000220 17 80 02 3d 00 59 65 bd a9 6c d6 3c 76 24 65 bc
       0.031860437 -0.05599308 0.02617486 -0.013985744
000230 f3 46 f6 bc 32 50 4c bd 4c 02 1f bd 80 40 06 3a
       -0.030063128 -0.049881168 -0.03882055 0.00051213056
000240 ba ee 0c bc 56 dc 44 bd 7c 3f 5f bd fc af 0b 3d
       -0.008601839 -0.04806169 -0.054503903 0.03410338
000250 4d 02 cf 3c c1 3e 81 bd c3 79 70 bd dc dd 4e bd
       0.025269652 -0.063107975 -0.05870987 -0.05050455
000260 ac 76 14 bd 45 5b 8b 3b cf f5 3a 3c 3f 1a 3e bd
       -0.036245987 0.0042528235 0.011411144 -0.04641175
000270 3f 62 35 bd 3a 46 05 3d d5 e7 11 3d 04 e5 ec bc
       -0.044283148 0.032537676 0.035621483 -0.028917797
000280 e6 2d 80 bd 75 13 64 3c 1a 14 71 bd d3 dc 58 bd
       -0.062587544 0.013920655 -0.05885706 -0.05294497
000290 c8 4b a1 bc d0 a2 86 bb d6 dc 3e bd 8e f4 28 3d
       -0.019689456 -0.004108764 -0.046597324 0.04124885
0002a0 18 c5 39 3d 82 7b a1 3b d7 fc cf 3c d9 d7 2e 3c
       0.04535398 0.0049280534 0.025389118 0.010671579
0002b0 1c 6b b3 bc 2e ba 76 3d 42 11 da 3c 6a 1f 46 3d
       -0.02190166 0.06023615 0.026619557 0.048369803
0002c0 f6 f5 33 bc e1 8b 58 3d 61 1c 3d 3d b4 0f f1 bc
       -0.010983935 0.052867774 0.046169642 -0.029426433
0002d0 97 4e 94 bb 9e 1a 4b bd cd 10 38 bd e8 35 91 bd
       -0.00452597 -0.04958593 -0.044937897 -0.0709036
0002e0 95 1e 82 bd f9 c6 ad 3b 51 c3 08 bc 72 87 05 bd
       -0.06353489 0.0053032604 -0.008347348 -0.032599874
0002f0 1f eb ac bc d9 f8 9e bc bf 6d 39 3d 69 df 4e 3d
       -0.021108208 -0.01940577 0.045270678 0.05050603
000300 a0 8b 76 bc 2d 76 18 3d e9 89 09 3d 3f 24 46 bd
       -0.015047938 0.037222076 0.033578787 -0.04837441
000310 d3 f1 0a 3d 11 aa 59 bd eb c0 15 3d f2 a9 39 bd
       0.033922028 -0.053140704 0.036560934 -0.045328088
000320 b2 36 97 3c 0e ed 5d 3c ab 83 67 bd 04 8e b9 3c
       0.018458698 0.013545288 -0.056522053 0.022650726
000330 15 55 85 bd 80 b1 e5 bc 16 19 82 bd 20 3f c6 bc
       -0.06510369 -0.02803874 -0.06352441 -0.024200022
000340 45 73 0c bd 0a 77 b8 bb a1 e1 15 bd 01 ed 55 3d
       -0.034289617 -0.005629425 -0.03659213 0.052227978
000350 98 20 33 bc 5e 3a bf bd 2f 44 07 3b 03 47 fb 3c
       -0.010933064 -0.093373045 0.0020640006 0.03067351
000360 eb 5d 53 3c 66 71 76 3c f5 76 d8 3c 6f 04 43 3c
       0.01290081 0.015041685 0.02642391 0.0119029125
000370 49 e1 12 bd a6 8e 84 bd 51 84 06 3e ef a4 4a bd
       -0.03585938 -0.064725205 0.13136412 -0.0494737
000380 8b 36 48 3d 62 48 af bc 01 b7 83 3c ab d2 81 bd
       0.04888014 -0.02139682 0.016078474 -0.0633901
000390 88 b1 14 3c 3b f6 b7 bc be be 01 3c f1 3f 37 bc
       0.00907553 -0.022456279 0.007919012 -0.011184678
0003a0 38 a7 b5 3c 58 fb a4 3c 3c 98 a2 bc 19 c2 56 bd
       0.022174463 0.020139381 -0.019847982 -0.0524312
0003b0 3a 28 22 bc 47 ec 29 3d fb af e2 bc f4 43 eb 3c
       -0.009897286 0.041485097 -0.027671805 0.028718926
0003c0 b7 dd d8 3c 04 94 84 3a 2c e0 15 bd 7e 3b a7 3c
       0.02647291 0.0010114913 -0.03659074 0.02041411
0003d0 1e 81 22 3d 68 3a bb 3c 2e d8 31 bd 23 a5 5a bc
       0.039673917 0.022854999 -0.043419056 -0.013345036
0003e0 16 ef b5 3b 4b a3 32 3d 0d 4f 86 bd 90 e3 4d 3d
       0.005552183 0.04361276 -0.065580465 0.05026585
0003f0 a9 79 b3 3c db b5 9b bc b6 02 89 bd 30 81 11 bd
       0.021908598 -0.019007614 -0.0668997 -0.035523593

weight f4 [2, 256]
000000 0a 8a 63 bb cf dc a2 bc c6 39 37 bc 03 85 9a bb
       -0.003471973 -0.01988068 -0.011183208 -0.0047155633
000010 5f 51 b8 3b 66 e7 e6 bb a9 f9 b1 ba fd 66 b3 3c
       0.0056249346 -0.007046628 -0.0013578433 0.021899695
000020 0a 60 f1 38 b1 0a 00 bc 2a 99 48 3b 6c 59 b2 bb
       0.00011509664 -0.007815049 0.003060887 -0.005442789
000030 58 57 8d 3b 46 a3 b5 bb cc 61 eb ba e2 e7 df bb
       0.0043133907 -0.0055431454 -0.0017958223 -0.0068330625
000040 d9 50 b3 ba 99 3f b5 3b e4 3a ce bb f1 29 5b 3b
       -0.0013680711 0.005531263 -0.0062936414 0.0033441747
000050 7b 12 e0 bb 88 d6 5d b7 75 7b 01 bb f2 03 b4 3b
       -0.0068381405 -1.3222576e-05 -0.0019757424 0.0054936344
000060 aa 89 80 3b 19 77 bd bb 80 3e c1 bb cf 96 db bb
       0.003922661 -0.00578202 -0.005897343 -0.0067013274
000070 94 e3 aa 3b cd 07 55 3b 65 db 49 bb ac 85 4c bc
       0.0052151177 0.003250587 -0.0030800935 -0.012483042
000080 eb 69 51 3c dc 4c 48 3b 61 65 e5 3a a5 77 27 3a
       0.0127816005 0.003056339 0.0017501527 0.0006388373
000090 a9 bd a2 3c 79 69 9e 3b 83 90 ba 3b 52 d7 8c 3b
       0.019865828 0.0048343507 0.0056934967 0.004298129
0000a0 6d 2b e9 bb 55 a2 d1 bb 69 61 99 b8 29 ee b1 3b
       -0.0071157725 -0.0063975253 -7.3137526e-05 0.005430002
0000b0 21 02 9b 3b 9b d0 a6 bc 50 7f 6f 3b 84 c9 9c 3b
       0.0047304784 -0.020363143 0.003654439 0.0047847647
0000c0 3f 4a 30 3c 6c 67 d6 bb 2a 18 47 bb 59 98 9a bb
       0.010759889 -0.0065430906 -0.0030379393 -0.0047178683
0000d0 ac 39 01 3b f5 91 97 3b ad 8d 80 3b ff d1 68 ba
       0.0019718213 0.0046255537 0.003923139 -0.00088813895
0000e0 f3 57 dd bb 8a ef 69 ba 69 82 74 3a 7c 4e b8 ba
       -0.006754869 -0.0008923939 0.0009327294 -0.0014061476
0000f0 86 22 bd bb a2 c6 4a bb 3b 05 8f 3b 24 01 dd b9
       -0.005771938 -0.0030941148 0.004364637 -0.00042153255
000100 c9 87 9d 3b 46 ef ce ba a0 38 ef bc c1 0b b8 3b
       0.0048074466 -0.0015787862 -0.029201806 0.0056166355
000110 45 0f d6 3b 0f 5d c6 bb 5f fc c6 3b 68 da 85 bc
       0.006532582 -0.006053574 0.0060725654 -0.016339496
000120 fe 42 9d 3b 02 96 fe 3c 2a 09 a4 3b 35 d4 1c ba
       0.004799246 0.031077389 0.0050059753 -0.0005982549
000130 ea df 76 ba e4 21 94 3b 5d 10 8b bb 5f 74 d3 3b
       -0.0009417521 0.0045206416 -0.004243894 0.0064530815
000140 53 5b 72 ba f0 c0 7c 3b eb 2f c1 3b 80 9c 7e ba
       -0.0009245176 0.0038567148 0.005895605 -0.00097126514
000150 09 53 d6 3b ca 2f 0c 3e c6 84 c2 bb f9 d8 a4 3b
       0.0065406603 0.13690105 -0.005936238 0.005030748
000160 01 f8 65 ba e8 53 96 3b 48 f8 d0 bb 01 61 42 3b
       -0.0008772612 0.004587639 -0.0063772537 0.002965987
000170 95 69 c2 bb ca a7 df 3a 37 9a a3 bc e4 44 e3 bb
       -0.0059329965 0.0017063555 -0.019970996 -0.0069357026
000180 cf cf fe bb 6f 7a 85 b9 3f 83 19 bb 88 2d 88 bc
       -0.0077762376 -0.00025458957 -0.0023424176 -0.016623273
000190 ef fd 9b bb ab 2c 6d 3a 55 5e 36 3b 46 7d 7a 3a
       -0.004760496 0.00090474886 0.0027827222 0.00095554104
0001a0 68 f3 75 3c 9e aa 10 bc e1 02 e7 bb 84 54 c7 bb
       0.015011646 -0.008829741 -0.0070499037 -0.006083073
0001b0 80 db 83 bc a9 d0 c6 bb 32 b7 d6 bb f3 4c 92 ba
       -0.016095877 -0.0060673547 -0.0065526003 -0.0011161849
0001c0 9a fb 94 bb a0 76 e6 3a 48 ef b3 3b c1 0e 53 ba
       -0.004546595 0.001758296 0.005491171 -0.000805121
0001d0 aa 66 45 bb 94 53 c0 ba 7b b1 5b bc 90 3a a1 b9
       -0.0030121007 -0.0014673346 -0.013409014 -0.00030751945
0001e0 0e ae 03 bb 47 83 80 3b 0b c1 c7 3b 4b e8 fb 39
       -0.0020092758 0.0039218995 0.0060960106 0.00048047522
0001f0 c0 e2 d2 bb 1f 9b c4 3b 2b 83 d9 bb 1d 94 80 b9
       -0.006435722 0.005999937 -0.006637951 -0.00024524415
000200 1a 9c ad 3b a9 e9 6d 3a 0e b5 24 3b 74 b8 b2 3b
       0.00529815 0.00090756506 0.002513233 0.0054541174
000210 0e 39 fd bb 26 42 b4 3b 7a 71 e6 bb 64 46 73 bb
       -0.0077277487 0.0055010496 -0.0070325704 -0.0037120814
000220 5b 77 8b 3b 0b d7 56 ba 55 54 e3 bb b5 83 d5 bb
       0.0042561716 -0.0008195496 -0.0069375434 -0.006515945
000230 c1 37 48 3b aa 93 a3 bb 21 d3 c1 bb 0a be 81 3a
       0.003055081 -0.004991968 -0.005915061 0.0009898555
000240 e6 00 ef 3a 7b 8d 12 ba c0 c1 9d 3b 13 c2 a8 3b
       0.0018234521 -0.000559054 0.0048143566 0.0051500886
000250 b2 25 a0 bb d8 f0 86 3b 1b 73 97 3b 5f 90 a7 b9
       -0.004887306 0.0041180663 0.004621876 -0.00031960287
000260 c4 dd a4 3b 00 25 e3 3c ab 77 05 bb 06 2f e4 3a
       0.0050313193 0.027727604 -0.0020365517 0.0017409034
000270 f0 07 a3 bb 03 5c a6 3b 59 d1 97 3b 0b 76 01 3a
       -0.0049753115 0.0050768866 0.0046331105 0.0004938549
000280 9c 82 fa b6 c1 25 c9 bb 3c 61 00 bc 31 42 c5 bb
       -7.4657855e-06 -0.006138534 -0.0078356825 -0.0060198535
000290 e2 bc d9 bb bd b4 5d 3a 1b 9a a6 bb b5 79 7d bb
       -0.006644831 0.0008457413 -0.005084289 -0.003867728
0002a0 e0 67 bf bb 72 cc 59 3b 0f 05 53 bb bf 0b fe ba
       -0.0058412403 0.0033233431 -0.003219906 -0.0019382163
0002b0 d2 2a f7 38 08 49 d2 3c 50 d5 d3 3b 50 2a 0b 3b
       0.00011785854 0.02566959 0.006464638 0.0021234937
0002c0 f5 ff 73 bc bd 24 2d ba 97 9e 20 3b d6 6c d8 bb
       -0.014892568 -0.00066049007 0.002450859 -0.006604771
0002d0 f6 de cc ba ce ec 74 bb 74 f4 27 3b b0 c7 b8 bb
       -0.0015630412 -0.0037372592 0.0025627883 -0.005639039
0002e0 2a d3 d0 3b 10 7e b7 bb 43 76 01 bc 26 a2 77 bc
       0.006372829 -0.0055997446 -0.007901731 -0.015114343
0002f0 f7 4e ef bb ec dc 81 3c e2 0d a2 3b fa b8 bf 3b
       -0.0073031145 0.015852414 0.0049455026 0.0058509083
000300 96 72 4a ba 0a 43 b8 bb 8c fe a8 3b 71 6d 8a bb
       -0.0007722763 -0.005623226 0.0051572975 -0.004224472
000310 1c 7a 83 3b 46 ac d9 3b 1e de 1d bb fc eb a5 b9
       0.0040123593 0.006642851 -0.002408869 -0.00031647075
000320 33 91 69 bc 6b db 99 bb 8b fa 78 bc 3e fc eb b9
       -0.01425581 -0.004695346 -0.015196453 -0.00045010628
000330 7f d8 63 bb 32 ca a2 bb 89 fc 87 bb ca 29 d0 3b
       -0.0034766493 -0.004967951 -0.0041499776 0.006352638
000340 ab 2b c6 bb 0f 26 26 3b 5f 05 e1 bc de be ce bb
       -0.006047686 0.0025352275 -0.027468381 -0.0063093742
000350 e0 37 c8 b8 13 7c 01 bd cd 4b 5a bb c5 5a ef bb
       -9.547151e-05 -0.031612467 -0.003330934 -0.0073045217
000360 85 e0 bf 3b c5 d8 10 ba f1 33 ed bc 5d 01 cf 3b
       0.0058556222 -0.0005525465 -0.028955432 0.006317301
000370 e2 21 c7 bb 1c c1 ba 3c d1 cd d2 3c 21 a8 d1 3b
       -0.006077037 0.02279716 0.025732907 0.0063982164
000380 c7 13 a1 bb d0 8c 91 3b 0d 82 a4 3c 8e a9 a0 3b
       -0.0049156877 0.004441835 0.020081544 0.004903025
000390 c3 d2 24 3a 18 9f 88 3c 68 10 30 bb bf 07 a6 3b
       0.00062875095 0.016677424 -0.0026865248 0.0050668414
0003a0 b0 dd c0 ba 5f 17 10 ba 42 27 a4 bc 68 93 dc bb
       -0.0014714506 -0.00054966466 -0.02003825 -0.0067314394
0003b0 10 35 b2 3b a7 06 91 bb d8 da 97 bb 7d b8 77 bc
       0.0054384544 -0.004425842 -0.0046342425 -0.015119669
0003c0 22 78 3d bc 6b 3d 95 bc b7 0f 98 b9 44 0f bd 3b
       -0.011564286 -0.018217763 -0.00029003408 0.005769642
0003d0 c9 2c f2 bb af 7e 2f bb ec 37 55 ba 4d 37 10 bb
       -0.0073905927 -0.002677839 -0.0008133638 -0.0022005618
0003e0 fd f1 a4 3b 3b 64 25 3b 36 8f ab 3b 2c cf b8 bb
       0.00503373 0.0025236744 0.005235578 -0.005639931
0003f0 f2 93 ab 3b 54 31 be 3a 1e b7 cd bb 53 10 fe b8
       0.0052361423 0.001451055 -0.006277933 -0.000121147044

bias f4 [2]
000000 7d c4 8e bf b8 2b 00 40
       -1.1153713 2.0026684

weight f4 [2, 256]
000000 60 33 13 3b ae c1 a0 3c 3a f8 a8 bd 24 97 af 3b
       0.0022461042 0.019623604 -0.082504705 0.0053585935
000010 bb 7e b3 bb fe c6 b2 3a de e6 fe ba 88 c1 57 bc
       -0.005477754 0.0013639627 -0.0019447466 -0.0131687
000020 8e 5d 5c ba 1d d5 52 3b 0b 7f 3a bb 33 98 80 3b
       -0.0008406275 0.0032170482 -0.0028457071 0.0039243936
000030 5a f3 7e bb 62 d6 92 39 ab 90 a7 3a 66 e4 96 3b
       -0.0038902373 0.00028007018 0.0012784203 0.004604864
000040 0a 43 8d 3a da 83 e5 bb 0e 2b 76 3a 18 4c 83 bb
       0.0010777425 -0.0070042433 0.0009390571 -0.004006874
000050 2a f2 9c 3a c1 fe 79 b9 89 bd 59 bb 8e 05 97 bb
       0.0011974026 -0.00023841394 -0.0033224544 -0.0046088165
000060 10 67 6f bb 6a fa 77 3b fb 61 75 3b 66 e7 91 3b
       -0.0036529936 0.0037838467 0.0037442434 0.0044526337
000070 21 37 c9 bb 48 6c a8 bb 23 63 43 3b dc 00 15 3c
       -0.006140605 -0.0051398613 0.0029813729 0.009094443
000080 45 28 37 bc b3 bd 00 bb 22 90 0b b9 0e c6 2e 38
       -0.011179035 -0.001964432 -0.00013309767 4.1669286e-05
000090 90 ec a4 3c 5b c8 86 bb 00 81 b5 bb 6e 2b f3 ba
       0.020132333 -0.0041132397 -0.0055390596 -0.0018552372
0000a0 dd f3 06 3b 7d 09 8c 3a c9 fd 40 3a ae 4b d1 bb
       0.0020592131 0.001068398 0.00073620357 -0.0063871955
0000b0 ae ec 76 bb 0c 11 a4 3c c5 ff 77 bb a4 3b 50 bb
       -0.0037677693 0.02002766 -0.003784166 -0.003177383
0000c0 e2 76 35 3c 81 d2 42 3b c5 f9 c3 3b ef 5d ba 3b
       0.011075707 0.002972752 0.0059807026 0.0056874673
0000d0 aa 64 db ba ea da 08 3c 0d e9 7f bb 5e cc cd 39
       -0.0016738374 0.008352974 -0.0039048821 0.00039252912
0000e0 fb 0b a8 3b 3e ea c6 b7 bf e3 0d 3a 3e d0 50 3b
       0.0051283813 -2.3712517e-05 0.000541266 0.0031862403
0000f0 3f 38 72 3b 83 f3 72 3b f7 20 89 bb 2e 05 6f 3a
       0.0036959795 0.0037071414 -0.004184838 0.00091178983
000100 82 e7 9e bb 2d 7d 0f 3b cb b0 ee 3c 73 bf a5 bb
       -0.004849375 0.002189468 0.029137036 -0.005058223
000110 27 4c e0 bb 0c 7a 34 3b c8 47 bc bb a1 21 2b 3c
       -0.0068450156 0.0027538566 -0.0057458617 0.0104450295
000120 ed 13 da bb 9a 60 9e 3c cd 6d ce bb 50 b6 c6 b9
       -0.0066552074 0.019333173 -0.0062997104 -0.00037901336
000130 cf 23 37 3a d0 ce 51 bb 33 72 93 3b 26 1f a5 bb
       0.0006986232 -0.003201414 0.0044996976 -0.0050391136
000140 b7 ac 8c 3a e6 3f 16 bb d7 de 75 bb ea bd e7 3a
       0.0010732625 -0.002292627 -0.0037516856 0.00176805
000150 c8 80 ae bb e9 64 1b be 83 01 99 3b 83 42 c1 bb
       -0.0053254105 -0.15175213 0.0046693697 -0.0058978214
000160 65 db 89 37 e5 7a 22 bb f4 1c f1 3a 83 65 8e ba
       1.6433836e-05 -0.002479249 0.001839547 -0.0010863993
000170 5f d5 a1 3b e8 12 2b bb a3 1c ae 3c 05 21 8f 3b
       0.004938766 -0.0026103798 0.02125389 0.00436795
000180 ca 43 38 3b b3 95 de 39 15 c0 b6 3b 97 99 83 3c
       0.0028116577 0.00042454674 0.005577097 0.016064448
000190 eb c8 90 3b 6b d0 28 ba 01 31 2e bb 11 15 25 ba
       0.0044184825 -0.0006439748 -0.0026579502 -0.00062973896
0001a0 0d d3 86 bc 05 f3 f9 3b 81 36 c8 3b d4 29 9f 3b
       -0.016458059 0.007627847 0.006110013 0.004857281
0001b0 d4 7c ad bd 81 9b bf 3b 55 ba 79 3b af b6 9e bb
       -0.08471075 0.005847395 0.0038105447 -0.004843555
0001c0 bd 3f 7b 3b aa 64 83 bb 8c 9c b1 bb b7 d5 b0 ba
       0.0038337552 -0.004009803 -0.005420273 -0.0013491426
0001d0 cd 3f 83 3b 9d 27 d3 3a 32 cc b3 bd bd da ec 39
       0.0040054084 0.0016109828 -0.087791815 0.000451764
0001e0 8c ea 6b 39 de 98 03 bb f5 6e a9 bb a2 a1 3e bb
       0.00022498722 -0.002008013 -0.005170698 -0.002908804
0001f0 e6 e0 7a 3b b5 95 99 bb ee 25 84 3b 2a e0 78 b9
       0.0038281023 -0.004687036 0.004032842 -0.0002373463
000200 1d 1b 67 bb ea c3 7f 3a 2c 46 fc ba dd fd b6 bb
       -0.0035263964 0.00097566715 -0.0019246987 -0.005584462
000210 21 25 51 3b 60 1a 94 bb cb f3 94 3b ec 0a 85 3b
       0.0031913 -0.0045197457 0.004545664 0.00406014
000220 66 af 97 bb 82 25 9b 38 04 70 a7 3a ea 57 40 3b
       -0.0046290634 7.397962e-05 0.0012774472 0.0029349276
000230 59 19 4a bb e1 84 aa 3b 6d 0a 2b 39 fb 85 58 ba
       -0.0030837862 0.0052038287 0.00016311715 -0.0008259711
000240 64 c0 63 ba aa 43 84 39 71 5a a9 bb 18 7f 59 ba
       -0.0008688031 0.00025227416 -0.005168252 -0.00082968315
000250 e0 b3 c0 3b 53 59 bc bb e6 88 5c bb 88 48 ca b9
       0.005880818 -0.005747953 -0.0033650934 -0.00038582482
000260 73 26 ba 3b 53 09 8c 3c 57 d3 d3 b9 ec 7a b3 ba
       0.005680853 0.01709429 -0.00040402517 -0.001369325
000270 37 f9 89 3b cf 07 a0 bb 7e 93 4d bb f0 d5 e6 39
       0.004210617 -0.0048837434 -0.003136843 0.00044028414
000280 cd 69 39 ba 40 ff bb 3b 1a 36 29 3b 83 1a 90 3b
       -0.00070729555 0.0057372153 0.00258196 0.0043976917
000290 14 e5 bb 3a 6d 87 3a ba 16 bf ad 3b 8b f2 b0 3b
       0.0014335238 -0.0007115517 0.0053023202 0.005400007
0002a0 01 06 ae 3a 58 a9 a3 ba 4d cf 31 3a 30 2e 20 3b
       0.0013276936 -0.0012486381 0.00067829044 0.0024441592
0002b0 90 66 20 3a 32 4c 6a be 35 bf ab bb 4a fe 97 bb
       0.00061187986 -0.22880629 -0.0052412995 -0.004638468
0002c0 43 b9 a4 bd 13 28 b9 ba 50 a6 88 ba 51 41 6d 3b
       -0.08043148 -0.0014126323 -0.0010425542 0.0036202262
0002d0 3c 9b c1 b9 93 a5 06 3b 37 64 5b bb df 9d 78 3b
       -0.00036927487 0.0020545467 -0.003347648 0.0037935895
0002e0 98 80 b7 bb bf e8 b4 3b 72 da 3e 3b c9 9c 99 bd
       -0.0056000464 0.0055209096 0.0029121903 -0.075006075
0002f0 42 41 ab 3a 81 3a 68 bc 70 ed c0 bb 6a 96 d3 bb
       0.0013065713 -0.014174105 -0.0058876798 -0.0064571397
000300 98 34 76 3a b4 0d 97 3b 7a 87 af bb c9 29 be 3b
       0.00093919924 0.004609788 -0.0053567262 0.005803321
000310 b2 6a 9c bb 74 bd be bb cc 10 05 3b 02 94 01 3a
       -0.0047734613 -0.0058209244 0.0020304201 0.00049430144
000320 e4 91 aa bd c5 3e b5 3a 66 08 69 3c a8 aa 07 ba
       -0.08328608 0.0013827911 0.014223194 -0.0005175271
000330 e1 22 e3 3b d9 6e 0d bd 5d ce 63 3b 93 fe be bb
       0.006931648 -0.03452954 0.0034760453 -0.0058286875
000340 ff e8 ab 3b c8 15 86 bb d0 74 55 3c db a9 80 3b
       0.005246281 -0.004091952 0.013028339 0.0039264983
000350 98 2a 7d 3a b4 00 bc 3c aa de e9 3a bc 10 8b 3b
       0.0009657531 0.022949554 0.0017842848 0.0042439383
000360 b7 d1 ac bb b0 72 9d 3b 9c 09 e9 3c 99 b6 ce bb
       -0.0052740234 0.0048049316 0.028446965 -0.0063083884
000370 14 cb 2f 3b 20 7c ad bc 77 64 a5 bb 3b fe c3 bb
       0.0026823925 -0.021177351 -0.0050473767 -0.0059812344
000380 15 e5 ab 39 0c 87 55 bb 84 cd ae 3c a6 be 81 bb
       0.0003278634 -0.0032581715 0.021338232 -0.0039594946
000390 63 5c 95 b9 57 c4 80 bc a6 d8 ad 3c a9 7c 41 bb
       -0.00028488328 -0.015718622 0.02122147 -0.0029523766
0003a0 fa 7a 0a 3a d6 74 e5 39 d5 53 a3 3c 88 73 73 3b
       0.0005282607 0.00043765333 0.019937435 0.003714772
0003b0 e1 5f 82 bb 10 f8 aa 3b 25 e8 a0 3b 9f 80 a4 bd
       -0.003978715 0.0052175596 0.0049104863 -0.08032345
0003c0 6e 2e 4c 3c bb 93 87 bb ee fc e8 b9 e0 c7 d9 bb
       0.012462242 -0.004137484 -0.00044438936 -0.0066461414
0003d0 96 d9 2d 3b 1d f1 db 3a 01 32 c1 39 17 12 4b bb
       0.0026527396 0.0016780231 0.00036849084 -0.0030986124
0003e0 c2 c9 b4 bb a7 75 08 3c 5d d7 95 3c 77 ee b8 3b
       -0.0055172155 0.008328832 0.01829117 0.0056436616
0003f0 41 c9 9f bb ed c6 c3 3a 20 77 2f 3b f6 c4 b8 b9
       -0.0048762863 0.0014936604 0.0026773885 -0.00035241962

bias f4 [2]
000000 1c d7 77 bf 22 5b 53 bf
       -0.96812606 -0.8256093
