Intelligent car/model_weight/target_value_net_para1.pkl (torch_old, 274079 bytes, 6 tensors)

weight f4 [256, 3]
00000000: 7dc5 64be 9010 11be bfc2 cbbe 879f cf3e
00000010: 67f7 bebd 7502 c53d 8508 f1be 07f7 c03e
00000020: b1b8 52be c65c 32be 12d0 6abd 1e2c bcbc
00000030: 5504 843d e766 673d 9208 37bf 2ac4 1c3e
00000040: 3c5a aebe e504 7bbe 71b6 a1be d6a5 a43e
00000050: f0f4 3ebf aff8 40bf c8e6 e2bc 9c12 693e
00000060: 5dd1 f5be fda1 b13e 7e80 483e a06c d13e
00000070: 871e eebe 817b 263f 0a1d b6be 257c e13d
00000080: 801f 89bf 7074 41bf eadf 87bf 328d f5bd
00000090: 1d53 3dbf 8074 c53e 3a02 95bd e780 453e
000000a0: 4e5c 423e 474f d0bc f704 7abf de16 f6be
000000b0: 276d 9cbd 1937 fbbe 1fa4 83bf cfbd 0a3f
000000c0: 42b5 43bf 48a2 12bf 4c46 aebe 21d9 cebe
000000d0: a07f 5cbf 5040 a1bd d000 fcbe 8b53 d23e
000000e0: 9f38 cbbe 3a44 0cbf ebf2 ed3d 991e 85bf
000000f0: 6d01 debe 8e98 07bf 3133 ebbe 54f8 bcbd
00000100: 8906 a63d dc34 2bbe 4eea 283e b63b 91be
00000110: a398 563f 5074 a63d f211 2a3e cbe8 dcbd
00000120: 102d 9f3e 5e00 f5bc 6d92 e73e 1978 a4be
00000130: 4a53 62be 2601 fcbe d9dd 3cbf 8c99 86bf
00000140: 5fc6 cd3e 1345 0dbe 2585 07bc 86b9 5dbc
00000150: c672 f03e 0aae f8be 469a c9bd f7d2 25bf
00000160: 2c80 85bf fcc4 e2be a259 41bf aa72 0b3e
00000170: 5c8b 8bbf 546b 033f 55b7 cf3e a085 fc3d
00000180: 9e87 47bf b20d a5ba ec52 74be 99ec 7e3e
00000190: eb53 b2be a21e 843e a0ab d8be ced7 3ebf
000001a0: 6326 893e 2450 51bf 236a 84bf 4e52 053e
000001b0: c99d dcbe 984c 9b3d 647f 2b3f fa92 263e
000001c0: 3804 4a3e 6f95 05be 05a2 cc3e a957 8dbe
000001d0: b557 11bf 2f5b 83bc b4f1 90be c203 483d
000001e0: e632 e7be 6eb8 d83d 7bb8 7bbf 3bf7 be3e
000001f0: 2072 b53d f319 5bbf fc94 dd3d c705 46bf
00000200: 8505 f53e 4f82 68bf ef01 44bf 4823 d4bd
00000210: 49b5 9e3d 2138 42be f21f 743f 8db3 013e
00000220: a348 513d ca61 39bf 699b ebbe 25d3 df3d
00000230: 2cdd 7cbf 89a7 cb3d 32e4 743e f007 33be
00000240: 30a3 20be 7dc3 773e 94b5 8cbf e9df a5be
00000250: 0bb8 41bd c50a a43e a4b8 88be 3b93 3abf
00000260: 4a83 4fbd 2f4d 57bf 8dd8 28bf 60f5 da3d
00000270: 8cdd 0bbf ed92 7bbf 7fd6 4f3e 4537 d33d
00000280: c8a2 65be 36a3 30bf c1ab 0b3e a0fe 243e
00000290: 9023 513e 1f4b b3be f61b 45bf 113b e53d
000002a0: d580 03bf 09d8 e13d 792e 7ebf 0f76 7cbf
000002b0: cb3d 00bf 96ef 46bd 9217 803e fc54 a8be
000002c0: a3d8 ef3d ea43 cf3e a1e7 a43e f49e 4dbe
000002d0: c120 97be 10f3 1d3e b4ad 343e 0e11 36bf
000002e0: 79b8 45bf 2396 063f 5ff7 fb3d cb1a 78be
000002f0: 50f5 6a3f d295 86bf 43fb 4abf a76c 013f
00000300: 849e 3ebf 2938 9f3e 74fa a8bd c696 9fbd
00000310: f830 2d3e 5cff 8cbf 0826 25bf 359b 49bf
00000320: f807 11bf 6ed8 373e f867 e6be a389 54be
00000330: c06c 51be 11d1 bebd 40e1 a1bc be28 bb3e
00000340: 5088 8d3b b1ed 48be 97c9 50bf ff0f f3be
00000350: 753c a9be c1f1 39bf cb5d 84bf 4da3 ebbe
00000360: 0c94 113f 717c 00bf 14b5 29be a277 81be
00000370: c80c 3ebf 8b57 4f3e 4893 e43e 7ffb 95be
00000380: bc1a 37bf 147b a23e 65d0 b6be d02f 8cbd
00000390: fec9 2abf cbdc d13d 248a 47bf 8845 2dbf
000003a0: 1000 903a 5a8a 01be a69f 30bf 2b67 b93e
000003b0: b492 4abe 58c8 46bc 8046 6abf 5da7 753d
000003c0: 80ae b63e 41ae e7be 3ef1 2c3e 82c7 763e
000003d0: 309b 923e 50c6 2dbf 96b0 8cbe 01f1 173d
000003e0: 460b 1abe b36c 10bf 2895 80bf bf77 0b3f
000003f0: c292 3bbe f7b6 72bf c3a7 0e3f 91a3 ddbe
-0.22340961 -0.14166474 -0.39797017 0.40551397 -0.09324532 0.09619609 -0.47076812 0.37688467
-0.20578267 -0.17418203 -0.057327338 -0.022970255 0.06446139 0.05649462 -0.7149745 0.15309206
-0.34053218 -0.24513586 -0.31584504 0.32157773 -0.74592495 -0.7537946 -0.027697936 0.22761005
-0.48011294 0.346939 0.19580266 0.40903187 -0.46507666 0.650322 -0.3556903 0.11010007
-1.0712738 -0.75568295 -1.0615208 -0.119898215 -0.73954946 0.38565445 -0.07275815 0.19287454
0.18980524 -0.025428427 -0.97663826 -0.4806432 -0.07638007 -0.49065474 -1.0284461 0.54195875
-0.7644845 -0.5727887 -0.34038007 -0.4040003 -0.8613224 -0.07873595 -0.4921937 0.41079363
-0.39691636 -0.54791605 0.116185986 -1.0399963 -0.43360463 -0.52967155 -0.45937493 -0.09227052
0.08106715 -0.16719383 0.1649563 -0.28365868 0.83826655 0.081276536 0.16608408 -0.10786589
0.31089067 -0.029907402 0.45228902 -0.32122877 -0.22102085 -0.49219626 -0.7377601 -1.0515609
0.40190408 -0.13795881 -0.00827149 -0.013533002 0.46962565 -0.4857028 -0.098438784 -0.6477503
-1.042974 -0.44290912 -0.75527394 0.1361796 -1.0901904 0.51335645 0.4056956 0.123301744
-0.7794131 -0.0012592582 -0.23859757 0.24894942 -0.3482965 0.2580462 -0.4231844 -0.7454804
0.267871 -0.8176291 -1.034489 0.13019678 -0.4308913 0.075829685 0.6699126 0.16267005
0.19728172 -0.13045286 0.3996736 -0.27605942 -0.56774455 -0.01603469 -0.28309405 0.04883171
-0.4515602 0.10582052 -0.9832837 0.37297997 0.08859658 -0.8558647 0.10819432 -0.77352566
0.47855774 -0.90823835 -0.7656545 -0.10358292 0.07749421 -0.18966724 0.95361245 0.1266615
0.051094662 -0.7241484 -0.46017006 0.109289445 -0.9877498 0.09944064 0.23915175 -0.17483497
-0.15687251 0.24195667 -1.0992913 -0.32397392 -0.047294658 0.32039467 -0.2670337 -0.72880906
-0.050662316 -0.8410215 -0.6595543 0.10691333 -0.5463493 -0.98271066 0.20296668 0.10313276
-0.22425377 -0.6899904 0.13639738 0.16112757 0.20423722 -0.3501825 -0.7699579 0.11192907
-0.5136846 0.110275336 -0.9928966 -0.98617643 -0.5009429 -0.04856833 0.25017983 -0.32877338
0.11711242 0.40481502 0.3220797 -0.20080167 -0.29517177 0.15424752 0.17644387 -0.71119773
-0.7723461 0.5257284 0.12303042 -0.2422897 0.9178057 -1.0514472 -0.79289645 0.50556415
-0.74460626 0.31097534 -0.08250895 -0.077924296 0.16913211 -1.101543 -0.64511156 -0.7875245
-0.56652784 0.17953655 -0.45001197 -0.20755629 -0.20451641 -0.0931722 -0.019760728 0.3655452
0.004319228 -0.19621922 -0.815576 -0.47473142 -0.33053938 -0.7263451 -1.0341123 -0.46023026
0.56866527 -0.5018988 -0.16572982 -0.25286585 -0.7423825 0.20248239 0.44643617 -0.2929344
-0.7152517 0.31734526 -0.35705867 -0.06845057 -0.66714466 0.10247191 -0.7794516 -0.6768422
0.0010986347 -0.12650433 -0.68993604 0.36211523 -0.19782525 -0.012132727 -0.91513824 0.059974063
0.35680008 -0.45250133 0.16888902 0.24099544 0.28634024 -0.67880726 -0.27478474 0.037095074
-0.15043363 -0.5641586 -1.0045519 0.54479593 -0.18317702 -0.9481043 0.55724734 -0.43288854

bias f4 [256]
00000000: ff87 01bf ee54 a23e f113 01bf f3b2 443f
00000010: e1b0 31be 287e 21be 66db 52bd f1f9 143f
00000020: 0f77 08bf 0eb5 80be 1c69 203f cc7a 66bd
00000030: 1f39 d3be 6ab7 91be 68db 473e 60a3 3b3f
00000040: 23a0 d63e e73d 2c3f 3cde 36be ebe3 6e3f
00000050: 01c7 463f 7992 703f 0618 a1be ec90 133e
00000060: a781 81be 6cff 413f 722b 6f3e a9d9 25be
00000070: 83aa 43be 0f03 963d c63f 943e 8286 f73e
00000080: be96 353f 13e3 a6bd 7431 863f b720 af3e
00000090: 7744 05bf 31e2 cebd ace0 3c3d 01b0 e4be
000000a0: 6dba 6a3f 5b9d 4bbc 0c81 253f d910 c73d
000000b0: fa57 ddbe 911b 803e f695 ebbe e0a2 c73e
000000c0: b3b3 d93d 4cf4 11bf a07b 7b3f 704e 1c3e
000000d0: 7944 6a3f 2e2c 8ebe 7751 8d3d 56d1 133f
000000e0: af0d 573f 5a40 393f 662a 05be ec07 d0bd
000000f0: 7f20 cabe 457c 0c3f 38bc 683f 6ebc fe3e
00000100: 18fd 023f bfdc 02be 23fa 553f 5368 a8be
00000110: f333 07bf 3776 d93e 56df f13e d02e 143f
00000120: 3c44 063c 5011 4c3f 9a3f cd3d 189d 85bd
00000130: aa43 7d3e 7528 033f 0fdf 5dbc 666c 413f
00000140: c2f1 c9be 0c3a 973e ba1f c7be 7c21 d63e
00000150: 6b68 5e3f a382 113f a1f9 603f bf69 0d3f
00000160: 3e6c b6be 88f5 d5bd efea be3e 9a14 7a3f
00000170: 3c38 f83e d25f cfbd b53c 0f3f d9e8 863f
00000180: 2923 7e3f cf52 9fbe 0f51 2f3f 6f9a 4d3f
00000190: 7f9a 02bd e1a7 743f 569d 283f d15a d2be
000001a0: 4f12 e23e a87a eb3e 6a06 1939 599c fa3e
000001b0: f18e 8b3e b30c 463f 4155 5c3e 36ec 00bf
000001c0: 283a 3dbe 33ab adbe 50a8 f2be 3aa1 b7be
000001d0: f0cd 8a3d bd01 5abe 4d71 1f3d 471f cd3d
000001e0: 5e1a d53e f847 5abe 3f32 543f 3cf1 9a3d
000001f0: 748e 13bf 832c 863f 6dbb b43d 4037 813f
00000200: 7b33 273f d4a7 213f a91c afbe dcd2 693f
00000210: 6c93 da3e c980 0b3f 0092 0e3f af3e 923d
00000220: 9393 02bf 898c 12bf da76 ccbe 44f2 82bc
00000230: 4489 473f 1615 0ebf 830a 063f a73f 6c3f
00000240: dcfc 99bc 1207 e43e 0611 723d 2915 323e
00000250: 5a61 5dbe 8ec6 ac3e 7205 853f a3e8 2f3f
00000260: 7ac0 593f 5fea 58be 9b2b 1a3f 2f29 a4be
00000270: f76d 903e 69ba 6e3f 1058 e9bd 7898 c7be
00000280: e46d 843e 5b33 07be 1d0a 583f b75e 15bf
00000290: 5703 b4be f114 663f 1361 f5bd 450e 573f
000002a0: 8f5a d0bd 28cd 2bbf e5a1 043f 30ea 57be
000002b0: 4102 65be 6dc8 6d3e 27a5 a63d f289 933c
000002c0: 4ce0 553f b4a1 8abe 6a64 3f3e 2edb 0fbe
000002d0: d811 a83e e1cc 363f be10 ff3d 6e73 7ebe
000002e0: 03e5 c0be d06a ebbe fb64 e73e e651 423f
000002f0: 942f 86bd bb9a 9fbe 135e f93e 0d2f 30bd
00000300: 101e 523f 2397 663f 56eb a23e 30b9 f83e
00000310: 16ae 94bd 6c32 123f a24e a63e 51c0 b13e
00000320: cd49 22bd 520f 333e c09e efbe 6fc6 013f
00000330: c309 3b3d 5363 28be 9074 ebbe 4f6f bdbe
00000340: 8472 833f 58b0 2b3f d1bd f1bc ce00 513f
00000350: bd9c 243f 324b 293f f7c1 22bf 14b9 743f
00000360: 7e93 0dbf 6b82 2e3f 00d1 edbd 54a0 85bd
00000370: 4419 6fba 8244 b9bc 593f 6c3f a434 483f
00000380: ee43 733e 6a2a bf3e 4359 f73d 1276 343f
00000390: 832c 1abf d7db 8c3e b638 f13e 5717 803e
000003a0: a898 6a3e 5219 2bbe d6dc 703c 49ae 0fbf
000003b0: a68e f83e b8dd 4b3f 502f bbbd 279e 143f
000003c0: 826d f63e a04d aabe fc35 9b3e 6aba f8bd
000003d0: e2a6 95be 784b c03e 1b8d 20bf 5818 853f
000003e0: 6c8a 463f b657 8bbe 54a7 913e e23e 2b3e
000003f0: ccf3 b3bd 8af6 6b3c d07c 083f 0701 16be
-0.5059814 0.3170542 -0.50421053 0.76835555 -0.1735263 -0.15770781 -0.051478766 0.5819388
-0.5330667 -0.25138134 0.62660384 -0.056269452 -0.41254517 -0.28460246 0.1951729 0.73296165
0.4191905 0.67281955 -0.17858213 0.93316525 0.77647406 0.939735 -0.3146364 0.14410752
-0.2529423 0.7578037 0.23356417 -0.16196312 -0.19108014 0.07324802 0.28954905 0.4834481
0.7093314 -0.0814878 1.0483842 0.34204647 -0.52057594 -0.10101736 0.0461127 -0.4466553
0.91690713 -0.012427653 0.64650035 0.0972001 -0.43231183 0.25021031 -0.4601285 0.3899145
0.10629978 -0.5701339 0.9823551 0.15264297 0.9151073 -0.2776808 0.06900304 0.57741296
0.84005255 0.7236382 -0.13004455 -0.10157761 -0.39477918 0.5487712 0.909122 0.49753135
0.5116744 -0.1277952 0.83584803 -0.32892093 -0.52813643 0.42473003 0.47240704 0.5788393
0.008194979 0.79713917 0.10021897 -0.06524104 0.24732843 0.5123361 -0.013541951 0.7555603
-0.3944226 0.29536474 -0.38891393 0.41822422 0.8687808 0.5683996 0.87880903 0.5523948
-0.35629457 -0.10447222 0.37288615 0.97687685 0.48480403 -0.10125698 0.55952007 1.053981
0.992724 -0.31117865 0.6848306 0.8031377 -0.03188562 0.9556866 0.65865076 -0.41084912
0.44154593 0.45992017 0.00014593606 0.4894741 0.27257493 0.7736313 0.21516897 -0.5036043
-0.18479216 -0.33919677 -0.47394037 -0.35865194 0.06777561 -0.21289726 0.03892641 0.10015731
0.4162168 -0.21316516 0.8288917 0.07565543 -0.5763924 1.0482334 0.08824811 1.0094986
0.6531293 0.6314671 -0.34201553 0.9133737 0.426906 0.54493386 0.5569153 0.07140862
-0.5100643 -0.5724569 -0.39934427 -0.015984662 0.77943826 -0.55500925 0.5235979 0.92284626
-0.01879733 0.44536644 0.059098266 0.17390884 -0.21619168 0.33745235 1.0392287 0.6871435
0.8505932 -0.21183155 0.60222787 -0.3206267 0.28208897 0.9325319 -0.1139375 -0.38983512
0.2586509 -0.13203184 0.8439043 -0.5834765 -0.35158798 0.89875704 -0.11981406 0.8400615
-0.10173523 -0.6710992 0.5180953 -0.21085429 -0.22364141 0.23220988 0.08136969 0.018010113
0.83545375 -0.27076495 0.18690649 -0.14048454 0.32826114 0.7140637 0.12454365 -0.2484872
-0.37674722 -0.4597993 0.4519423 0.7590622 -0.065520436 -0.31172737 0.48704585 -0.04301362
0.8207712 0.90074366 0.31820172 0.48578787 -0.07259767 0.5710819 0.32481867 0.34717038
-0.039621163 0.17486313 -0.46800804 0.5069341 0.045663606 -0.16444139 -0.45987368 -0.36998984
1.0269322 0.67065954 -0.029509457 0.8164185 0.64301664 0.66130364 -0.63577217 0.95594907
-0.5530318 0.6816775 -0.11612129 -0.06524721 -0.00091208913 -0.022615675 0.9228416 0.78205323
0.23756382 0.37337047 0.12077572 0.7049266 -0.6022417 0.27511474 0.4711358 0.25017807
0.22909796 -0.16708878 0.014701089 -0.56125313 0.48546332 0.7963519 -0.091398835 0.5805382
0.48130423 -0.33262348 0.30314624 -0.12144931 -0.29228884 0.37557578 -0.6271531 1.0398054
0.77554965 -0.27215356 0.28447974 0.16723207 -0.08786735 0.014402041 0.5331545 -0.1464883

weight f4 [256, 256]
00000000: f163 263d 28ee 133d 0daa 2d3d 2ecf b8bb
00000010: 7e20 b33c 932b 8b3d 1cb7 10bd 4190 fbbc
00000020: e352 cc3b 333e 57bc cd2b e8bc d41c 1b3d
00000030: 2c32 1c3d 47c1 82bd 7bb9 cdbc 4a21 7ebd
00000040: 455c 253d f204 3abd 3df3 2c3d 50ed 593d
00000050: 6796 123d 6779 02bc b2d4 c03b 791a e9bc
00000060: 467e 80bd 9bee 0d3c bb30 d0bb c916 edbb
00000070: 3427 df3c ab2e 4ebd 4498 1b3d bfc0 c33c
00000080: 12eb 02bd d753 48bd dcaa 2abc 490b f13b
00000090: 516f 6ebd d811 93bc c536 bebc 058f e83a
000000a0: fc1a 1d3b a3a4 0ebd 9b37 063d b5e5 abbc
000000b0: bacb 32bd 4378 58bd 4506 6b3c 2dab 3ebb
000000c0: c876 5d3d d762 923c 32cc 773d 41ee 3cbd
000000d0: cb4d 013c 2bce 023d 5310 dbbb 5108 623d
000000e0: be2d 0fba 8d8a ac3c 4198 293c 4c17 21bc
000000f0: 6d7a 6abc 8504 643d d331 8bbc 5b1c 563c
00000100: 3c01 5abd 20f9 103d b7ec 473c f3dc 08bd
00000110: bcd9 913c fb77 dabc aa92 35bc 0d9b 233d
00000120: 0ebf cf3a 1de1 fb3c 3b98 85bd 8335 c73c
00000130: 5655 4e3d b73b 98bb b70a 83bd 46b3 bc3c
00000140: 3010 5c3d 2aa5 34bc 7c6f 51bd 00eb 56bd
00000150: 31ac b43b 15ef abbb e635 87bc 656b 233a
00000160: 413f e3bc e1c1 ad3c 5832 583d 5597 2abd
00000170: 8c78 96bc d81a debc e1a2 6ebd 87a2 443d
00000180: 96bb bebb 953e 7ebc 207c 503d 399c fc3c
00000190: f949 f83c 87aa 8b3a 8c86 1cbd d305 8abd
000001a0: 3065 92bc 8581 3dbd 4c0f 1a3d 472d 8a3c
000001b0: 3060 57bd 76ee 4ebc 868b ccbb fa93 74bd
000001c0: b8c4 56bd c604 7ebd 0f6a 403d 4231 36bd
000001d0: 49bc 393c f744 8b3c f491 e1bb f974 f53b
000001e0: 5888 ab39 199c ef3c 6c3b 283c 2336 16bd
000001f0: 76ed 4a3d 0713 45bd 2f4a 0abd caf5 3e3d
00000200: 156e b4bc 0049 18bc 6b21 cb3c 6744 4f3d
00000210: 782e 55bd c02b 603d 3a99 303d 32ff 3b3d
00000220: 260c cf3c d532 a8bc fbb1 48bd 2142 62bd
00000230: 69df e3bb 683b dd3c 9351 8dbd e04c 5bbd
00000240: 2c43 153d 14fc adb9 8ce7 e9bc c9a9 21bd
00000250: bcc6 10bd 0c74 1d3d 9095 58bd 9f2a 0f3d
00000260: 0e30 79bd 6d86 a8bc b09e 173d 0538 2a3d
00000270: b0e9 d7bc 45ee 2ebd 16f7 72bd 8ea8 403d
00000280: e4ab 123d ec7b 573d 88a6 d43c 9e16 313d
00000290: 227f 8e3a 085b 123c 77c5 993c e916 213d
000002a0: 1f85 82bd ee61 c5bc dcbf 1abd 4d11 bbbc
000002b0: b71e 88bd 0902 bebc 7e98 f8bc 18cf 5abd
000002c0: e25f 753d d7ee 43bd 6314 4cbd cf09 0fbd
000002d0: 7580 66bd 3478 de3c ab63 41bd bfc0 83bd
000002e0: 633a 4ebd edd1 ea3c f995 633d a631 76bd
000002f0: 436f 0d3c 1f85 42bc 25b4 f3bc df1d ce3c
00000300: d3ff 0a3c 6dc4 e6bc 031f 11bc c781 d7bb
00000310: f281 3a3d 9fd8 8bbc 637b 583c 2340 0c3d
00000320: c2fe 333c 3c67 62ba 76e8 cfbb e1d7 a1bb
00000330: eead 303c e06d e2ba 8b2e 9abc 19d1 e23b
00000340: 030d 94bc 8340 41bd 1603 81bc 0a60 3f3d
00000350: b7cc c4bb 3f9b 033c e617 333d afae 0c3d
00000360: 5374 5b3c 486e 54bd a4db 223d 7cd8 25bd
00000370: 7517 6bbd 74a2 58bd 3fae 043d 7cd3 d1bc
00000380: cd52 6e3d 44db 2d3c 1aa0 3f3d 3a8b 43bc
00000390: 1fb1 43bd 6b78 09bd 7475 533c c6e4 7abd
000003a0: 5fa2 13bd 6c1d 6d3c a92c 6dbd 2f7c 8abd
000003b0: b047 593d 3925 62bd 10a8 573d e6ed b9bb
000003c0: c54b 2e3d 02b3 09bd d46c 56bd 283e a8bc
000003d0: 4fe1 c23c da1e 47bd 6715 42bd e962 25bb
000003e0: b696 b4bc a520 64bd c8b3 973c a2a3 4abc
000003f0: e40f 53bd bbee 813b e409 14bd 6370 85bd
0.040622655 0.036115795 0.0423985 -0.005639932 0.02186608 0.067954205 -0.035330877 -0.030708434
0.006235467 -0.013137388 -0.028341198 0.03786929 0.038133785 -0.06384521 -0.025112858 -0.062043466
0.0403712 -0.045414872 0.042224158 0.053204834 0.035787966 -0.007963515 0.0058847303 -0.028455006
-0.06274085 0.008662845 -0.0063534654 -0.007235382 0.027240373 -0.050337475 0.03798701 0.02389562
-0.03196246 -0.04890808 -0.010416713 0.0073560816 -0.05821163 -0.017952845 -0.023219476 0.0017742818
0.0023972383 -0.03482498 0.032767873 -0.020983556 -0.04365132 -0.052849066 0.0143447565 -0.0029093728
0.054068357 0.017869396 0.06049747 -0.046125654 0.007892082 0.0319349 -0.0066852956 0.055183712
-0.0005461833 0.02106216 0.010351242 -0.009832215 -0.014311415 0.055668373 -0.016991531 0.013068284
-0.053223833 0.035393834 0.012202433 -0.03341384 0.01780402 -0.02666854 -0.011082331 0.03994279
0.0015849785 0.03074699 -0.06523176 0.024317509 0.05037435 -0.0046457904 -0.06398528 0.023034703
0.053726375 -0.011025706 -0.05113171 -0.052470207 0.005513691 -0.0052470067 -0.016505193 0.00062339596
-0.027740123 0.021210613 0.052782387 -0.041648228 -0.018368028 -0.02711241 -0.058260802 0.04800656
-0.005820702 -0.01551785 0.050899625 0.030836212 0.03030871 0.001065568 -0.03821425 -0.06739392
-0.017870516 -0.046266098 0.037612244 0.016867293 -0.052581966 -0.012630096 -0.0062422184 -0.059711434
-0.0524337 -0.06201627 0.046976145 -0.04448057 0.011336395 0.017000658 -0.006883854 0.007490751
0.00032717246 0.029249238 0.0102680735 -0.036672723 0.049542867 -0.04811385 -0.033762153 0.04662112
-0.022025147 -0.009294748 0.024796208 0.050602343 -0.05204627 0.054729223 0.04311488 0.04589767
0.025274348 -0.020532051 -0.04899786 -0.055238847 -0.006954123 0.027005866 -0.06900325 -0.05354011
0.036441013 -0.00033184944 -0.028552793 -0.03946856 -0.035345778 0.03844075 -0.05287701 0.034952756
-0.060836844 -0.020571912 0.03701657 0.04155733 -0.026356548 -0.0427077 -0.05931767 0.047035746
0.03580846 0.052608415 0.025958315 0.04323446 0.0010871629 0.008932836 0.018770916 0.03932849
-0.06373047 -0.024094548 -0.037780628 -0.022835398 -0.066464834 -0.02319433 -0.030346151 -0.053420156
0.059905894 -0.047835197 -0.04982413 -0.034921464 -0.05627485 0.027156927 -0.04721419 -0.06433248
-0.05034865 0.028664554 0.055562947 -0.060105942 0.008632484 -0.011872559 -0.029748986 0.025160728
0.008483845 -0.028169835 -0.008857491 -0.00657675 0.04553408 -0.017071066 0.013213011 0.034240853
0.010986032 -0.0008636599 -0.00634485 -0.004939065 0.010783656 -0.0017275177 -0.018821022 0.006921899
-0.01807261 -0.047180664 -0.015748542 0.04672245 -0.006005849 0.008032619 0.043723963 0.03434628
0.013394433 -0.051862985 0.039760247 -0.04048966 -0.057395417 -0.052889302 0.032392737 -0.025613539
0.058184434 0.010611359 0.046783544 -0.01193505 -0.047776338 -0.033562105 0.012906421 -0.06125333
-0.03604352 0.014472347 -0.05790392 -0.067619674 0.053046882 -0.05521128 0.05265051 -0.0056741117
0.04255273 -0.03361798 -0.05234988 -0.02053745 0.023789076 -0.048613407 -0.047383692 -0.0025235957
-0.02204452 -0.055695195 0.018518344 -0.012368115 -0.051528826 0.0039652265 -0.036142245 -0.06515577

bias f4 [256]
00000000: 2f50 89bc 42eb 303d faa4 bc3e 02f3 36bd
00000010: f243 d63e be21 b8bc b795 89bd 4a70 35bd
00000020: 21c2 2ebd 5a42 66bd d0cb b73e 0391 b03e
00000030: cdd4 e73e 72a5 cb3e 5d43 cd3e b86a f93e
00000040: 0349 ca3e dca4 ab3c 1e47 043d fd87 d83e
00000050: 8730 173d 96da 3d3d fdf4 de3e d9c7 d53d
00000060: a6c0 f33c 4a6f 0a3d 132e 153c 0002 ca3e
00000070: a904 e43e ec28 50bc 7c06 d73e c1f2 c53e
00000080: 7150 d93e 12bc 72bd c038 bb3e 88df e63e
00000090: 6e8c e23e 764c 37bd c309 da3e 1717 cfbd
000000a0: eade 3a3d c070 61bc 23d5 083d 759f 65bd
000000b0: 3445 1abd f7af 0ebd 3716 183d b1ec 23bd
000000c0: a3ec fe3e b30d 5dbd b170 a73b 9c0c cb3e
000000d0: 8251 bc3e 918b e83e 64f1 d53c 15ee 67bd
000000e0: 8da3 d73e d976 803a 6683 383d 1c02 91bd
000000f0: 89a8 9ebd 1c8d dd3e 39d8 c53e 4bfe e83e
00000100: 4462 d33e 7764 4cbd 2792 c63c c66d 79bd
00000110: 6a24 3ebd a3aa 8dbd b12d f33e 6722 b53e
00000120: 2ecc f43e 0ae4 dc3e d01c d0bc af60 e03e
00000130: 130c 4abd 9c20 c33e 4563 28bd f12d ef3a
00000140: fa06 f83e c059 50bd 4bc7 4c3d 31a1 fa3c
00000150: 6df7 aabb 1ae1 89bc 1b7d c9bb b398 4abd
00000160: 6c48 51bd ac16 12bd ac0a cc3e 0029 e13e
00000170: eb1a 4abd 0d07 eb3b 3b6a f53e eced 5dbb
00000180: 0c66 d63e 740e 20bd c2f8 34bc 764e 7fbc
00000190: 9da4 f83e a63d bc3e d2bb 0d3d 4545 ad3c
000001a0: 6114 333c 0973 c93e 2dca b53e 57d8 e13e
000001b0: f724 f03e 6d0e 63bd ced7 8ebc f95e e53e
000001c0: b1c9 ba3e 747d 1a3d 6d25 03bd c5bc 303d
000001d0: a4f1 af3c f961 f43c 0e1d c23e 9055 52bc
000001e0: 27b2 443d b4a1 55bd 3cce ae3b c11b 6b3c
000001f0: 06ea cf3b e153 f73c 12ee b53c 8608 ad3e
00000200: 2161 b73e 6c9c 5cbd 92be 3f3c 2e4f c43e
00000210: 6754 84bd aac8 c5bc 06ca 0cbd 548b ef3e
00000220: cfaf 1dbd 4357 f03d ca1f b83c b50d de3e
00000230: 7521 a1bd da01 9dba 15cd e63e 0c49 b93e
00000240: 7f37 043d e7e2 183d f6f3 0bbd f597 e73e
00000250: 96de f03e 1f03 f33e 9c45 65bc 8ea6 78bd
00000260: c3a1 4fbd f78e 47bb 97d4 e63e f106 f13e
00000270: b029 9ebc 112a cf3e fbac b33e a4fe 58bd
00000280: 2eb5 4d3d 6ddd fe3e 5d31 f83e 01d2 fb3e
00000290: 65d5 523d ecd3 193d f0f6 c43e 05d9 f13e
000002a0: ab24 b23e 79ce fd3c 6075 a7bc 276a cb3e
000002b0: 6b5d 413d a097 cf3e 31a2 d03e 2630 70bc
000002c0: 1eeb f23e 69eb e1bc 5fc5 493c f444 de3e
000002d0: d89c fc3e f814 e13e 5e59 82bc 3fef ec3e
000002e0: bb91 44bd e35d 5fbc 3046 60bc 6fb2 423d
000002f0: f36b 5f3b 12c7 88bb cb48 c53e 7166 803c
00000300: 0854 68bb 6504 f23e 959c cd3e 3d35 a23c
00000310: e06b dabc dee6 b9bc fc02 21bd 584f 863e
00000320: 5c40 003d a626 c13e b7f3 4abd 1892 e33e
00000330: 13aa 113d 8980 ea3e c0b8 15bd f4ac 90bd
00000340: 25d8 edb6 48db f73e 7b01 1b3c 4015 e33e
00000350: a67b 323d 7a23 c53e 9497 ab3c 00e2 d73e
00000360: 7193 c73e 080c 823c 95bb 65bd ef2a c13e
00000370: a77f 42bd e507 25bd 43c9 c23e 725c 3abd
00000380: 04c4 b73e a76d 1ebc 6357 bd3e 5c6d 95bc
00000390: 9901 d73e fae9 873b af11 d43e 4cbd 053f
000003a0: 385a e63e eb8b c13e 935c c13e da43 453d
000003b0: 9bc0 84bd a70d e53e 4c92 d9bc 0a49 bb3e
000003c0: 3bb1 de3c 31ae a3bb c6cf 0a3d 60ca 9dbc
000003d0: b146 2ebd 157c e53e 6449 d33e 270b cb3e
000003e0: 2919 2abc 9989 e63e b820 cf3e 9ab8 e63e
000003f0: 7c1e cf3e 2cc8 eb3e 6f79 983c b87e fe3e
-0.016761867 0.04319311 0.36844617 -0.044665344 0.41848713 -0.022477027 -0.06718009 -0.04429654
-0.042665605 -0.05621562 0.35897684 0.34485635 0.45279542 0.39774662 0.40090457 0.48714232
0.3950883 0.020952635 0.032294385 0.4229125 0.036911514 0.046351038 0.43546286 0.104385085
0.029754948 0.03379754 0.009105223 0.3945465 0.44534805 -0.012705069 0.41997135 0.3866177
0.42444184 -0.05926139 0.36566734 0.45092416 0.44247764 -0.044750653 0.42585573 -0.10111826
0.045622744 -0.013759792 0.033406388 -0.056060273 -0.037663653 -0.034835782 0.03713056 -0.04002065
0.49789914 -0.053968143 0.0051098694 0.39658058 0.36780936 0.4541898 0.02611608 -0.056623537
0.42116967 0.0009801044 0.045047186 -0.070804805 -0.07746989 0.4327172 0.38641527 0.4550651
0.41285908 -0.0499005 0.024239613 -0.060895704 -0.046421446 -0.06917312 0.47495797 0.3537781
0.47812027 0.4314273 -0.025404364 0.43823764 -0.04932792 0.38110816 -0.041110296 0.0018247945
0.48442823 -0.050866842 0.049994748 0.03059444 -0.0052174837 -0.01683097 -0.006148947 -0.04946203
-0.051094458 -0.035666153 0.39851892 0.43976593 -0.049342077 0.0071724714 0.4793261 -0.0033863736
0.4187473 -0.039076284 -0.011045637 -0.015582671 0.4856309 0.36765784 0.034602948 0.021151194
0.010930152 0.39345577 0.3550581 0.44110367 0.46903202 -0.05543368 -0.017436888 0.4479902
0.36482003 0.037717298 -0.032018114 0.043148775 0.021477528 0.029831873 0.37912792 -0.0128377825
0.04802146 -0.052156165 0.0053346436 0.014349879 0.0063450364 0.030191364 0.022208247 0.33795565
0.3581629 -0.053860113 0.01170315 0.3834166 -0.06461411 -0.024143536 -0.034372352 0.46785986
-0.038497742 0.11735394 0.022476096 0.43369833 -0.078677095 -0.0011978701 0.4507834 0.36188543
0.032279488 0.037325766 -0.034168206 0.45233122 0.4704482 0.4746332 -0.013993647 -0.060705714
-0.050691377 -0.0030450204 0.45084068 0.47075608 -0.019306988 0.40461782 0.3509291 -0.05297722
0.050221615 0.4977831 0.4847516 0.49183658 0.05147304 0.03755562 0.38469648 0.47235885
0.347936 0.030982243 -0.020441711 0.39729425 0.04720823 0.40545368 0.40748742 -0.014659917
0.47445005 -0.027578073 0.012315123 0.43411982 0.49338412 0.4396131 -0.015911754 0.4627628
-0.047990542 -0.013633224 -0.013688609 0.04753345 0.0034091442 -0.0041741217 0.385321 0.015673848
-0.0035450477 0.47268978 0.40158525 0.019800777 -0.026662767 -0.022693094 -0.039309487 0.2623241
0.031311378 0.377248 -0.04954883 0.44447398 0.035562586 0.4580119 -0.036553144 -0.07064238
-7.088313e-06 0.48409486 0.009460802 0.4435215 0.04357495 0.3850363 0.020946302 0.42164612
0.38979676 0.015874878 -0.056087095 0.37728068 -0.04748502 -0.040290732 0.38044176 -0.04549832
0.35891736 -0.009669698 0.36980733 -0.018240623 0.41993406 0.004147765 0.41419742 0.5224197
0.44990706 0.3780206 0.3776594 0.04816041 -0.06482049 0.44736978 -0.026559018 0.36579162
0.02718412 -0.0049951305 0.033889554 -0.019261539 -0.042547885 0.4482123 0.4126693 0.39656946
-0.010381975 0.45026854 0.4045465 0.45062715 0.40452945 0.46051157 0.018612592 0.49706054

weight f4 [2, 256]
00000000: acd1 50bb f9dc acbb 5864 88be 947e 923b
00000010: 8650 e0bd 3b62 0e3b b3b0 863c f553 a3bb
00000020: 75f6 233a 796c 6c3c 6cab 98be 8ed2 4abe
00000030: 6080 8cbe 1f43 d0bd d0c5 8bbe f868 87be
00000040: 8edf 78be f7fe 85bb 2ccf 1fbb 966f 9bbe
00000050: 1c48 96bb e4d9 db3a 94a9 c2bd 074a aebc
00000060: 213d e7bb 6675 32bb 2cde d03a 82e8 e8be
00000070: e919 cfbe 87ce 05bc f103 66be 0292 b0be
00000080: 5e76 66be 7156 babc 8ecd a1bd 7ef6 99be
00000090: e99d c2bd bf24 c43b d1d7 b7be 3704 023b
000000a0: 2799 84bb c902 28bd 9be1 0bbc 1519 a53b
000000b0: e498 91bb 9570 feb8 cc3f 943a 7732 0cbc
000000c0: 16c8 b1be 20b6 173a b880 19bc 9c7c b3be
000000d0: f0bf c1be 7626 5fbe ccb1 1abc 6183 ad3b
000000e0: 2a0c b7be 78f6 d53b 5329 82bb 051f a43c
000000f0: 8129 c9bc dc46 93be 78c8 9dbe 467b 6fbe
00000100: 96fc 8bbe 9a1c be3b da98 babc 8b56 8b3a
00000110: 07c7 4039 5e48 b0bb abbc a7be 4ce3 b3be
00000120: bd4a 80be 3c94 a9be 6c33 61b9 05a0 9abe
00000130: 77d9 c53a 5ec1 b1be ddf0 af3b d1f5 e2bb
00000140: c1b6 98be 270c cf3a 404a 5d3a f2a4 30b9
00000150: e3ee 4bbb ed02 27bc b6a8 b139 c9bf ae3b
00000160: 05d9 3d39 3ac6 75bc 6078 b9be 550c c2be
00000170: 4500 6cba 3678 b73b 53d6 e4bd 69c9 af3c
00000180: ded5 f0be 0b2b 0c39 3764 8bb9 6e00 b6ba
00000190: 7cfa e3bd 99fc a7be 9c69 1fbc 3385 073b
000001a0: 9f5a 073c f0d8 5fbe 424f 93be de04 97be
000001b0: 95a8 b6bd 470d 07bc 87f6 8f3c 8ef9 dbbd
000001c0: 235d 9ebe 762b 30bc e218 84b9 4612 423b
000001d0: 06aa 303b 88b3 56bb 5541 d6bd 46b2 f83b
000001e0: f4a1 56ba e950 28bc 65e1 e03b 20c4 1dbc
000001f0: c485 9c3c d9b5 32ba 93e0 8abb 0cee 88bd
00000200: 304e a0be 0ef1 36bc dba9 cd3b 24dc a2be
00000210: 5a71 b33b bf91 0fbc 940e 14ba fafe a8be
00000220: 4f9d 9e38 30cf 99be 6233 f2b9 4b7a 30be
00000230: 97ee 9bbb 93c0 b9bc c77a a9be 1a7d a8be
00000240: c23f 3e3a 4574 21bc 72cb b43b 9482 72be
00000250: 92a4 babe bc7b 83be ab13 c6b8 b178 2ebc
00000260: aba5 8fbc 046c 59ba 4efa 6bbe 946d 79be
00000270: 9a65 4fba 2b94 4ebe 69c4 ffbd 164a baba
00000280: 4224 b43b bd67 d6bd 2b60 d9bd e0f0 c9bd
00000290: 2438 613a be22 3cbc eb7d 98bd 743f 9ebe
000002a0: 70cb 21be 51f5 a0bc 9e56 b7bb 529d 2abe
000002b0: 8847 e839 e926 d2be dde4 86be b555 2abc
000002c0: 40c2 b7bd 2ce8 9fbc 79d0 ac3b 686f 93be
000002d0: 33e1 f5be 9b86 d6be 47ab 0ebc 5c86 b4be
000002e0: b657 f2bb 2d72 a2bb 0d0c b0bc 7d80 23bc
000002f0: 2925 68ba 9486 59ba 4870 54be 4e34 f1b9
00000300: 6b57 423b 0510 f4bd 5923 a6be 1312 09bc
00000310: 2f62 86b9 9116 29bc 9570 a53b 8b86 85bd
00000320: 2c13 dd3b 3740 8ebe 4252 fd3c 83ab 57be
00000330: ccf0 1cbc d04a a2be cdb6 6eba 7891 513b
00000340: 8713 47bc 8dbe aebd 5c78 e83a aa02 d3be
00000350: b0fa 50bc 5496 9fbe 51ab e43c 8c86 9ebe
00000360: e3a7 88be f779 173a 7c2b 143a 1499 9fbe
00000370: 8b1c 043b f30d c5bc 936c a0be f34b 03bc
00000380: b6dc d9be 0191 a5b9 cb93 85be be00 31ba
00000390: b1c5 97be d557 3f3a b1e1 d3be 5754 97be
000003a0: 08bf a6be bf7b c2be 1e18 b4bd 8d58 2c3a
000003b0: eadc b23b 28fd a2bd caf4 3abc c173 d2be
000003c0: 2a8b 70bb f613 b63b 36bc 4d3b ac51 1dbc
000003d0: e01b 9fbb ae36 a6be 97bc c9be bba5 5fbe
000003e0: 15f0 6fba edb3 93be 28e4 81be f1a5 a5be
000003f0: 7bd3 7dbe 5a4e c7bd 799c e4bb 3c0a a9be
-0.0031863255 -0.0052753654 -0.26639056 0.0044706557 -0.109528586 0.002172603 0.016441679 -0.0049843737
0.00062546815 0.014430159 -0.29818285 -0.19806883 -0.27441692 -0.10169052 -0.27299356 -0.26447272
-0.2430403 -0.004089232 -0.0024384959 -0.3035857 -0.004586233 0.001677331 -0.09505001 -0.021275533
-0.0070568477 -0.002723062 0.0015935353 -0.4548989 -0.40449455 -0.008166916 -0.22462441 -0.34486395
-0.22506091 -0.022746297 -0.079005346 -0.3007087 -0.09502775 0.005985826 -0.35906842 0.0019838938
-0.0040465775 -0.04101828 -0.008537675 0.0050383904 -0.004443275 -0.00012132634 0.0011310517 -0.008556954
-0.34722966 0.00057873316 -0.009369068 -0.35056007 -0.3784175 -0.21792015 -0.009441804 0.0052952026
-0.35751468 0.0065296255 -0.0039722114 0.020034323 -0.024555923 -0.28765 -0.30817008 -0.23386869
-0.27341145 0.0058017494 -0.022777963 0.001063065 0.0001838469 -0.0053797206 -0.3276113 -0.3513435
-0.2505702 -0.33120906 -0.00021476828 -0.3020021 0.0015094717 -0.3471784 0.0053692893 -0.0069262763
-0.2982693 0.0015796468 0.0008441545 -0.00016846115 -0.003111773 -0.010193569 0.0003388577 0.005332921
0.0001810529 -0.015000874 -0.3622465 -0.37900034 -0.0009002726 0.005599047 -0.111736916 0.021458345
-0.47038168 0.00013367475 -0.00026586812 -0.0013885626 -0.111317605 -0.32809904 -0.009729769 0.0020678758
0.008261352 -0.21860099 -0.28771406 -0.294959 -0.08918873 -0.008242912 0.017573608 -0.10740958
-0.30930433 -0.010752549 -0.0002519554 0.0029612943 0.002695681 -0.0032760818 -0.1046168 0.007589611
-0.0008187585 -0.010273197 0.0068628066 -0.009629279 0.019106753 -0.00068172585 -0.004238197 -0.06686029
-0.31309652 -0.01116587 0.006276352 -0.3180858 0.005476159 -0.008762776 -0.0005647924 -0.33007032
7.563328e-05 -0.30040884 -0.0004619612 -0.17234151 -0.0047586667 -0.022674834 -0.33101484 -0.32907945
0.00072574255 -0.009854381 0.0055174166 -0.23682624 -0.36453682 -0.2568034 -9.445039e-05 -0.010648892
-0.017535051 -0.00082939886 -0.23044702 -0.24358207 -0.0007911563 -0.20173709 -0.12488634 -0.0014212753
0.0054974863 -0.10469005 -0.10614046 -0.098603964 0.00085914345 -0.011482893 -0.07445892 -0.30907786
-0.15800261 -0.019648226 -0.0055950424 -0.16661575 0.00044303783 -0.4104531 -0.26346484 -0.010396411
-0.08972597 -0.019519888 0.0052738753 -0.28795934 -0.48023376 -0.4189957 -0.008707828 -0.35258758
-0.00739571 -0.0049574585 -0.021490121 -0.009979364 -0.0008855635 -0.0008297947 -0.20745957 -0.00046006072
0.0029654156 -0.11917118 -0.32448843 -0.008366126 -0.00025631624 -0.010320322 0.005048821 -0.06519803
0.00674667 -0.27783367 0.030923013 -0.2106152 -0.009578895 -0.31697702 -0.0009106219 0.0031977575
-0.012150652 -0.085324384 0.0017736065 -0.4121297 -0.012755081 -0.3116938 0.027913721 -0.30962026
-0.26690587 0.0005778367 0.00056522316 -0.31171477 0.0020158614 -0.024054503 -0.31332836 -0.008013713
-0.42551202 -0.0003157929 -0.2608932 -0.0006752125 -0.29643014 0.000729916 -0.41383126 -0.29556534
-0.3256762 -0.37985036 -0.087936625 0.00065744744 0.005458464 -0.07958442 -0.011410901 -0.41103938
-0.0036704042 0.0055565787 0.00313927 -0.009601992 -0.004855618 -0.32463592 -0.39401695 -0.21840565
-0.00091529015 -0.2884821 -0.25369382 -0.32353166 -0.24787705 -0.09731741 -0.006976661 -0.3301562

bias f4 [2]
00000000: cc8c c0be 3bc0 c7be
-0.3760742 -0.39013848
