Intelligent car/model_weight/target_value_net_para3.pkl (torch_old, 274091 bytes, 6 tensors)

weight f4 [256, 3]
000000 7f 45 1d 3e 16 e3 fa 3e 94 05 c3 3e 9d b8 d7 3e
       0.15358542 0.49001378 0.38090193 0.42133036
000010 80 27 d3 be 74 e6 0f 3f 73 47 f7 3e 97 c0 f0 3e
       -0.41241074 0.5621102 0.482967 0.47021934
000020 33 a3 09 bf 6b dc 04 3f 11 ba 26 bf 68 89 60 bf
       -0.5376465 0.5189883 -0.65127665 -0.87709665
000030 7f ca 12 3d 8a 6e be 3e 37 c6 ac be c7 15 b4 be
       0.035837647 0.3719371 -0.33744976 -0.35172865
000040 9a bd 00 3e a9 4e 5f 3e 83 62 59 bf 15 2b 2e bf
       0.12572327 0.2180735 -0.8491594 -0.6803449
000050 df 72 04 3e 6a 80 02 3d ac ac 1f bd 02 91 6b 3f
       0.12934445 0.031860746 -0.038983032 0.9201814
000060 dd 83 2a bf c0 91 89 bf a1 ac 63 be 07 d9 87 bf
       -0.6660746 -1.0747604 -0.22233821 -1.0613106
000070 98 e2 63 bf 76 e2 77 be 52 2f 5d bd 67 f6 67 bf
       -0.8901763 -0.24207482 -0.054000206 -0.90610355
000080 19 e7 ef be 66 7f 62 bf 21 9b 8d bf 66 ce f8 be
       -0.46856 -0.88475645 -1.1062967 -0.4859497
000090 2b 58 ca 3e ab 23 38 be 9b 7a 80 bf 9e 1d 33 bf
       0.39520392 -0.17982356 -1.0037416 -0.6996707
0000a0 26 01 8b bf e3 61 96 3e fe c1 ac be 52 3f 13 3e
       -1.0859725 0.29371557 -0.33741754 0.14379624
0000b0 9b 77 58 3f 81 55 53 bd b1 8a 6e 3e 0d 67 48 bf
       0.84557503 -0.051595215 0.23295094 -0.78282243
0000c0 8b 7f 29 bf ef 6e 3b bf f0 59 d7 3e bd ce 94 bf
       -0.6621024 -0.73216146 0.42060804 -1.1625592
0000d0 4a 14 6b bf 57 c9 83 3e c1 3d d0 3c d8 f0 26 be
       -0.91827834 0.25739548 0.025420072 -0.16302812
0000e0 a5 68 97 3f 53 6b 45 3d 27 c3 58 be e5 cf b9 3f
       1.182881 0.048198055 -0.21168195 1.4516569
0000f0 60 04 5c 3e 19 8b 90 3e 88 9a 7a bf 41 ce 32 bf
       0.21486044 0.28231123 -0.97892046 -0.6984597
000100 de 3c 32 bf 03 2e c2 3c db e6 cf be e0 f3 a0 3d
       -0.69624126 0.02370358 -0.40605816 0.078590155
000110 54 18 30 bf f2 11 9f 3e 93 a7 8f 3e db a8 0b 3f
       -0.6878712 0.3106838 0.28057536 0.5455453
000120 f9 9f 03 be 17 50 b2 3e 18 78 27 bf 08 9b 18 bd
       -0.12853993 0.3482673 -0.65417624 -0.037257224
000130 ee 53 3f be c8 73 d1 be bc f9 38 bf f2 b5 3a bf
       -0.1868436 -0.40908647 -0.72256064 -0.72933877
000140 cd ac b8 3d 18 90 83 bd 6d 2a 22 3e ec 9c 9e be
       0.09017334 -0.06423968 0.15836497 -0.30979097
000150 b4 c2 c9 3e d2 f0 b9 be 7c c3 b0 3e d6 99 4f bf
       0.3940636 -0.36316544 0.34524143 -0.8109411
000160 c0 8e f7 3d 2c b5 87 3d ba d0 38 bf 1b 3e 3c 3e
       0.12087774 0.06626353 -0.7219349 0.18383066
000170 f5 81 e9 be 2d 96 81 bf 0a db 2f bf 37 1e 86 be
       -0.45606962 -1.0123955 -0.686936 -0.26194927
000180 db 5f b8 ba d7 ef 8d 3e fc e7 15 3f 00 77 ff 3b
       -0.0014066653 0.27722046 0.58557105 0.0077961683
000190 ee d1 1f bf 4b be 81 be 4a 66 9a 3e 4d 42 ee 3e
       -0.624297 -0.25340495 0.30156165 0.46534958
0001a0 76 65 30 be 45 18 fe bc 23 48 12 3e 8e de 50 3f
       -0.17226204 -0.031017432 0.1428533 0.8158959
0001b0 79 08 21 3e 68 eb c7 be 02 65 69 be 8b 47 e8 3c
       0.15725888 -0.39046788 -0.22792438 0.028354427
0001c0 78 03 c0 3d 88 ee 81 bf b6 ef 27 bf 02 d2 e0 3e
       0.093756616 -1.0150919 -0.65600145 0.43910223
0001d0 98 ef a0 3e b6 05 86 bf df 73 e6 3d 5d 19 a7 bd
       0.31432796 -1.0470493 0.112525694 -0.081591345
0001e0 cc 8d 09 3f ed 2b f5 be c2 be e0 3e b1 f1 0f bf
       0.5373199 -0.47885075 0.43895537 -0.56228167
0001f0 4f 60 3a bf 20 18 10 bf 55 c4 33 3e a0 df d8 bc
       -0.72803205 -0.5628681 0.17555363 -0.02647382
000200 d5 dc d1 bd f3 7e dc be 0f 97 97 3e e2 b7 08 3e
       -0.102471985 -0.43065605 0.29607436 0.13351396
000210 5e 00 84 bf f0 0c 81 bf 17 87 cd be ac 2b c2 bd
       -1.0312612 -1.0082073 -0.40142128 -0.09480986
000220 ed 47 85 3e 3c 4b 1e bf 38 a8 47 bf 9a a6 22 3e
       0.26031438 -0.6183355 -0.77991056 0.15883866
000230 fc 69 94 bd 3f 86 7b bf d1 c9 98 bf d0 48 d1 3e
       -0.072467774 -0.9825172 -1.193659 0.40875864
000240 1c 7f aa be c7 cd f5 3d 9e fb 56 3e 8c d3 14 3e
       -0.33300102 0.120021395 0.20994422 0.14533824
000250 e2 e9 df 3e ff 12 ce 3c 49 72 a8 be 9d 6b cb 3e
       0.43733126 0.025155542 -0.32899693 0.3973054
000260 bc a5 31 3e b9 cf 0c bf 95 fc 77 bf 54 75 9f be
       0.17348379 -0.5500446 -0.96869785 -0.31144202
000270 dc be 87 3e 8a 6d 94 3c 98 80 87 bf 6b ed 1a 3b
       0.26512802 0.018118639 -1.0586119 0.0023640047
000280 4b 1f 36 bf a3 96 88 be cd 0d 90 bf 48 a6 2a 3e
       -0.711415 -0.26677427 -1.1254212 0.16664994
000290 de bf f8 be 2b a4 17 bf 8e 89 db 3e 67 4e ee 3c
       -0.48583883 -0.59234875 0.42878383 0.02909012
0002a0 27 7f 8c bf 58 43 82 bf 10 19 9a be bd e7 70 be
       -1.0976304 -1.0176802 -0.30097246 -0.23525901
0002b0 4c 91 85 3e 71 cd f6 3e 7a a3 6d 3d 58 8b a1 3d
       0.26087415 0.48203614 0.05801723 0.07887906
0002c0 83 6d 30 bf 24 10 f0 3b 9e e6 b3 be fe 57 80 be
       -0.689171 0.007326143 -0.35136884 -0.25067133
0002d0 1b 5d fc 3d 81 ad db 3d 21 b1 27 bf 0a b3 1f bf
       0.12322446 0.107264526 -0.6550465 -0.62382567
0002e0 52 01 6c 3e 85 0e c1 3e f2 1e 06 bf 47 1f 90 3d
       0.23047379 0.3770639 -0.5239097 0.07037216
0002f0 9a d6 9d be 4b 63 0a bf 8c 76 01 3f b1 9b 3a bf
       -0.3082779 -0.5405776 0.50571513 -0.72893816
000300 50 ac 37 bf 12 d0 ee 3e cb f2 f6 3e 65 99 95 bf
       -0.71747303 0.4664312 0.4823211 -1.1687437
000310 75 ab 74 bf fa 6a 3f 3e 5f cf 4f bf 2b c2 94 bf
       -0.9557412 0.18693152 -0.811758 -1.1621755
000320 72 69 bc 3e 67 bf 4a bf f2 30 82 bf 27 a2 cf be
       0.36799198 -0.79198307 -1.0171187 -0.405534
000330 69 6e 3d 3d 5f 67 aa 3c 42 9a d3 be 00 69 63 bf
       0.046247873 0.020801244 -0.41328627 -0.8883209
000340 c2 38 1a 3e 5f f8 11 be 39 58 71 bf af 71 2c bf
       0.15060714 -0.14254902 -0.9427524 -0.6736097
000350 2f 24 c8 be b2 23 34 bf 0d c7 5e be 23 48 d3 bd
       -0.39090106 -0.70366967 -0.2175562 -0.10316493
000360 45 2c d3 3e 11 7f 28 3e 0c 60 48 bf d9 91 9c bc
       0.41244712 0.16454722 -0.78271556 -0.019112514
000370 1e 93 bb 3d 3b 47 d6 3e 5c 95 d3 be 17 c6 83 3e
       0.0915892 0.4185122 -0.4132489 0.25737068
000380 e5 03 b8 3e 73 fb 53 bf 50 fd 0a 3e dc b2 d3 ba
       0.3594047 -0.82805556 0.13573194 -0.0016151327
000390 7d 90 d8 3d fb 59 9c 3d 36 86 61 bf 7a 21 76 bf
       0.10574434 0.0763435 -0.88095415 -0.9614483
0003a0 9e db 54 bf d2 45 f7 3e 24 c0 6f 3c c3 49 d2 3e
       -0.8314761 0.48295456 0.014633212 0.410719
0003b0 8b 20 50 be af 66 09 bf 4a 7d 76 3e a1 a3 da 3c
       -0.20324914 -0.5367231 0.24071231 0.026689352
0003c0 4a f6 97 bf 45 09 89 bf 98 a3 5b 3d c9 97 bd bd
       -1.1872036 -1.0705954 0.053622812 -0.09257466
0003d0 0a da b3 be de b2 b1 3e 32 85 2c 3e 7f 07 b3 3e
       -0.35127288 0.34706777 0.16847685 0.34966657
0003e0 75 2e cd be b3 a7 17 bf 4a d7 4e bf 9e 99 80 be
       -0.40074506 -0.59240264 -0.80797255 -0.251172
0003f0 38 6c 9e 3e 49 55 22 bc ba ca 7e bf 4f 1e 9e 3e
       0.3094194 -0.009908029 -0.99528086 0.308825

bias f4 [256]
000000 1a 38 21 3f 6c 4d 05 3d 02 97 c2 3e 22 7f e4 be
       0.6297623 0.03254454 0.38005835 -0.44628245
000010 8a 64 bd bd 52 d6 89 be e1 e8 08 3f 59 68 de 3e
       -0.09247692 -0.26921326 0.53480345 0.43438986
000020 ce 17 f3 3e 42 d2 02 3e 54 55 6c 3f 01 27 43 3f
       0.474791 0.1277552 0.923177 0.7623139
000030 e8 d4 cc 3d 53 1c 3d 3f 9a d4 8a 3f bf 2f 75 bf
       0.10001546 0.73871344 1.0846131 -0.9577598
000040 ef 3a 1d 3f 50 9a 8a 3f 77 28 af 3f 9e 6b 22 3f
       0.6141805 1.0828342 1.3684224 0.6344546
000050 b5 b8 6d be f1 97 3e 3f 66 ef 83 3f dc b4 2a 3f
       -0.23214991 0.74450594 1.0307434 0.6668222
000060 03 68 24 3e d3 d6 95 be 23 86 81 3f 52 05 73 bf
       0.16055302 -0.2926546 1.011906 -0.94929993
000070 ee 43 8f 3f 1c 1d 91 3f 62 5b 20 3f ef c9 e2 3e
       1.1192605 1.1337008 0.6263944 0.44294688
000080 a1 39 f9 3e b6 25 11 3f 2c 41 8b be 3a ef 89 3f
       0.4867678 0.5669817 -0.2719816 1.0776131
000090 ea b7 19 3f 52 ac 81 3f a1 4b 11 3f 96 8f 83 3e
       0.60046256 1.0130713 0.56756026 0.25695485
0000a0 3a 9a 52 3f a0 8e 66 3f 36 39 90 3e e0 78 9b bd
       0.8226658 0.9006138 0.28168648 -0.075914145
0000b0 7b 5e c5 3d 97 a4 88 bf 68 2c 22 bf 72 2f 2f 3f
       0.09637161 -1.0675229 -0.6334901 0.6843177
0000c0 2b d4 04 bf eb 71 25 3f 06 3a ba 3e bc bd 83 3f
       -0.5188624 0.6462695 0.36372393 1.0292277
0000d0 f0 5a 9c bf f0 dc ee 3e 58 c6 53 3f 4c d1 ca bd
       -1.2215252 0.46652937 0.82724524 -0.099032015
0000e0 53 65 ad 3e e1 2b 9f 3d 9f 53 9e bf 38 f3 89 3f
       0.33866367 0.07772041 -1.2369269 1.077735
0000f0 9a 56 01 bf cc 65 ef be 32 7a be be bf f8 0d bf
       -0.5052277 -0.46757352 -0.37202603 -0.5545768
000100 de 0c 85 be 6e 84 24 3f 3f 95 8e 3f 95 5d 52 3f
       -0.2598638 0.6426457 1.1139296 0.82174045
000110 51 23 79 bf c2 2c 19 3f 51 d5 50 3f e8 5b 31 3f
       -0.97319514 0.5983392 0.81575495 0.6928086
000120 62 56 80 be ee 0f 90 3f ed 6e ba bc a6 57 8d 3f
       -0.25065905 1.1254861 -0.022757972 1.1042373
000130 e4 d5 b2 3c 07 50 89 3e 81 ad 13 3e ed 86 aa be
       0.021830507 0.2681887 0.14421655 -0.33306065
000140 18 3c 8f 3f 05 83 ea be 87 69 ec 3e a8 6b 67 3f
       1.1190214 -0.45803085 0.4617426 0.90398645
000150 9b 50 93 bf 92 9b 01 bf 60 91 86 3f eb 14 6e 3f
       -1.1508974 -0.50628006 1.0513115 0.9300067
000160 66 e6 6e 3f b3 56 3d 3e 9d ff 33 3f f9 85 3f 3e
       0.9332031 0.18490104 0.7031191 0.1870345
000170 9d 70 d7 3d dc 82 1e be c6 3b f9 be be f5 77 3f
       0.10519526 -0.15479606 -0.48678416 0.9685935
000180 0e c9 68 bc 52 51 8a 3f f0 ee a3 3e bb 24 43 3f
       -0.014208091 1.0806067 0.32018232 0.7622792
000190 ad f3 04 3f c5 28 71 3f f0 fe b1 3c b3 15 87 3f
       0.5193432 0.94202834 0.021728009 1.0553497
0001a0 d5 86 51 3f fa 7c 8a 3e aa 2e ef 3e 87 00 14 3f
       0.8184636 0.27048475 0.4671529 0.57813305
0001b0 55 f4 be 3e 30 5e b2 3d da 36 89 3f 43 39 c8 bc
       0.37295786 0.08709371 1.0719864 -0.024441367
0001c0 ba 20 75 3f ab 3b 01 be fb 48 c3 be a4 c7 8a 3f
       0.9575306 -0.12620418 -0.38141617 1.0842175
0001d0 cf 0a 4e be eb bd af 3e d5 02 27 3e 3c 1d 0f 3f
       -0.2012131 0.34324583 0.16309674 0.55903983
0001e0 b9 4e 4a 3f 01 7d 47 bf 70 dc bd be 34 b6 d0 3e
       0.7902637 -0.77925116 -0.37082243 0.4076401
0001f0 42 f3 e0 3e ff 5a 19 3f 7d f0 28 bd a5 d7 3a 3f
       0.4393559 0.59904474 -0.041244972 0.729853
000200 0c cc 51 3f b8 1a 3b 3e 54 d2 5a 3f 3d 7b 8a 3e
       0.81951976 0.18271911 0.85477185 0.27047148
000210 11 a3 93 3f 06 89 06 3f e2 08 5f 3f 98 09 77 3e
       1.1534139 0.5255283 0.8712293 0.24124753
000220 d8 e2 4d bf 62 10 d9 bd b0 19 2f 3f 64 bf 08 bf
       -0.8042426 -0.10598828 0.6839857 -0.5341704
000230 01 47 96 3f d8 41 8f 3f 4a 53 4d 3f fe fe 61 3f
       1.1740419 1.1191969 0.80205214 0.8827971
000240 ae 8b 29 3f a0 5e 23 3f c0 94 06 3f b5 15 36 3f
       0.6622876 0.6381626 0.52570724 0.7112687
000250 84 fc bb be b9 98 e0 3e 20 04 be 3d c7 8f 4e bf
       -0.36716092 0.43866518 0.092781305 -0.80688137
000260 a9 7e 85 3e c9 d2 f0 3e 2d 0c 5a 3f c0 6f 3e 3f
       0.26073197 0.47035816 0.8517483 0.74389267
000270 69 14 df 3e 25 09 3b 3f fb 19 90 3f 9f 9b f0 be
       0.4357026 0.7306083 1.1257929 -0.4699373
000280 65 4d be be 34 d7 66 3d b4 74 59 3f 68 2f 06 3f
       -0.37168422 0.056357577 0.849437 0.52416086
000290 2e 0b 3b 3f 01 2b 85 3d da 45 c9 be f3 19 39 3f
       0.73063934 0.06502343 -0.39311105 0.7230522
0002a0 e8 7b 1e 3f e4 39 aa 3e fa 59 d0 be 02 fc 62 3f
       0.61907816 0.33247292 -0.40693647 0.88665783
0002b0 50 e8 17 3f 5c 0e 13 bf f4 f2 06 3e b8 cc e4 3e
       0.59338856 -0.57443786 0.13178617 0.44687438
0002c0 1d 4f 59 3e 91 50 09 3f 72 69 78 bf ec 0c dc 3e
       0.21221586 0.5363856 -0.97035897 0.4297861
0002d0 9e 1a a3 3e d1 ef a0 be 07 c2 66 3f 90 81 12 3f
       0.31856245 -0.31432965 0.9013981 0.57228947
0002e0 43 f5 08 3c d3 f9 56 3f 8d 56 16 3f 55 ee 99 be
       0.008359256 0.8397495 0.58725816 -0.30064645
0002f0 20 24 16 3f 9c a9 69 3f 85 af ed be 30 7b e1 be
       0.5864887 0.9127443 -0.46422973 -0.44039297
000300 1f e8 bc bc 7f 43 eb 3e de 86 34 3f ee 66 c1 3e
       -0.023059903 0.45949933 0.7051829 0.37773842
000310 35 39 c5 be 54 aa 8f 3f d4 48 6d 3f ff ba 05 bf
       -0.38520208 1.1223855 0.9268925 -0.5223846
000320 9f 07 29 3e 95 b2 00 3f 71 cb 4f 3f 12 88 f1 3d
       0.16506813 0.50272495 0.811698 0.117935315
000330 0b 98 92 3f 23 4d 64 3f b3 b5 81 3f f3 86 89 3e
       1.145265 0.891802 1.0133575 0.2686077
000340 bb ad 05 3f 80 f6 9a be 0b ee 78 3f c0 53 07 3f
       0.52218217 -0.3026619 0.97238225 0.5286217
000350 e9 07 05 3f 66 c8 b9 be 22 6b 8d 3f 4a aa 6e 3f
       0.51965195 -0.36285704 1.1048319 0.9322859
000360 72 2e f1 be fe 30 63 3f 99 2a 95 bf 6f 93 2b 3f
       -0.47105747 0.8874663 -1.1653625 0.6702184
000370 35 7c 16 bf a4 67 05 3f ff 28 70 3f e0 e5 2e 3f
       -0.58783275 0.5211127 0.93812555 0.6831951
000380 29 dc 46 3f ab b0 95 3f cd d9 0b 3f 10 e9 82 3f
       0.7767969 1.169454 0.5462921 1.0227375
000390 0d 0e dd 3c d7 17 12 3f 76 bb 33 bf 81 b6 c8 3e
       0.026984239 0.57067627 -0.7020792 0.3920174
0003a0 53 5e 4f bf 24 79 ff be f0 47 1f 3e 7d 72 10 3f
       -0.810033 -0.4989711 0.15554786 0.56424695
0003b0 76 57 a5 bd 68 32 a1 3e b4 d5 29 3e cb 06 e3 bd
       -0.080733225 0.3148377 0.16585428 -0.1108528
0003c0 a8 6c 7d be 78 7f f8 3e fd 5d 92 3f 22 25 b3 be
       -0.2474848 0.4853475 1.1434933 -0.34989268
0003d0 e0 aa 79 bf ef b0 83 3e 14 ee 01 3f 2c a6 19 3f
       -0.9752636 0.25720927 0.50753903 0.60019183
0003e0 f6 54 00 3f 32 83 63 3f 3a c6 6a be d5 53 ef be
       0.5012964 0.88872063 -0.2292718 -0.46743646
0003f0 a1 a4 00 3f 1d 4e 13 3f 63 a0 cd bd 71 73 7a 3f
       0.50251204 0.57541066 -0.10040357 0.978324

weight f4 [256, 256]
000000 f4 7f 67 bc 6b c6 cb bc d5 28 4f bd fc 0e 1f bd
       -0.0141296275 -0.024874886 -0.05057605 -0.03883265
000010 ee 19 0d bd 9e 75 b6 3b 8b c4 22 3f 1e 14 80 bc
       -0.034448557 0.0055682203 0.6358115 -0.015634593
000020 14 4b 37 3f d0 48 2f 3f 7d 46 fb 3e d5 f6 15 3f
       0.71598935 0.6847048 0.49077216 0.5857976
000030 b8 1f 65 bc 83 31 28 3f 61 d1 d1 3d 69 87 21 bc
       -0.013984613 0.6570055 0.10245014 -0.009858944
000040 ba 6b 32 3f 33 14 28 3f 5b 5e 05 3e 19 50 b7 bc
       0.6969563 0.6565582 0.13024275 -0.02237706
000050 a1 e7 ae bc 33 b6 1d 3f 74 a8 32 3e 88 0b a7 bd
       -0.021350684 0.6160614 0.17447072 -0.08156496
000060 78 dd 95 bd 84 56 e7 3c 07 2f 29 3f 32 fc 08 3d
       -0.073176324 0.028239496 0.66087383 0.033443637
000070 47 ac 45 3e 43 b1 76 3e d2 88 e0 3d f0 3b 1b 3f
       0.19304 0.24091057 0.109635964 0.6063833
000080 2c e7 59 bb a7 76 96 3e 6e da 0a be a1 54 68 3d
       -0.0033249361 0.293874 -0.13559887 0.056721333
000090 83 d2 2a 3d dd 7a ef 3d 67 ad 60 3d 2e 3d c4 3e
       0.041704666 0.11693356 0.05485287 0.38327926
0000a0 8f ca df 3d bf 53 1a 3f 2c b8 42 3b f5 b5 f2 3b
       0.10927307 0.60284036 0.0029711826 0.007406945
0000b0 05 81 33 3f 1a 22 bb bd b3 d7 b3 3c c0 41 2f 3f
       0.70118743 -0.09137364 0.02195344 0.684597
0000c0 12 5e b4 bd 14 7f fd bb 77 db 28 bd eb 71 28 3f
       -0.08807005 -0.007736096 -0.041224923 0.65798825
0000d0 2c b5 db bc da 40 67 3e 41 ad 09 3f 54 2f aa bc
       -0.026819788 0.22583333 0.5377999 -0.020774521
0000e0 88 b3 1d 3f 00 67 1c bc eb 05 c1 bd 14 da 63 3e
       0.6160207 -0.0095460415 -0.09424957 0.22251159
0000f0 02 11 72 bd 0a 70 34 bd b5 d0 e5 bc dc d1 57 bd
       -0.05909825 -0.04405216 -0.02805362 -0.052690372
000100 19 de e5 bc 6a 2e 29 3f 4f e4 28 3f 7b 5f 1e 3f
       -0.028060006 0.6608645 0.6597337 0.6186444
000110 9c 73 15 bd 80 79 c9 3d eb f7 1c 3f ee ec 10 3f
       -0.036487207 0.098376274 0.6131579 0.56611526
000120 d2 98 be bd ea 3c d0 3d da fa 54 3c 00 65 40 3e
       -0.09306492 0.101678684 0.012999261 0.18788528
000130 5d 1b 6b bd c6 78 27 3f 5c ed a9 bd 03 b1 81 bd
       -0.057399143 0.6541866 -0.08297226 -0.063325904
000140 c5 98 2a 3f 30 ad 5f 3d 3e 7c 7c bd 2c 32 37 3f
       0.6663936 0.054608524 -0.061641924 0.7156093
000150 4e d7 b3 bd d4 fd db bd 7e 6d 29 3f 2c 18 22 3e
       -0.087813005 -0.10741773 0.66182697 0.15829533
000160 ba c6 30 3f c6 fd 83 3d 40 5a a1 3e 0f 9c 96 bd
       0.6905323 0.06444888 0.31514168 -0.073539846
000170 99 20 b0 bc 05 bf d6 bc 9e 5b 0b 3d 62 5a 24 3e
       -0.021499919 -0.026214132 0.03402292 0.16050103
000180 48 a1 fb bc dd 8f aa 3d b9 88 7e bd 34 1a 21 3f
       -0.030716553 0.08328221 -0.062142108 0.6293061
000190 82 aa 3b 3f a4 0f 2f 3f 84 04 75 bd 3c 07 49 3d
       0.7330705 0.6838324 -0.05981876 0.049079165
0001a0 3d fe 2c 3f d9 50 33 3f f9 eb 2f 3e a9 53 ad 3e
       0.67575437 0.7004524 0.1717986 0.3385289
0001b0 0b 1d 6e bd ac 01 59 bd 40 1f 2d 3e 53 ed d7 bd
       -0.058133166 -0.05298011 0.16906452 -0.10543313
0001c0 a7 71 02 3e 66 bd cc bd af 93 5d 3c 9b 1e 32 3f
       0.12738667 -0.099970624 0.01352398 0.6957795
0001d0 a0 e9 1d bc 22 e0 3a 3f ee d3 ff 3e 00 3f af bd
       -0.00963822 0.7299825 0.49966377 -0.08556938
0001e0 7e 5b 82 3b 66 cd f4 bd 07 27 8a bc e6 c8 c1 bc
       0.003978192 -0.11953239 -0.016864313 -0.023655366
0001f0 1a cd 38 bc 11 1c d8 bd a1 9a c9 bc 28 30 28 3f
       -0.011279369 -0.10552228 -0.024609866 0.6569848
000200 02 ff 13 3f d0 1f f1 3c e8 94 5e 3d 1f 35 2b 3f
       0.57810986 0.029434115 0.054341227 0.6687793
000210 10 ba 74 3d 90 9c 70 3e b3 86 b5 bb b8 cd ca bd
       0.059747756 0.23497224 -0.005539739 -0.09902519
000220 88 41 10 bd c8 30 b6 bc 4c 8a 7a 3d e5 6d 2d bc
       -0.035218745 -0.022240058 0.061167046 -0.010585283
000230 2e 8b 29 3f d8 05 50 3e b4 ce a2 bc aa 9c 03 3e
       0.66227996 0.20314729 -0.019873954 0.12852731
000240 31 70 21 3f 0c ba f3 3d 01 54 72 3d 55 dd 1c 3f
       0.63061816 0.1190072 0.059162144 0.61275226
000250 94 8c d8 bc a5 39 2b 3b 5b 14 21 3f 29 56 a4 bd
       -0.02643422 0.0026126888 0.62921685 -0.08024246
000260 fb 8e 97 bd 95 f2 19 bd 82 b8 a4 3e ad d9 48 3e
       -0.07400318 -0.03758486 0.32172018 0.19614287
000270 0b 81 30 3f 54 53 2b 3f d0 6c 2a 3f 32 b4 3b bd
       0.68946904 0.66924024 0.66572285 -0.045826145
000280 33 3b cb bd 2b a5 dc 3c 57 df 1f 3f b6 df 1b 3f
       -0.09923401 0.026934227 0.62450165 0.6088823
000290 be 1c 6b bc 4f 4d 04 be 65 db 8b bd 5d 70 21 3f
       -0.014350114 -0.12920116 -0.068289556 0.6306208
0002a0 1b 34 1e 3f 5b 21 2c 3f 2e ca de 3c 0f 6d a4 3e
       0.61798257 0.67238396 0.027196016 0.32114455
0002b0 20 b9 54 bd 21 6e 23 bd 88 02 83 bc f1 62 54 3b
       -0.05193436 -0.03989995 -0.015992418 0.0032407606
0002c0 ed ea 53 bd 5e c2 2b 3f aa 40 b2 bd a6 19 08 bd
       -0.051737715 0.67093456 -0.0870374 -0.033227585
0002d0 fa e6 1d 3f 86 20 f0 3c 4f 41 1a 3f 01 36 23 3f
       0.6168057 0.029312383 0.60255903 0.6375428
0002e0 91 c1 bc bd d5 fb 2a 3f 90 99 ab 3e 4e e5 79 bd
       -0.09216607 0.66790515 0.33515596 -0.061009698
0002f0 7a 91 1c 3c a1 14 19 3f 37 bd 91 3d 24 7b 17 bd
       0.009556169 0.597971 0.07116168 -0.03698267
000300 de 50 6a 3d 2a 2c 87 3c 00 fd 74 bd 92 01 f9 bc
       0.057206027 0.016500551 -0.059811592 -0.030396257
000310 71 8d b6 bd e1 33 32 3f bd 65 27 3c e6 41 c5 ba
       -0.089136966 0.6961041 0.010217127 -0.0015049546
000320 c1 f3 60 bd dc 88 9c bc ec f3 09 3d d5 cf 08 3d
       -0.05491996 -0.019108228 0.033679888 0.03340133
000330 b4 e3 24 3e 3a 6f 47 3e 6e 0e 17 3f 76 4e 23 3f
       0.16102487 0.19476023 0.5900639 0.63791597
000340 c1 35 cb 3d 29 e7 12 bd 25 2f 31 3f ab 68 1d 3f
       0.09922362 -0.035864983 0.6921256 0.61487836
000350 25 4c 0f bd 60 05 29 bc 28 07 31 3f 94 cb 1c 3f
       -0.034984726 -0.010316223 0.69151545 0.61248136
000360 81 19 fb bc ee 27 1f 3f 8d 57 28 bc c1 9e 2d bb
       -0.03065181 0.621703 -0.01027478 -0.002649233
000370 11 f1 2f bd 2f 6e 9b bd e9 f2 1d 3f 87 23 1a 3f
       -0.04295451 -0.07589375 0.61698776 0.6021046
000380 a6 92 96 3d 67 9e 2e 3f 4b e2 28 bd 3a fe 05 3e
       0.0735219 0.6821045 -0.041231435 0.13085261
000390 ec db f9 bd 3b 69 08 be b0 cf d3 bc e3 7b 0d be
       -0.1220015 -0.13321392 -0.025855869 -0.1381679
0003a0 44 56 6e bd de f7 f2 bc a6 ec 68 bd 07 54 88 bd
       -0.058187738 -0.029659208 -0.05686631 -0.06656652
0003b0 5a c3 f0 bc 36 53 36 3f 2a 72 90 bd 06 8e 3d bd
       -0.029390026 0.7122072 -0.07053025 -0.046278022
0003c0 fc fa d4 3b e0 9c 3a 3e d0 2e 4f 3e b8 a5 d7 bb
       0.006499646 0.18223906 0.20232701 -0.0065810345
0003d0 a9 ed 2a bd 9d 31 33 3f ff 64 81 3d f3 4f 21 3f
       -0.041730557 0.6999758 0.063180916 0.6301262
0003e0 8f a9 34 bd e5 32 17 3e d6 47 b1 bc d1 86 28 bd
       -0.044107016 0.14765508 -0.0216407 -0.041144196
0003f0 b9 2c 8e bd bc 3a c7 bd 62 a5 43 3d 39 f6 45 3e
       -0.06942124 -0.097279996 0.047765143 0.19332208

bias f4 [256]
000000 1c 26 09 3f 52 32 34 bd 33 c7 55 3c e6 e2 0d 3f
       0.53573775 -0.0439933 0.013047981 0.55424345
000010 14 cd 60 3c 5f d6 42 bd 36 fe 61 bd 70 89 0c bd
       0.013720769 -0.04756772 -0.055174075 -0.034310758
000020 9f 47 34 3f b3 24 10 3f 78 8f 3f 3f 91 40 e2 3c
       0.70421785 0.56306 0.7482829 0.027618678
000030 3a 17 14 3f 70 4d 57 3c 7f ae 2f 3f e3 58 8b bd
       0.5784794 0.013141021 0.68625635 -0.06804063
000040 8e c4 33 bc a1 0a e5 bc cf 38 83 bd 99 32 09 3f
       -0.010972155 -0.02795917 -0.0640732 0.5359283
000050 76 39 b6 bc ab 8f 02 bd 4e 4b 29 3f 91 1c 28 bd
       -0.022244196 -0.031875294 0.6613053 -0.041042868
000060 5d 91 dd 3e c5 43 67 bd 82 ed 09 3f 66 b3 89 3b
       0.43274966 -0.056461114 0.53878033 0.004202294
000070 0a 6f 70 bd 73 ce 40 3d 84 83 2f 3f a5 d5 23 3d
       -0.058699645 0.047071885 0.6856005 0.03999867
000080 4e 36 9c 3f 0e b2 2a 3f b4 5c 54 bd 88 83 e8 3e
       1.2204072 0.6667794 -0.05184622 0.4541285
000090 d7 21 4e 3f 5d 91 68 bd f9 9e 2e 3d a7 86 88 bc
       0.80520386 -0.056779254 0.042632077 -0.01666577
0000a0 c2 bc 08 3f 1e 14 2f 3f 52 20 73 3f 38 5b 18 3f
       0.5341302 0.6839007 0.9497119 0.5951419
0000b0 b8 28 ae bd 34 07 5c bd 3f ed 9f 3b c9 67 23 3f
       -0.0850386 -0.053717807 0.004880577 0.6383024
0000c0 28 dd 5a bd 3c 3c e5 3b 57 10 4d bd 17 19 a3 bc
       -0.053433567 0.006995706 -0.05006441 -0.019909425
0000d0 dc e8 ee 3c 4f 21 89 bd 4f e2 35 3f 7e 4e 04 3f
       0.02916377 -0.06695806 0.71048445 0.5168227
0000e0 d8 c8 99 3f 1d a5 ac bc 5b d9 43 bc 53 b4 08 bc
       1.2014418 -0.021074826 -0.011953677 -0.008343774
0000f0 e6 bc 0b 3f 2c a9 9d 3c 11 ea 32 3f 4b a0 9f 3b
       0.5458511 0.019245706 0.69888407 0.0048714033
000100 e5 3e 2c 3f 8d ce 04 3f a3 4c 2f 3f 80 bd 1e 3f
       0.6728347 0.5187767 0.68476313 0.62007904
000110 0d 4b a8 bd b6 9c 4c bd ab 0f 33 3f e0 83 6c 3c
       -0.0821744 -0.04995414 0.6994578 0.014435738
000120 30 58 50 bd 7e c4 f9 bc 5a be 7b bd ca 12 36 3f
       -0.050865352 -0.030489203 -0.06146083 0.7112242
000130 ed d8 61 3f 8c c5 5e bd d3 34 17 bd 6e 3d 3c 3f
       0.8822163 -0.054387614 -0.03691561 0.73531234
000140 0f e1 81 bd 67 29 03 3f 8d c0 a3 bd 10 56 6d 3c
       -0.06341755 0.5123505 -0.079957105 0.014485851
000150 f6 f4 76 bd 99 30 0f 3f 18 63 04 3f 97 4c 04 bc
       -0.060292207 0.5593353 0.51713705 -0.008074901
000160 bd 08 f4 3e 26 cb 84 3c a8 60 1c bd d2 1e 81 bd
       0.47662917 0.01621015 -0.038178116 -0.06304707
000170 7f 8a 8b bd b4 ea d1 3e 63 e8 0a bd ac a0 d4 bc
       -0.068135254 0.40999377 -0.033913027 -0.02595552
000180 8b 91 68 3f 67 2f 0e 3f 1e a1 75 bd fe e9 1d 3f
       0.9084708 0.5554108 -0.059968106 0.6168517
000190 cf 27 33 3f b9 b2 32 3c e7 62 0c bd 77 d3 46 bd
       0.6998262 0.010906869 -0.034274008 -0.048541512
0001a0 f4 89 5a bd b3 c9 da 3e da 27 2d 3f 0b 97 13 bd
       -0.05335422 0.4273201 0.67638934 -0.036032718
0001b0 2a 57 35 3f ef 28 26 3f 61 dc 33 3d 26 bb 36 bd
       0.70836127 0.6490621 0.04391134 -0.044612072
0001c0 24 94 d7 3c 2e 32 35 bd b9 ba 39 bc 8c 3e b6 bd
       0.026315756 -0.04423731 -0.011336022 -0.088986486
0001d0 c2 4b 3c bd f2 7c bf bb 63 4a 26 3f c4 43 27 3d
       -0.045970686 -0.005843752 0.64957255 0.04083611
0001e0 c9 64 f9 3b 2b a9 c2 bc 7c 6a 96 bd 20 ba 47 3f
       0.0076108915 -0.023762306 -0.07344529 0.7801838
0001f0 28 0e 23 3f 89 b5 34 3f 47 ff 15 3f c1 44 b9 3c
       0.63693476 0.705895 0.5859265 0.022615792
000200 e6 7d 7b bd c9 9e 11 3f f4 9d 2b 3f 3c 2b 73 3c
       -0.061399363 0.5688291 0.6703789 0.014841851
000210 f0 31 a6 3c 6b b6 87 bd ef e2 15 3c f2 fe 24 3f
       0.020287484 -0.0662659 0.0091483435 0.64451516
000220 29 c1 a7 bc 85 3e 17 3f ca be 41 3f 97 ee c2 3c
       -0.020477848 0.5907977 0.75681746 0.02379541
000230 84 46 01 3f 37 e4 d7 3c e3 75 35 3f 8f 3f 45 bd
       0.50498223 0.026353939 0.70883006 -0.048156317
000240 09 92 1c 3f 73 5e 0f 3f 84 2f d5 3b 9b 56 15 3f
       0.6116033 0.56003493 0.0065059084 0.58335274
000250 95 c6 38 3d 9b 81 08 3f 3b 90 d7 3c e9 1e 28 ba
       0.045111258 0.5332276 0.026313892 -0.00064132974
000260 00 86 eb 3c 66 4f 80 bd e1 9c 0b 3f 3b ff 89 bd
       0.02875042 -0.06265144 0.54536253 -0.067381345
000270 35 d8 27 3c 3b c0 05 3f de 4e 0a 3d d9 92 35 3f
       0.010244419 0.52246445 0.03376662 0.70927197
000280 0a 3e 0d 3f 82 0a 81 bc 02 38 3b 3f 6c 02 e5 3c
       0.5517279 -0.01575208 0.73132336 0.027955256
000290 67 a9 0b 3f df 0c d5 3b 20 13 2e 3c 3d 92 17 3f
       0.5455536 0.0065017785 0.010624677 0.59207517
0002a0 13 65 00 3f f6 dc 3a 3d ad cc 61 3f 44 db 13 3f
       0.50154227 0.04562088 0.88202935 0.5775645
0002b0 31 55 38 3f ef 81 08 3c d4 07 52 bd 26 17 35 3f
       0.7200499 0.00833176 -0.051276997 0.70738447
0002c0 53 86 dd bc bc 2c 03 3f cb 3e 04 3f b0 a7 e2 3c
       -0.02704159 0.51240134 0.51658314 0.02766785
0002d0 21 11 3f 3d 61 5c fc 3e a1 fa 06 3f 0c 6b f7 3e
       0.046647195 0.4928923 0.5272618 0.48323858
0002e0 5c bb 04 3f 6e 41 04 3f 2d 3c 2b bd a2 6b 72 bd
       0.5184839 0.5166234 -0.041805435 -0.059184678
0002f0 3e 39 32 3d e0 af db 3c f3 1a 87 3c 3d 78 b4 3c
       0.04351162 0.026817262 0.016492343 0.02202999
000300 2e c7 f1 bc 1b 3f cb bb 0d 5a 97 bd 8d 17 62 bd
       -0.029513922 -0.006202591 -0.07390223 -0.05519824
000310 a3 cd 06 3f 2c fe 0d 3f d0 31 19 bd 50 22 2d 3f
       0.52657527 0.5546596 -0.03740102 0.6763048
000320 0b bf 84 bd af 4f 2f 3f 9e 58 ff bc 71 bd 2e bc
       -0.06481751 0.6848096 -0.031170186 -0.010665284
000330 64 9a 97 3c 6c 28 e7 3c ff 92 d4 3c 2c c7 2d 3f
       0.018506236 0.028217517 0.025949 0.6788204
000340 b2 1e fd 3c 5f c6 4d bd 1d b3 29 3f ec 50 5a 3d
       0.030898426 -0.05023801 0.6628893 0.05329983
000350 6e bb 8d 3c 6f 98 d7 3c 15 29 00 3f a4 b2 d4 bc
       0.017301288 0.026317803 0.50062686 -0.025964089
000360 58 35 16 3f 84 44 17 3f e7 23 f3 3e 22 18 05 bd
       0.58675146 0.5908892 0.4748833 -0.032493718
000370 93 0c 4c 3d f7 22 39 3f 31 a4 19 3f 5c 1e 5e 3c
       0.04981668 0.7231898 0.6001616 0.013557043
000380 9e 6d 09 3f 28 13 92 ba e1 7f 6c 3f 53 a8 8a bc
       0.5368289 -0.0011144625 0.9238263 -0.016925966
000390 12 1d 1e 3f c2 a7 ce bc a1 e9 e9 3e 8c 73 24 3f
       0.6176311 -0.025226478 0.45686057 0.6423881
0003a0 90 f2 ae 3b 73 13 82 bd f6 09 0e 3f b5 5e 0d 3f
       0.0053389743 -0.06351366 0.5548395 0.55222636
0003b0 31 d2 1d 3f 3e fe 2a 3f 6f de 1c 3d ce c6 3c 3c
       0.6164885 0.6679419 0.038298067 0.011522008
0003c0 d3 6a 8e bd 87 45 0e 3f 57 85 df 3b 38 a0 9a bd
       -0.06953969 0.5557484 0.0068213153 -0.075500906
0003d0 6f 04 38 3f e9 b2 60 bd a4 15 81 bd 8d dd 33 3d
       0.71881765 -0.054858122 -0.06302956 0.04391246
0003e0 f0 9f 9c bd bb 29 30 3f 13 68 83 bd f8 8f 09 3f
       -0.07647693 0.68813676 -0.06416335 0.53735304
0003f0 58 3d eb 3c 9f ad 0e bd d2 3d e2 3e 6d a4 b9 bd
       0.028715774 -0.034833547 0.4418779 -0.09064565

weight f4 [2, 256]
000000 95 c6 8f be 66 27 7f ba 80 28 13 bc c9 18 cc be
       -0.28081194 -0.0009733349 -0.008981824 -0.3986266
000010 d0 5d 9a 3c 4c ab d9 bb 3a ca 47 39 00 63 9a 3c
       0.018843561 -0.0066427346 0.00019053454 0.018846035
000020 97 aa e0 be a4 e8 8f be bb a2 ad bd 64 ac 2d ba
       -0.4388015 -0.28107178 -0.08478304 -0.00066251145
000030 66 5d 95 be 18 e2 1b bc 3f d9 9c bd 2e b6 b8 3c
       -0.2917282 -0.009514354 -0.07658624 0.022547808
000040 36 76 88 ba aa 2d 01 3c af 76 4d bb b8 d1 89 be
       -0.0010411206 0.007884422 -0.0031351259 -0.26917815
000050 56 a3 76 ba cb be 03 3d e1 ae b6 bd 78 1a 50 ba
       -0.0009408494 0.032164376 -0.08920074 -0.00079385145
000060 a1 af d4 be 78 1a d0 3b e3 61 bc be fc c6 91 39
       -0.41540244 0.0063508116 -0.36793432 0.0002780481
000070 fb 0e 1f ba 09 e2 e1 3b 80 a3 b4 bd 07 d0 0b 3c
       -0.0006067601 0.0068934006 -0.08820248 0.008533484
000080 eb eb 38 bf 81 75 a0 bd 85 5d 2a 3c 80 ec 04 bf
       -0.7223498 -0.07834912 0.010398273 -0.5192337
000090 b4 f7 03 bf 23 d0 4d b9 9b b6 0e bc cb 8e e5 3c
       -0.5154984 -0.0001962786 -0.008710529 0.02802219
0000a0 7d 3d d1 be ba 94 4b be 0b 6c f6 be 6e 46 92 be
       -0.40867224 -0.19880953 -0.48129305 -0.2856936
0000b0 f5 24 17 3a 3f 96 08 bc 4c 4a e5 b9 77 09 b4 bc
       0.00057657 -0.008336603 -0.0004373364 -0.02197717
0000c0 4b d1 02 bc 60 00 95 3b ab 69 40 3a cb b1 1f b9
       -0.00798447 0.004547164 0.00073399645 -0.00015229655
0000d0 8f 53 04 39 ed 66 e7 bb c6 d2 75 bd 60 bf bf be
       0.00012619629 -0.0070618303 -0.060015462 -0.37450695
0000e0 a4 c6 3a bf fe fd be 3b 3b 67 09 bc 98 dc 1e 3c
       -0.7295935 0.005828618 -0.0083864285 0.009696148
0000f0 22 93 95 be a8 3e 11 bc 8d 92 a0 bd 7a 9e 5e 3b
       -0.29213816 -0.008865036 -0.07840452 0.003396897
000100 6b d5 b2 bd ef 7d b8 be 71 10 1d be f3 da 0d bf
       -0.087321125 -0.3603358 -0.15338303 -0.55412215
000110 30 d0 d5 bc 26 8a 7a ba 95 e2 bc bd a0 f4 4b bb
       -0.026100248 -0.0009557329 -0.092229046 -0.003112115
000120 d2 62 c7 38 66 46 fe 3b c7 00 07 bc ec 91 18 bf
       9.507466e-05 0.007759857 -0.008239931 -0.5959766
000130 22 f9 fa be ad 2e a7 bb 86 9f 38 bc d2 f9 b0 bd
       -0.49018198 -0.0051019997 -0.011268502 -0.086413994
000140 4c c8 80 bb 11 cb c5 be ba 5c f8 bc 9d 5a 81 b9
       -0.0039301272 -0.3863149 -0.030317653 -0.0002467231
000150 a5 db 7b 3a 51 b3 92 be 8e 7d 82 be 12 44 b0 b8
       0.000960762 -0.28652433 -0.25486416 -8.405013e-05
000160 13 95 00 bf d2 da 73 3c 71 56 a2 bc 2d de 69 3c
       -0.5022747 0.014883714 -0.01981661 0.014274162
000170 bd 75 aa 3a a9 b5 50 3e 44 33 97 3a 78 66 54 39
       0.001300506 0.20381798 0.0011535664 0.00020256068
000180 05 4e fa be c4 7c b2 be 99 7f e1 3b 46 38 18 be
       -0.4888765 -0.34860814 0.006881666 -0.14865217
000190 e4 40 b9 bd b9 bd ac bb 99 17 aa ba c3 c3 81 bb
       -0.0904558 -0.00527164 -0.0012977003 -0.003960104
0001a0 d4 48 9c bc 34 df b3 be 3a 00 b0 bd f7 ea c0 39
       -0.019077696 -0.35131228 -0.08593793 0.00036796156
0001b0 59 29 b8 bd b6 51 27 bd 2b bb 01 bc 19 8e e9 bc
       -0.089922614 -0.04084941 -0.0079181595 -0.02851014
0001c0 e4 a7 1b bc 30 ac 1b 3c 1e ad b3 3c c1 11 df 3a
       -0.009500477 0.009501502 0.021933135 0.0017018841
0001d0 7d c5 34 bc a3 91 4d ba 0e ba 9e bd 96 f1 2c 3a
       -0.011033413 -0.0007841831 -0.07750331 0.00065972784
0001e0 d3 67 82 ba 81 60 72 3a 5b 51 09 bc b4 ac c0 be
       -0.0009949155 0.00092459476 -0.008381213 -0.37631762
0001f0 cd 43 a9 be 0f a9 95 be 1f 47 9d be a7 f7 87 bb
       -0.3305954 -0.29230544 -0.30718324 -0.0041493955
000200 47 46 0a bc 47 e5 96 be 73 57 b3 bd 50 26 01 3d
       -0.008439607 -0.294718 -0.08756914 0.03153068
000210 a0 56 80 ba b4 82 96 3c 51 47 e4 bc 88 6c 9f bd
       -0.0009791441 0.018372871 -0.027866038 -0.077843726
000220 bd 47 e1 3b 44 ee 8b be f6 ed bf be a4 8d d6 3b
       0.006875007 -0.2733022 -0.37486237 0.0065476466
000230 c4 a5 0b bf f5 bf ea bc b2 d5 37 be 42 4b ba 3b
       -0.54549813 -0.028655985 -0.17952612 0.005685241
000240 53 6b 8f be 1f 82 bc be b2 fe bb 3b 5d 15 b5 be
       -0.2801157 -0.36818025 0.005737149 -0.3536786
000250 60 2b 12 bc c3 0c 06 bf 0d 30 a0 3c 5e 93 b0 39
       -0.008921474 -0.5236322 0.019554162 0.00033679133
000260 03 fe 09 39 be 13 f2 bc e1 3b 94 be 0c b6 f4 3a
       0.00013159965 -0.02955043 -0.28951934 0.0018669977
000270 ec 6d 91 39 42 df 04 bf 5b e1 ca 3b e4 d1 17 be
       0.00027738453 -0.51903164 0.0061914152 -0.1482616
000280 2b 3f 92 be 0e d2 b7 3b 1d ad d0 be ef b3 88 bb
       -0.28563818 0.0056097573 -0.40757075 -0.0041718404
000290 c2 a4 b9 be fa 61 4d ba 9d 7a f1 b7 a3 f2 9e be
       -0.36258513 -0.0007834729 -2.8786535e-05 -0.31044492
0002a0 87 8c 80 be 78 7e 90 bb ee 91 27 bf 74 96 bb be
       -0.25107214 -0.0044096075 -0.65457046 -0.36638224
0002b0 ff 96 80 bd 8b 5c 0a bc 64 ce df bb 73 cb b2 bd
       -0.062788 -0.0084449155 -0.0068300236 -0.08730211
0002c0 ff fb bc 3c cb 7d 89 be 55 5c c8 be ac 2e 27 39
       0.02306938 -0.26853785 -0.39132944 0.00015943748
0002d0 3a 16 71 3a cb 84 c0 be d2 cc a6 be 45 7f c8 be
       0.00091967324 -0.37601313 -0.3257814 -0.391596
0002e0 08 a8 c4 be a2 1a d1 be 7e c4 39 bc 9b 38 ca bb
       -0.38409448 -0.40840632 -0.011338351 -0.0061712987
0002f0 46 10 fa bb 96 1a e0 3b 6b 6b c7 ba 14 91 11 ba
       -0.0076313345 0.006839107 -0.0015214508 -0.00055529294
000300 3a 83 bc bb ad cd 72 39 64 9c 0c bd dc ca 14 3a
       -0.005752948 0.00023155539 -0.034328833 0.00056759804
000310 88 f4 b3 be 36 f2 9e be 90 63 98 bb 40 bc 24 bf
       -0.351475 -0.31044167 -0.0046505406 -0.64349747
000320 ee 39 fb bc a5 60 19 be bd 18 ad bb 99 ad aa bc
       -0.030667271 -0.14978273 -0.00528249 -0.020834731
000330 e0 78 1c bc 61 ca ee 39 12 0d f5 bc cd f8 08 be
       -0.009550303 0.00045545681 -0.029913459 -0.1337616
000340 f4 7c 98 bb 22 9d 00 bc 54 9b 95 bd 33 32 40 bb
       -0.0046535674 -0.007849963 -0.07305017 -0.0029326796
000350 33 65 c4 3c 0d 51 e7 bb 74 66 c3 be 0b ac 43 bc
       0.023974037 -0.0070592226 -0.38164103 -0.011942874
000360 73 92 98 be f2 7f ac be 2a 64 fd be 25 17 24 ba
       -0.29799232 -0.33691365 -0.49490482 -0.00062595523
000370 44 3e 51 39 a3 02 86 bd 01 64 8f be 5f 61 c9 bb
       0.00019954989 -0.06543472 -0.28005984 -0.0061456407
000380 2d 45 96 be 5c 9e 11 3d dc de 08 bf 54 bf db 39
       -0.29349652 0.035551414 -0.53465056 0.00041913486
000390 12 65 cd be 0e 5c 7a bb 6a 5b c5 be 05 83 b5 bc
       -0.40116173 -0.0038201842 -0.38546306 -0.022157202
0003a0 4e 21 70 bc 0b b8 c1 3a b1 40 c5 be 2c 71 a5 be
       -0.014656378 0.001477958 -0.38525918 -0.32312906
0003b0 ff 18 a5 be 3f 50 ad bd e0 75 50 3b bb 92 08 bc
       -0.32245633 -0.08462571 0.003180854 -0.0083357645
0003c0 f1 b6 6d 3c ea 26 f5 be a9 7a e0 bb f9 05 e2 bb
       0.014508949 -0.47881252 -0.0068505597 -0.0068976847
0003d0 c9 43 b0 bd 77 38 cb 3c 57 5f 5d 3b e5 33 26 38
       -0.08606679 0.024807198 0.003377875 3.9625815e-05
0003e0 e4 ff dd 3c 0a 2e a2 bd d9 7f 62 3b 43 ba b5 be
       0.027099557 -0.079189375 0.0034561066 -0.3549367
0003f0 53 e5 04 bb 39 cf a7 3b de f9 e0 be e8 99 26 3c
       -0.002027829 0.0051211384 -0.43940634 0.01016853

bias f4 [2]
000000 db fb 1d bf e8 64 22 bf
       -0.61712426 -0.6343522
