Intelligent car/model_weight/target_value_net_para.pkl (torch_old, 274079 bytes, 6 tensors)

weight f4 [256, 3]
000000 c6 2f fb bb f0 3f c3 bb 1b 7c 0f 3f 9f 5e df 3d
       -0.007665607 -0.0059585497 0.56048745 0.109067194
000010 c5 35 fa 3d fb bb de be 3c 94 56 bd e1 3a 01 bf
       0.12217287 -0.43502793 -0.05238746 -0.5048047
000020 2a f0 b4 be 0b 2d 65 bf 10 72 89 3e b0 b3 08 bf
       -0.3533948 -0.89521855 0.26844835 -0.5339918
000030 d3 a9 1b 3d f5 da 0f be 60 62 5d 3f 61 97 1a be
       0.038003754 -0.14048369 0.86478233 -0.15096809
000040 63 0a a3 3e 3a 90 25 3f 09 44 37 bf e3 df 1a bf
       0.31843862 0.646732 -0.7158819 -0.60497874
000050 6a 87 ba 3e 44 d5 df be 75 87 06 3f c9 c1 e8 bd
       0.36431438 -0.43717396 0.5255044 -0.113650866
000060 54 15 82 bf de 3b 13 bf 5b aa 0f 3f d9 90 e5 be
       -1.0162759 -0.57513225 0.56119317 -0.44837072
000070 a2 d2 1a 3e bc 37 37 bf 5d 3e 58 bf 24 82 35 bf
       0.15119413 -0.7156942 -0.8447016 -0.70901704
000080 10 e0 96 3e 62 e7 2d be aa 5c c0 3e c5 64 35 be
       0.2946782 -0.16982797 0.37570697 -0.17714222
000090 28 35 2e bf 00 30 7d bf 55 d5 e8 3e fb fd 2f bf
       -0.6804986 -0.9890137 0.4547526 -0.6874692
0000a0 be 10 78 bf 9f 0f c7 3e ec 66 f7 3e 79 fc d5 bd
       -0.96900547 0.38879105 0.4832071 -0.10448546
0000b0 eb c0 9f 3d 16 3c 93 bd 4f d6 12 3e 02 b4 e1 3e
       0.07800468 -0.07189195 0.14339565 0.44082648
0000c0 72 a4 21 3e e6 51 5f be fe 1e 9f be af 05 d7 3e
       0.15785387 -0.21808586 -0.31078333 0.41996524
0000d0 56 1b 10 be 82 c5 10 3f 13 f2 d0 be 88 50 20 3f
       -0.14072928 0.56551373 -0.40809688 0.6262288
0000e0 11 26 60 be 62 f2 61 3d 25 93 3a 3e da 63 46 3e
       -0.21889521 0.055162795 0.18220194 0.19374028
0000f0 92 b8 56 3e e9 ea 95 3e d7 71 13 3e dc b0 82 3d
       0.20968845 0.29280785 0.14398895 0.063813895
000100 47 2e 68 be 6c 39 4a 3e 28 dd 8d 3e c6 44 8a bd
       -0.22673903 0.19748467 0.2770779 -0.06751399
000110 09 59 d3 bb 01 d0 3e bf 26 83 44 bf 5e e0 f8 3e
       -0.006449823 -0.7453614 -0.76762617 0.4860868
000120 02 9d 0f bf 7e 55 44 bf 4c 45 11 bf f5 df 2b be
       -0.5609895 -0.7669295 -0.56746364 -0.16784652
000130 2c 83 c9 3e 8d 71 f2 be d6 c4 4e 39 2c 1e 54 bf
       0.3935789 -0.47352257 0.00019719018 -0.8285854
000140 b8 29 5f 3f b0 2d 16 bf 38 64 80 bf 3d 16 a3 be
       0.8717303 -0.58663464 -1.0030584 -0.31852904
000150 8a db dd bd f0 6e e2 3e 3f dd b0 bd 07 40 85 bd
       -0.108328894 0.44225264 -0.08635949 -0.06506353
000160 d9 56 ed bc 90 26 8a 3f f6 74 b0 3e 7f 56 93 be
       -0.028972076 1.0793018 0.34464234 -0.2877693
000170 09 0e b3 3c 1e e8 3f bf d5 80 0a bf 2c 95 d8 3e
       0.021857278 -0.7496356 -0.5410283 0.4230131
000180 7e 78 ee 3e 5a bf c3 be 63 95 e0 be 0d 8d 16 3e
       0.46576303 -0.38231927 -0.43863973 0.14702244
000190 3d 41 69 3e 80 60 12 bf 70 50 45 be e7 5f 4c bf
       0.22778793 -0.571785 -0.19268966 -0.79833835
0001a0 4c 7d a9 be 81 3b 48 bf 80 ff 2f bf b2 66 31 be
       -0.33103406 -0.78215796 -0.6874924 -0.17324331
0001b0 8b 62 55 3e ce 8c 5d be 7a 0c 06 3f cc d8 09 bd
       0.20838372 -0.21635744 0.5236279 -0.03365402
0001c0 d4 67 07 bf f1 8e 23 3f db b5 9f be 19 c2 1f 3f
       -0.52892804 0.63889986 -0.31193432 0.62405545
0001d0 83 b3 d8 3e 63 ee af 3e 63 85 bb 3e 9d d2 3a bf
       0.42324457 0.34361562 0.36625203 -0.7297762
0001e0 78 72 22 3d 32 d0 37 bc 72 0d d3 3e e0 d7 db 3e
       0.039659947 -0.011219071 0.41221195 0.42938137
0001f0 27 de cb bc ad 5a af be c7 d2 b5 bc 83 0b ed 3e
       -0.024886204 -0.34248868 -0.022195233 0.46297845
000200 17 dd 82 bc 4c 33 b8 3e 0c 39 c8 be 53 bc 12 3f
       -0.015974564 0.35976636 -0.39106023 0.5731861
000210 6b e7 25 bf 5c 52 5e bf ff 2c 4c 3e 6b af 8d be
       -0.6480624 -0.8684442 0.1993904 -0.27672896
000220 4d b2 0b 3f ad 7c 2f 3d 98 00 8b 3e 58 04 59 3e
       0.5456894 0.04284351 0.2714889 0.21193063
000230 48 68 85 bd 2a 3e 5c 3e 47 87 83 3c a9 93 c1 be
       -0.06514031 0.21508089 0.016055716 -0.37807968
000240 f0 61 5d bf 8d e0 74 bf 28 9b e5 be bf 56 1d bd
       -0.86477566 -0.9565514 -0.44844937 -0.038412806
000250 18 2c 98 be 00 6f 5a be a5 6a c9 3e fb 9b 94 3b
       -0.2972114 -0.21331406 0.39339176 0.004535196
000260 60 6b e4 be 99 4c 1d bf 2f c4 7c 3e ac 0e 08 3f
       -0.4461317 -0.61445004 0.24684213 0.5314739
000270 97 85 74 be 0d ad e2 3e 4a 2d 94 3d 11 d1 b7 be
       -0.23879085 0.44272652 0.07235201 -0.35901693
000280 fb b6 02 3f 84 8b b2 be 12 1b ae bd d2 d8 1d 3e
       0.51060456 -0.34872067 -0.08501257 0.15414742
000290 77 b4 22 3c 23 4a fb 3e 26 10 95 3d c3 a7 b5 be
       0.0099307215 0.4908 0.07278471 -0.35479555
0002a0 b0 cc 63 be 64 0d 45 3e f0 16 30 3f 86 95 84 be
       -0.22246051 0.1924339 0.68785 -0.25895327
0002b0 0f ba e1 be a3 9c c7 be 12 c0 d0 3e ed cb 1c 3e
       -0.44087264 -0.38986692 0.40771538 0.15312167
0002c0 53 50 12 3f f2 a3 bb be 5e 51 bb 3d 15 a4 b3 3e
       0.57153815 -0.36648518 0.09146379 0.35086122
0002d0 ef c7 7e 3e 5f 8b 44 3e 8e 04 84 3c c5 db b7 bd
       0.24880956 0.19193791 0.016115453 -0.089774646
0002e0 5d 40 00 bd 89 3a 84 3f 70 06 fe 3e 2a cd 02 bf
       -0.03131138 1.0330364 0.49614286 -0.51094306
0002f0 c5 7f 0c 3f 18 e5 7f bf bf 57 57 bf 46 69 c0 bd
       0.5488246 -0.99958944 -0.84118265 -0.09395079
000300 b7 76 87 3e a2 6e c9 3e da 2b d2 3e ba 40 7f bf
       0.2645776 0.3934222 0.4104908 -0.9970814
000310 fd a2 f5 be 70 93 1c 3d e2 bb db 3d 74 a3 88 be
       -0.47975913 0.038226545 0.10729195 -0.26687205
000320 83 14 97 3f c0 4d 15 3e e2 ba 64 be dc 66 1b bd
       1.1803135 0.1458044 -0.22336915 -0.03793989
000330 15 b1 b0 be 99 39 64 bf 79 6c ac be 78 d7 7d bf
       -0.34510103 -0.8915039 -0.33676508 -0.99156904
000340 94 28 36 bf 9b 94 03 bf dc 79 88 bc 1e 6e c4 3d
       -0.7115567 -0.5139863 -0.01665967 0.09591316
000350 94 fe a4 3e 5c 55 f6 3e bd 2e 08 be d8 d1 af 3e
       0.32225478 0.48112 -0.13299079 0.34339786
000360 14 9a f4 be 02 2f 80 bf ff e5 02 3f f5 ed 22 be
       -0.47773802 -1.0014346 0.51132196 -0.15911086
000370 c8 2b a8 3e 19 2f 94 3e 12 3b 90 3e d7 46 93 bd
       0.32845902 0.28942183 0.28170067 -0.07191246
000380 45 fb f6 bd be 56 f8 3d a3 d7 5d bf c4 04 c6 3d
       -0.120596446 0.1212592 -0.8665716 0.09668878
000390 12 33 95 bc c2 3a cd 3e 51 cc e7 be 21 28 77 3e
       -0.018212829 0.4008389 -0.4527307 0.24136402
0003a0 4f ba 9e 3e 8b a6 31 bf cb 03 c0 3e e5 54 a0 be
       0.31001517 -0.6939475 0.37502894 -0.3131477
0003b0 49 40 9b bd 9a f5 54 bf 2e 87 a5 bc 57 1e 8a 3e
       -0.07580621 -0.8318726 -0.02020606 0.26976272
0003c0 df 47 82 3e 22 ee ce be ec 6c 8a 3e 7c 46 87 3e
       0.25445458 -0.40416056 0.27036226 0.26420963
0003d0 72 5d 0d bf c7 ca 45 bf 9a a8 28 3e ed 13 41 3e
       -0.5522071 -0.7726254 0.16470566 0.18855257
0003e0 34 20 b5 be 80 a5 8f be 11 18 11 3f 2b 49 43 be
       -0.35376132 -0.28055954 0.5667735 -0.1907088
0003f0 82 83 25 bf 86 d1 dd 3c d9 54 25 bf 25 85 b3 3d
       -0.6465379 0.027077448 -0.6458259 0.0876563

bias f4 [256]
000000 14 82 67 bd e9 a8 1b bf 0d 62 76 3f fd 42 e7 3e
       -0.056520537 -0.6080461 0.96243364 0.45168296
000010 84 da 55 3f 5e 2d 69 be 37 9d 35 3f ae 02 ff 3e
       0.83536553 -0.22771212 0.70943016 0.49806732
000020 c2 62 d0 3e e6 31 5a 3f 33 7b 71 3e 61 fa cc be
       0.40700346 0.8523239 0.23582153 -0.40034774
000030 1d d5 a5 3e c8 97 1d 3f dd 72 bf be 44 e0 dc be
       0.32389155 0.61559725 -0.3739232 -0.4313985
000040 2a 6d 0a bf fb 58 6a 3f bb 7b 16 3f 2f f4 6e be
       -0.5407282 0.91542023 0.5878255 -0.23335336
000050 c5 34 e3 be 89 ff 58 be aa 66 7b 3e 45 65 15 3f
       -0.44376197 -0.21191229 0.24550882 0.5835765
000060 b3 56 23 3f 9e 17 c2 bd f8 54 72 3f 3c cb 7c 3f
       0.6380417 -0.09477161 0.946609 0.9874761
000070 c1 f4 14 3e 12 9b 6f 3e bb f0 ee be 8c fc e2 3e
       0.14546491 0.23398998 -0.46668038 0.44333303
000080 bd e3 16 be 83 3a f6 be 25 f5 07 3f 0c ed c4 3e
       -0.14735313 -0.48091516 0.53108436 0.38462102
000090 ad b3 84 3d de 05 4c 3f 73 6b e1 bd 3a 1f 53 bf
       0.06479583 0.7969645 -0.110068224 -0.8246952
0000a0 65 c0 4c be e7 a9 00 3e 39 16 72 be 2d f1 a4 bd
       -0.19995268 0.12564813 -0.2364129 -0.08053813
0000b0 f2 a3 6b 3e 15 a0 ef 3b 1d e1 e7 3e 87 0c 7c 3e
       0.23011759 0.0073127844 0.45288935 0.24614154
0000c0 43 b7 04 3f 7a c5 f2 be 54 c9 33 be 4f a2 86 be
       0.51842135 -0.47416288 -0.1755727 -0.26295707
0000d0 83 70 e3 be c0 4c 62 bd ce 2a 21 be af 47 32 bf
       -0.44421777 -0.055248976 -0.15738985 -0.6964063
0000e0 9b 5e fe bc e8 af 2e 3f e9 2f 8c be 43 ef 54 3f
       -0.03105097 0.6823716 -0.27380303 0.83177584
0000f0 ba 90 56 bf cf 84 9b 3e 94 a1 37 be ca 41 93 bd
       -0.83814585 0.30374762 -0.17932731 -0.07190283
000100 3e ea da be 89 97 c8 3e 19 a9 31 3f 1e 70 50 3f
       -0.42756838 0.39178112 0.6939865 0.8142108
000110 92 ce 54 3f f5 62 0f 3f 35 51 f0 3d e1 46 68 be
       0.831277 0.5601037 0.11734239 -0.22683288
000120 65 93 82 3c fe d5 61 3f a8 d1 83 be 11 03 f3 3e
       0.015939424 0.8821715 -0.25745893 0.47463277
000130 b0 74 5c 3c 9a b0 59 bf be fe 0b bc 14 ae db 3e
       0.013455555 -0.850351 -0.008544622 0.4290625
000140 50 7f 34 be ce f0 51 bf 66 c5 19 bf 8a 81 bb 3d
       -0.17626691 -0.82008064 -0.6006683 0.09155567
000150 67 a5 1e bf a6 b1 d9 3e 57 5f 14 3f 1e 9d 1d bf
       -0.61971134 0.42518348 0.5795798 -0.61567867
000160 83 1f 52 3f fa ae 62 3e 70 82 7d 3e 8c d7 88 be
       0.82079333 0.22137061 0.24756789 -0.2672695
000170 76 54 95 3e 77 78 0d 3f c0 c9 2b 3f f9 e2 7e 3f
       0.29166 0.5526194 0.6710472 0.9956508
000180 2c e6 92 3e 41 62 a1 3e 96 05 64 bf a7 94 0f bf
       0.28691232 0.31520274 -0.89071023 -0.560862
000190 4b 31 79 3f 14 5f 97 3e 72 b1 1a 3e 28 22 f4 be
       0.9734084 0.29564726 0.15106753 -0.4768231
0001a0 67 99 09 3f 30 cc 41 3f 72 51 c2 be ef 82 d8 bc
       0.537497 0.7570219 -0.37952763 -0.026429622
0001b0 c6 e2 0a 3f 72 b7 4f 3e 50 97 43 3d bb f8 05 bf
       0.5425228 0.20284823 0.047751725 -0.5233266
0001c0 5e 31 27 bf 2d 2d 47 3f 39 c9 23 3f 3e cb d6 be
       -0.65309703 0.7780331 0.63978916 -0.41951936
0001d0 51 d2 b0 bd f9 6d 37 3e 13 76 08 3f 75 71 08 bd
       -0.08633865 0.17913045 0.53305167 -0.033311326
0001e0 ca 6a 32 3f 96 09 5d 3f 71 52 44 3f 57 ed 8e 3e
       0.696942 0.8634275 0.76688296 0.2791545
0001f0 34 88 0a bf 49 25 fa 3e 53 33 80 3f 36 d8 84 3e
       -0.5411408 0.4885657 1.0015663 0.25946206
000200 77 84 45 bf 87 4b 41 3f 2b 0a f0 3e 6b 85 bf 3d
       -0.7715525 0.7550587 0.46882758 0.09351619
000210 ba 8c 51 3f 4e 9c 0a 3f 41 35 1e bf 13 ef b4 be
       0.81855357 0.5414475 -0.6180001 -0.3533865
000220 24 ed 51 be d7 e2 29 bd 42 10 19 3e ab f4 5f be
       -0.20500618 -0.041476097 0.14947608 -0.21870677
000230 2e 1b 95 be 44 b9 28 3f a4 88 34 3e 74 a9 ab 3e
       -0.291223 0.6590769 0.1763025 0.3352772
000240 97 36 b6 be ed f9 20 3f a7 80 42 3f 9a a6 57 3f
       -0.35588524 0.62881356 0.7597756 0.8423859
000250 b7 2a 21 3e b1 c1 18 bf 01 87 93 3e d0 ff b7 bd
       0.1573895 -0.5967055 0.28813937 -0.08984339
000260 92 ee c4 3e da 65 92 be 2c ab 63 3f 54 6d c6 3e
       0.38463265 -0.28593332 0.8893306 0.38755286
000270 25 be 5f bd eb 82 94 be c4 11 a7 be ab 9a 2a 3d
       -0.054624695 -0.29006132 -0.32630742 0.04165141
000280 48 37 6f 3f 60 4b 22 3f bb 22 7a 3f 80 cb e3 bc
       0.9344373 0.63396263 0.97709244 -0.027806997
000290 b9 fc d0 3e bc 7b 18 bf cf 08 0b bf 1b 32 76 3f
       0.40817812 -0.59563804 -0.54310316 0.96170205
0002a0 ba 0b e4 be 4c d9 62 3f 02 b2 49 3f 17 80 26 be
       -0.44540197 0.8861282 0.78787243 -0.162598
0002b0 15 84 40 3f e6 35 d2 3e eb 1d 6b ba d4 ea 14 bf
       0.7520154 0.41056746 -0.00089689967 -0.5817082
0002c0 b3 e2 16 bf 8e dc 5c bd af b6 51 be 00 01 c2 3e
       -0.58939666 -0.053921275 -0.20479845 0.37891388
0002d0 66 7d 66 bf b0 e6 66 3b 5c 9b 0b 3f 18 af 08 3f
       -0.9003509 0.0035232715 0.54533935 0.5339217
0002e0 5f 28 24 3e b0 79 fa 3d 68 75 4b 3f b0 cb 4e 3e
       0.16031025 0.12230241 0.7947602 0.20194888
0002f0 48 d5 54 3f 22 87 48 3f b3 8e d8 be 8d 67 43 3f
       0.8313794 0.78331196 -0.4229637 0.7632988
000300 44 bf a8 3a 14 04 4c bf 85 14 c3 be d4 87 de be
       0.0012874384 -0.7969372 -0.38101593 -0.43463004
000310 22 dd 24 bf bb 42 78 be d0 e1 85 3e 9a d7 16 bd
       -0.6439992 -0.24244206 0.26148844 -0.036826707
000320 3e 9b 18 3f cc 19 6d 3f 2a 69 26 3f 41 bc 3d 3f
       0.5961188 0.9261749 0.6500422 0.7411538
000330 29 64 51 3f be 88 31 3f b7 b7 1c 3f 07 e1 c3 3e
       0.8179346 0.69349277 0.61217827 0.3825762
000340 17 54 85 be 7c 86 83 3d 87 1f 19 be ec 7b 57 3e
       -0.26040718 0.06422135 -0.14953433 0.21043366
000350 c3 a0 f2 3e 99 a9 20 bf e2 21 df 3d cd f4 ac 3d
       0.47388276 -0.62758785 0.108951345 0.084451295
000360 3f 39 a8 3d 85 92 03 3f 45 2e 2c 3f 3e bf 13 bf
       0.08214044 0.51395446 0.672581 -0.5771369
000370 77 91 54 3f 1c b4 91 3e 6f d7 50 3f f9 ca 9f bd
       0.8303446 0.28457725 0.81578726 -0.07802386
000380 f5 5d 4f bd 7f 57 62 3f 77 5b df 3c 6e 91 7a be
       -0.050626714 0.8841476 0.027265294 -0.2446954
000390 b0 35 1c 3f f4 da 84 3e 76 72 b1 3e 9e 8b 2a 3f
       0.6101942 0.25948298 0.3465764 0.6661929
0003a0 ec 30 36 3f df 3d f8 3e 3b 84 d0 3e 1f 45 f3 be
       0.711684 0.48484704 0.40725884 -0.47513673
0003b0 f4 bf 8c 3c 60 a8 2f 3f ad a6 92 3e 45 02 96 be
       0.017181374 0.68616295 0.2864279 -0.29298607
0003c0 c2 40 ea be ef 63 41 3e 7c af d8 be 33 2b 82 3e
       -0.4575253 0.18885778 -0.42321384 0.25423583
0003d0 1c 17 fa be 28 34 41 3f 63 73 c9 3e b4 a2 ae be
       -0.48845756 0.7547021 0.39345846 -0.34108508
0003e0 3f 41 08 bf 22 ae 1b bf 1b 93 23 3f c6 e4 9f be
       -0.5322456 -0.6081258 0.6389634 -0.31229228
0003f0 3a 23 04 3f ce d8 e6 be c2 39 ea be 22 3f af bd
       0.5161625 -0.45087284 -0.4574719 -0.085569635

weight f4 [256, 256]
000000 37 d5 cd 3c 47 e1 1e 3d 8e b3 3a bd cd 4b 2b 3d
       0.025126083 0.03878906 -0.045581393 0.041820336
000010 77 29 5a bd 39 52 67 3d b6 98 7c 3d d2 aa 7b bd
       -0.0532622 0.056474898 0.061669074 -0.061442204
000020 11 9e 61 3d f1 97 6e 3c 96 38 3f 3d 2b d5 de 3c
       0.055082384 0.014562593 0.046684824 0.027201256
000030 a3 d4 06 bd be d4 c8 3a 42 c0 b3 bc 21 63 69 3c
       -0.03291763 0.0015322191 -0.021942262 0.014244826
000040 45 c8 6c bc 49 4d a6 3c f1 69 3e bc 2e 9f c0 3c
       -0.014452045 0.020300524 -0.011621938 0.023513403
000050 de 7a 32 bd c0 73 ad 3c a3 46 0d 3d 81 cb ee ba
       -0.043574207 0.021173358 0.034491193 -0.0018218608
000060 cd 7b 63 3d ab f0 0f 3d 53 ad 85 bd a7 67 86 bb
       0.055537988 0.03514163 -0.065271996 -0.004101712
000070 b6 51 73 bd 6c a7 56 3d 44 f0 5d bd f8 d9 20 3d
       -0.059404097 0.05240576 -0.054184213 0.03927037
000080 e3 db 8a bd 88 21 26 bc 3b e5 8d bd 54 13 a7 3a
       -0.06780221 -0.01013983 -0.06928488 0.0012746849
000090 6d 0d b8 3b 78 07 a8 3c a6 6e f0 bc 05 55 a1 bc
       0.005616835 0.020511374 -0.029349636 -0.01969386
0000a0 05 7b 3c bc e6 3c 81 bd 45 df fd bc 31 01 2b 3c
       -0.0115039395 -0.063104436 -0.030990252 0.010437296
0000b0 41 8b 27 bd 82 b6 be 3c ae 1f f6 bc 3f 5c 41 3d
       -0.040904287 0.023280386 -0.030044403 0.047207113
0000c0 ca 14 3e bd e0 f2 50 bd c4 53 5c 3d b0 1c 9c 3c
       -0.046406545 -0.051012874 0.053790823 0.019056648
0000d0 6f 94 07 3d d5 70 a6 3b 7c bf 65 bd 39 53 eb 3c
       0.03310054 0.0050793686 -0.056090817 0.028726207
0000e0 c5 1f 6d bd 9a 71 f4 bc 79 6a a4 3c ba 6d 71 3c
       -0.057891626 -0.029839326 0.020070301 0.0147356335
0000f0 08 13 9e bc da 12 b0 3c 97 cd 94 bc fa 3d 7a bb
       -0.019296184 0.021493364 -0.01816444 -0.0038183914
000100 6d 41 27 3d 31 ba 21 bd f5 0c 33 3d ea 2a 3f bd
       0.04083388 -0.039484207 0.04371353 -0.046671785
000110 83 bd 41 bd af f6 40 bd eb 4b 46 bd 54 11 1f bd
       -0.047299873 -0.047110256 -0.048412245 -0.038834885
000120 c0 59 00 3c 03 dd 9b bb ee b7 7f bd d3 ea 9a 3c
       0.007833898 -0.0047565713 -0.06243127 0.018910801
000130 61 ff 29 3d fd 2e fb bb 11 9e 61 3c 71 63 fd 3c
       0.041503314 -0.0076655135 0.013770596 0.030931206
000140 9e f6 06 3d 7c 51 56 3d 3d e5 66 bd e7 35 c7 bc
       0.032950036 0.052323803 -0.056370962 -0.024317695
000150 c8 62 18 ba 41 4b 21 bd 3c 39 59 bd 93 ba 48 bd
       -0.00058130594 -0.03937841 -0.0530331 -0.049006056
000160 da 97 37 bd 71 ef 6e bc c7 45 c8 3c 97 bd 06 3c
       -0.04482255 -0.0145834545 0.024447335 0.008223913
000170 75 49 2b bd d2 dc 7b bd c7 15 00 3d 0d 88 22 3d
       -0.0418181 -0.061489888 0.03127077 0.03968053
000180 b3 c5 4f bd ff d3 85 3b df eb 4d 3d bf 94 82 bd
       -0.05072565 0.00408411 0.050273772 -0.06376027
000190 ff 2a 5d bc 0f a6 4f 3c 66 bc 7b 3d f4 58 9e bc
       -0.013499021 0.012673869 0.061458968 -0.019329526
0001a0 29 37 25 bd 7b f0 48 bd 22 e8 89 bc 51 13 f5 3b
       -0.040335808 -0.049057465 -0.016834322 0.0074791093
0001b0 7e 0f fa 3c 60 37 10 bd 01 1a 24 bd 6a de 38 bd
       0.030524965 -0.03520906 -0.04006386 -0.045133986
0001c0 7d f6 60 3c 10 69 95 bc 43 3b 45 3d 67 49 0a 3d
       0.013730642 -0.018238574 0.04815222 0.03376141
0001d0 1a 58 b2 3c f5 fc 3d bd f7 cf d1 bb 1c 5b 97 3c
       0.021770526 -0.046383817 -0.006402965 0.018476062
0001e0 4c dd 19 3d 12 65 f7 bc ee 70 76 bd 9b 0f 95 3b
       0.03756456 -0.030199561 -0.060166292 0.0045489795
0001f0 08 52 a0 bc 3d 70 6d 3d ec 86 d1 3c a5 56 34 3d
       -0.019570366 0.057968367 0.025577031 0.044027943
000200 87 9a 56 3c 2d f1 2a bc ee 7d 38 bd 0f 5f 06 3c
       0.013098366 -0.010433477 -0.04504197 0.008201375
000210 45 bf 21 3d eb 3a 4d 3d 82 8c 85 3c f1 fb 2e 3d
       0.03948905 0.050105017 0.01630235 0.04272074
000220 e4 03 6e 3b 2e 70 73 bd 1e b4 8f 3b 67 46 17 3c
       0.0036318237 -0.059433155 0.0043854853 0.009233094
000230 e7 9b 4f 3d 0c 35 5b 3d 9f bc 18 3d bf 0c 48 bd
       0.05068579 0.053517386 0.037289258 -0.04884028
000240 a0 97 da bc ea 93 3a bd d1 2f aa 3c 16 35 ca bb
       -0.026683629 -0.045551218 0.020774754 -0.006170879
000250 44 e1 d3 bb 9e 16 81 bd 3a 9a cd 3c 76 06 8b 3c
       -0.0064660627 -0.06303142 0.025097955 0.016970854
000260 bf 7d 0a bd 7a 3b 30 bd c8 ff 1b bc 43 d4 51 bc
       -0.033811327 -0.04302547 -0.009521432 -0.012806955
000270 c9 fe 00 3d 4f 64 82 bd cf 34 cc bc 86 cd e8 bc
       0.031492982 -0.063667886 -0.024927525 -0.028418314
000280 17 fe 0e 3d d3 64 4f 3d 93 01 92 bc 55 fc 2e bd
       0.034910288 0.050633263 -0.017823016 -0.04272111
000290 07 bc 5f 3b 90 df 54 3d fa 3b 72 bd 36 7d b2 3b
       0.0034139173 0.05197102 -0.05913923 0.005447055
0002a0 de 6d b0 bb 13 06 4b 3d 0a 4a 72 bd b5 7f 63 3d
       -0.005384191 0.04956634 -0.05915264 0.055541713
0002b0 2e a9 36 3d 0d 5f ad 3c f1 5d 67 bc a3 0f 52 3d
       0.044594936 0.021163488 -0.0141215185 0.051284444
0002c0 ed 73 a9 3c b4 ce 1a 3d 28 b6 94 3c 42 be c4 3b
       0.02068516 0.037794784 0.018153265 0.006004126
0002d0 ef 4e c4 bc ac 24 18 3c 72 03 b4 bc 37 9a 42 3b
       -0.02396342 0.009286087 -0.0219743 0.002969397
0002e0 19 51 2f 3d 6b ef 4a bd c0 09 d5 bc be 1c 7d 3d
       0.04280195 -0.049544733 -0.026005626 0.06179499
0002f0 bb e9 5f bc 8a d0 3f 3d 91 ab 65 3d f7 81 c5 bb
       -0.0136665655 0.046829738 0.05607182 -0.006027456
000300 3f 70 86 bd 9c 6e 1a 3d 70 7c 64 3d 47 b0 49 3d
       -0.06564378 0.03770314 0.055782735 0.049240377
000310 d7 27 87 bd 39 dd ad 3b 75 4a af 3a ba be 80 bd
       -0.06599396 0.005305913 0.001337363 -0.06286378
000320 bf 0d cc bc c5 32 6e 3d e1 0e f6 3c 0f 6b 04 3d
       -0.024908898 0.058153886 0.030036392 0.03232866
000330 3b f7 8a 3c c0 e5 1a bb 46 d8 3a bd 05 d4 29 3d
       0.016963592 -0.0023635477 -0.04561641 0.041461963
000340 ac 23 ed bb 66 0b 33 bd df e5 0e bc c5 22 60 3c
       -0.0072369184 -0.043712042 -0.008721798 0.013680165
000350 a0 6f 69 3c 5c cf 4d bd 9f 0e 43 3d 5a 1c 7d 3d
       0.014247805 -0.05024658 0.047621366 0.061794616
000360 47 e2 89 bd 38 2a 5d 3d 1d b3 b2 3c 9f 11 4f bc
       -0.06732612 0.05399534 0.021813923 -0.012638479
000370 d1 bb b4 bc 87 25 c4 3c 48 8b e4 3c 17 4e 0a bc
       -0.022062214 0.023943676 0.027898446 -0.00844147
000380 f8 4f 1e bb ec 5b 14 bd df 8b 44 bd 8f cf 86 bd
       -0.0024156552 -0.036220476 -0.047984954 -0.065825574
000390 54 26 28 3b 1a 47 79 bd 5f 56 4f 3d 30 2d 93 bc
       0.002565761 -0.060858823 0.05061948 -0.017965883
0003a0 d1 cf 20 bd 25 3c ee bc b9 a7 f8 bc 04 32 12 3d
       -0.03926069 -0.029081414 -0.030353414 0.03569223
0003b0 b2 94 3a bd c4 e1 15 bd 2e ea c0 3c d4 84 92 bc
       -0.045551963 -0.03659226 0.023549166 -0.017885603
0003c0 79 63 21 3d 11 6c 61 bd 0e 15 71 bd 7f f4 4a bd
       0.039401505 -0.0550347 -0.05885797 -0.049549576
0003d0 a5 09 2c bd 60 c3 9a 3c 7f 81 d9 bc 2b 59 09 bc
       -0.042001385 0.01889199 -0.026551006 -0.008383076
0003e0 51 f4 f5 bc 53 0c 8b bc 9c 27 91 bb 53 07 50 3a
       -0.030023726 -0.01697365 -0.0044297706 0.00079356617
0003f0 92 da 32 bd b6 cd 08 bd bc 45 d9 bb 2d fb a0 bc
       -0.043665476 -0.033399306 -0.0066306274 -0.01965102

bias f4 [256]
000000 3b fb 01 3c 1b d2 18 bb 8c 85 94 3e 43 03 46 bd
       0.007933433 -0.0023318592 0.29008138 -0.048342954
000010 08 54 af 3e 05 15 74 3e af b8 42 bd 50 50 9c 3e
       0.34243798 0.23836143 -0.04753941 0.30530024
000020 b0 3e e1 3e 80 00 e2 bc ef 54 43 3d 82 8f d1 3e
       0.4399314 -0.027588129 0.04768842 0.409298
000030 96 d2 cf 3c 86 9f 78 bc 3a 1f 9d 3e 6f 73 19 3d
       0.02536897 -0.015174752 0.30687886 0.0374636
000040 67 6b 2b 3e 9e 14 c2 3d bf 49 c2 bc bd b7 d4 3e
       0.1674019 0.09476589 -0.023716806 0.4154643
000050 94 d1 59 3d a2 a6 3d bd 85 e2 b1 3c 17 30 ca 3e
       0.053178385 -0.04630149 0.021714458 0.39489815
000060 62 fe 7e bd 4f 5a a8 3e d3 7d 8f bd 92 86 40 3d
       -0.062254317 0.328814 -0.07006421 0.047003336
000070 c2 6d d2 3e 48 e8 61 3c cb c2 93 bb ee 78 7d bd
       0.41099364 0.01378829 -0.004509305 -0.061882906
000080 8b 86 d3 3e 3a ea c8 3c 58 7a 8a 3e 7d 77 f1 3c
       0.41313586 0.02452575 0.27046466 0.029475922
000090 27 ed bd 3e 8c 33 15 3d ea 64 86 3b dc 2d d1 bc
       0.37094995 0.036426112 0.0041013854 -0.025534563
0000a0 e7 b3 4b 3d 0d fa a8 bc bd fc 79 3a dc 91 ab 3e
       0.049732115 -0.020627046 0.0009536257 0.3350972
0000b0 48 9d 34 bd 5b ba c4 bb 66 a1 33 3c e4 e6 70 3e
       -0.044095308 -0.0060036606 0.010963773 0.23525578
0000c0 6a 98 f3 3c b6 39 30 3d 33 6a b2 3e 13 53 af 3e
       0.029735763 0.043023787 0.3484665 0.34243068
0000d0 40 98 90 bd 95 57 e5 3c 4d 5d 66 bc 0d 0d aa 3c
       -0.070602894 0.027995864 -0.014060331 0.020758176
0000e0 db 84 0f bd fc 12 c9 3d 56 09 8a 3c 65 ea 6b bd
       -0.03503881 0.09818074 0.016850155 -0.057596583
0000f0 a2 1d 91 3e c9 81 80 bb 2d ba af 3c 31 99 88 3e
       0.2834292 -0.0039217216 0.02145108 0.26679376
000100 eb 31 83 3e e2 ce 48 3d 27 d0 58 3c 34 0f 9f 3e
       0.25624022 0.049025424 0.013233221 0.31066287
000110 8a 62 70 3e 3c 08 e6 3e a9 e6 89 3e 37 2a 84 bd
       0.2347509 0.44928157 0.26933792 -0.06453364
000120 2c c9 20 3d 87 38 05 bd 63 f2 c0 3c af 1e 4b 3d
       0.039254352 -0.03252461 0.023553079 0.04958981
000130 04 5a 1c bd 3b be 47 bd 40 35 ad 3a 16 64 be bd
       -0.038171783 -0.048765402 0.0013214722 -0.09296434
000140 16 82 ca 3e 66 43 b2 bc b3 f8 d9 3e 7b 2d 83 bc
       0.39552373 -0.021760654 0.42572555 -0.016012898
000150 43 8d 88 bd a7 3e b8 3e e9 cb 20 bc f0 7a 5e 3d
       -0.066675685 0.359853 -0.009814241 0.05431646
000160 a8 02 a2 3e ce 40 31 3c e8 f1 85 bc ce 44 41 3c
       0.31642652 0.010818673 -0.016350701 0.0117961895
000170 fe 41 ee 3e 1e 5a 45 3c 81 6b 91 3e 58 7d d8 3c
       0.46534723 0.012045411 0.2840233 0.026426956
000180 d5 7c 3d 3d 9e 7b 0e 3d ad 27 64 bc e8 f3 8f 3e
       0.046261627 0.03478586 -0.013925475 0.28115773
000190 ed 6c ce 3e a4 39 e5 3e 97 ce 18 3d 67 6b 77 3e
       0.4031748 0.4477054 0.037306394 0.24162064
0001a0 3b fb 81 bb 24 d7 d0 bc 07 71 46 3d e7 fc dc ba
       -0.0039667166 -0.025493212 0.048447635 -0.0016860039
0001b0 7f 02 89 3e 02 38 38 3c 1b f2 74 3e 60 3e ac ba
       0.26759717 0.011243822 0.23920481 -0.0013141148
0001c0 39 2c be 3c b7 9e d4 3a 79 97 ac 3e 9e 49 f5 ba
       0.023214446 0.0016221617 0.33709314 -0.0018713956
0001d0 6f 36 46 bd 00 ea d2 bc 48 93 12 bd ed d0 26 bd
       -0.048391756 -0.025746346 -0.03578499 -0.04072659
0001e0 21 eb 23 bd 38 1d 7d 3e be 5e c8 3e c4 24 ce 3e
       -0.04001916 0.24718177 0.39134783 0.40262425
0001f0 78 cb 58 3d 99 53 20 3d 04 28 dc bb f2 4d 8b 3c
       0.052928418 0.039142225 -0.0067186374 0.01700494
000200 12 29 c1 bb 3b 30 8e 3c c0 63 df bc b8 cf 50 3d
       -0.0058947885 0.017356982 -0.027269244 0.050979346
000210 47 08 0c bd 6d 2b d1 3e ba e1 a6 bd 7a 49 9d 3e
       -0.03418758 0.40853444 -0.08148523 0.3072012
000220 c1 fd 6f bd 94 c4 3c 3e 2a 8d f8 bc 83 92 fb 3e
       -0.058591608 0.18434364 -0.03034075 0.49135217
000230 74 de d2 3e 51 97 38 3d f6 4c b9 3c a5 cd b5 3a
       0.41185343 0.04506618 0.022619706 0.0013870491
000240 e3 f0 13 3d d3 05 0a bd 7b 1f 96 bc 42 cd 0e 3d
       0.0361184 -0.03369696 -0.018325558 0.034863718
000250 2e 7b 7a 3e 67 3f 59 3e fe ec 84 3e 42 ee 7c bd
       0.24461052 0.21215592 0.2596206 -0.061750658
000260 75 f8 2b bd d7 91 86 bb 2c 68 1e 3f 40 29 ba 3e
       -0.041984994 -0.004106741 0.61877704 0.36359596
000270 7d a7 e9 bb a5 2f 6e bd 34 90 1a 3d 3d bb ed bc
       -0.007130562 -0.058150906 0.03773518 -0.029019946
000280 91 31 4f 3e bc 71 9a bb 83 6d 9f 3b ba 41 c9 3b
       0.20233752 -0.004713265 0.0048653497 0.0061418684
000290 bd 7d f1 3e f9 fd d4 3e 7a 87 cd 3c b8 40 a5 3e
       0.47166243 0.41600016 0.025089014 0.3227594
0002a0 1b 0f a2 3e 7d 40 57 3f c6 1c fa bc d8 1e ee bb
       0.3165215 0.84082776 -0.030531298 -0.0072668605
0002b0 04 86 da bd cb e4 45 bd 7e dc b5 bc 4b 96 d7 3e
       -0.10670093 -0.048313897 -0.022199865 0.42106852
0002c0 71 4a 64 bd 59 29 26 bc 98 95 80 3e 2b 7b 54 3d
       -0.055735055 -0.010141694 0.2511413 0.051875275
0002d0 0a 77 77 bd 15 ef 2b 3d cd 23 21 bd d9 f6 e3 3c
       -0.06041626 0.041976053 -0.039340783 0.027827667
0002e0 80 63 5e bc 5c 5c 1c bd 6d e1 36 bd cc a9 fa 3e
       -0.013573527 -0.03817402 -0.044648577 0.4895767
0002f0 bb 6d 8a bd d0 0b d7 bc 04 25 ec 3e 9f f8 ce 3c
       -0.06759211 -0.02625075 0.4612199 0.025265036
000300 8c 64 aa 3b df 88 23 bd cf 5e 85 bc d9 98 ba 3e
       0.0051999744 -0.039925452 -0.01628056 0.36444739
000310 90 f3 99 bd 70 0e ae bb cd 6e 3a 3d 6a 02 8c bc
       -0.07517159 -0.0053117797 0.045515824 -0.017090995
000320 d4 83 af 3e f7 83 cd 3c c7 f4 48 bd ce 4e 37 3d
       0.34280264 0.02508734 -0.049061563 0.04475289
000330 17 b2 0a 3d 61 81 65 bd 14 ce 84 3e d2 92 bf bb
       0.033861246 -0.05603159 0.25938475 -0.0058463598
000340 43 df b0 3e 36 ca ba bc 62 f0 a9 3e d5 00 28 bd
       0.34545335 -0.0228015 0.3319121 -0.04101642
000350 e8 c1 d8 3e d6 de db 3e f5 68 6c bd ae 0b 0a 3c
       0.4233544 0.42943448 -0.057717282 0.008425636
000360 a9 5c 7e 3d 83 17 52 3e 04 e9 59 bd 96 b3 b7 bc
       0.062100086 0.20516782 -0.053200737 -0.0224245
000370 6f 0b 49 bc fa 61 0d bd 3e a6 8e 3e 0e 65 c5 3c
       -0.012270792 -0.034517266 0.27861208 0.024096038
000380 37 47 b4 3e 93 39 9a 3e 3b 5f 42 3d 68 16 23 3e
       0.35210583 0.3012205 0.0474541 0.15926516
000390 6b 12 41 3c 84 e6 28 3b f7 de 42 bd 97 f3 d0 3e
       0.011784176 0.0025772164 -0.047575917 0.40810844
0003a0 b9 d5 c2 3e 90 8f a3 bd ee e6 0c 3b 07 d6 e2 3e
       0.38053682 -0.07986367 0.002149995 0.44303915
0003b0 6f 6d 1a 3d 72 da 7e 3c c5 0a e4 bc 3f 38 87 bc
       0.03770202 0.015555011 -0.027837167 -0.016506312
0003c0 3c 4f 26 bd 9d 88 77 3c 6e a2 74 bc df c3 83 bd
       -0.040602908 0.015108255 -0.014931304 -0.06433844
0003d0 0b 00 4f 3d 3a 51 b8 3e 29 ae 26 bd e7 75 8d bd
       0.05053715 0.3599947 -0.040693436 -0.06907254
0003e0 a9 f2 25 3d 8b b7 f4 3e 4c 83 68 3c 53 ab ba bc
       0.040514622 0.47796282 0.01419146 -0.022786772
0003f0 9d 03 a4 3e ec 9b 5a 3d 77 8e 05 bd f4 a6 de 3e
       0.32034007 0.053371355 -0.03260657 0.4348675

weight f4 [2, 256]
000000 bb fd 8b bb b7 29 02 b9 ee 5f 5d be d8 9b 15 bc
       -0.0042721904 -0.00012413306 -0.21618626 -0.009131394
000010 aa 68 ce be 9a 6f 3d bd f8 01 92 bc d1 69 67 bd
       -0.40314227 -0.04624901 -0.017823204 -0.0564974
000020 1d bc c2 bd 1c f2 1b 3b 45 87 a2 bb 0b 49 cb be
       -0.09508536 0.0023795431 -0.004959973 -0.39704165
000030 a1 16 23 bc f2 1f 02 3b e6 1e 2c be 8f 33 87 bc
       -0.009954126 0.0019855467 -0.16808662 -0.016504077
000040 33 ba 49 bd c5 12 c3 bb 66 f4 7a 3b c9 c1 9b be
       -0.04924984 -0.0059531652 0.0038292645 -0.30421284
000050 ff 37 46 bb 76 f6 fc bb 30 3c dd bb 72 c4 90 be
       -0.0030245779 -0.00771981 -0.0067515597 -0.28274876
000060 90 cf 9f bb 45 99 c0 bd f4 52 1f bc ed e5 ef b9
       -0.0048770383 -0.09404234 -0.009724367 -0.0004575694
000070 0f a0 bf be 23 ed 04 bc 17 e3 46 bb b5 6d 66 bc
       -0.37426803 -0.008113178 -0.0030347758 -0.014064242
000080 4c 94 5e be 36 c5 bf 3a 05 e1 3c bd 38 f2 9d 3b
       -0.21736258 0.0014630917 -0.046113033 0.0048201345
000090 bf ca c1 bd fa 36 77 bb 5a 85 f8 3a 5b f3 07 bc
       -0.09462499 -0.0037721978 0.001896064 -0.008297767
0000a0 62 08 35 ba 18 5e 98 3b 2b 60 cc 3b 42 50 2d bd
       -0.0006905851 0.0046498887 0.00623705 -0.042312868
0000b0 4f a2 86 bb fd 4c f6 bb d3 fe 06 bc 6e 05 72 be
       -0.004108704 -0.007516502 -0.008239466 -0.23634884
0000c0 f7 e1 8e 3b 30 44 b3 bc 93 ba 5a bd 52 c0 b5 be
       0.004360433 -0.0218831 -0.053400587 -0.3549829
0000d0 e3 63 85 bc 2d 6e 6b 3a 14 80 58 ba f1 f3 a7 39
       -0.016282981 0.0008980956 -0.0008258831 0.00032034473
0000e0 5b 8e 83 39 48 3a 15 be 24 41 90 3a 84 aa 19 3a
       0.0002509233 -0.14573014 0.0011005742 0.00058618956
0000f0 70 ed 0e be 05 8e 24 bb cd a0 a1 3b 1a 3c 58 bd
       -0.13957763 -0.0025109064 0.004932499 -0.052791692
000100 81 34 44 bd ff da 48 39 74 c1 17 3b 68 4b 3a bd
       -0.047901634 0.00019155069 0.0023156079 -0.04548207
000110 b9 88 20 bd 79 2c d8 bd 0e 57 d6 bc d9 27 a0 3a
       -0.03919289 -0.105553575 -0.026164558 0.0012218907
000120 d7 e1 01 bc 56 b2 cb b9 3c fc de bb b7 bf 02 bc
       -0.00792738 -0.00038852048 -0.006804971 -0.007980279
000130 8a ed 76 3c 0f db 1b ba 61 c8 ae ba a1 03 3b 3c
       0.015071282 -0.0005945423 -0.0013334864 0.011414439
000140 0d db a6 be 67 16 86 bc f4 3a bf be 2c db 9d bb
       -0.32588997 -0.016368104 -0.37349665 -0.004817387
000150 77 e7 8b bb cf ec bd bd aa 72 8b ba fd 62 aa bb
       -0.004269536 -0.09273683 -0.0010639031 -0.0051997886
000160 87 b5 5d bd a7 f7 07 3b cf 39 65 bb 0b 03 db b8
       -0.054128196 0.0020746978 -0.0034977084 -0.000104433006
000170 02 cd 71 be 00 49 98 3b 8f 37 2d bd df 4d 46 3a
       -0.2361336 0.004647374 -0.042289313 0.0007564704
000180 23 76 83 3b 12 51 72 39 9b 83 0a 3b b8 f9 76 be
       0.0040118857 0.0002310912 0.0021135572 -0.24118698
000190 85 a5 28 be 22 11 ab be 38 6f 5e ba 3a a7 2a bd
       -0.1646939 -0.3341151 -0.0008485201 -0.041663386
0001a0 20 63 80 3a 29 d8 b8 b9 84 12 d1 bb 24 9c 1e bb
       0.0009795167 -0.00035256267 -0.006380381 -0.0024201954
0001b0 8f 5e 4f bd d4 8a 11 3a 52 e0 2d bd 2b 06 02 bc
       -0.050627287 0.0005551998 -0.042450257 -0.007936041
0001c0 e1 aa b5 3a f4 c6 14 bc e4 9d 27 bd 84 19 14 3a
       0.001386013 -0.009080637 -0.04092206 0.0005649554
0001d0 b8 14 ff bb 73 36 81 3b 14 f3 a2 3b b3 1d 52 3a
       -0.0077844523 0.0039432584 0.004972825 0.000801529
0001e0 d9 90 0a 3b 8e b2 22 be 35 ed c7 be 90 6d 2f be
       0.0021143465 -0.15888426 -0.39048162 -0.17131639
0001f0 45 ec 26 ba 8c a6 df ba 17 b6 01 ba 1d ee 64 3a
       -0.00063676044 -0.0017063185 -0.0004948093 0.00087329914
000200 d9 79 63 3a ba 63 fb ba ee b5 37 bb 54 43 1f 3a
       0.00086775195 -0.0019179501 -0.0028032023 0.00060754013
000210 78 1b 54 3c 9d 34 8c be d6 31 bd bc a0 8c 48 bd
       0.012946002 -0.2738389 -0.023095053 -0.048962235
000220 31 d6 6d bb 94 e5 1f bd 1c 33 26 ba c2 25 ad be
       -0.0036290998 -0.039037302 -0.00063400134 -0.3381787
000230 1e ac 29 be ea 2f ba 37 2c e6 17 3b 36 79 3b bb
       -0.16569564 2.219524e-05 0.0023177965 -0.0028606183
000240 7f 0b 83 bc 44 52 56 3a 0d e6 a3 3b f3 18 1a bc
       -0.015996693 0.00081757107 0.0050017894 -0.009405362
000250 78 18 52 bd b6 9a 4d bd ed 68 6a be 09 da b3 3b
       -0.051292866 -0.050196372 -0.22891589 0.0054886383
000260 d3 de 83 bb fb c4 09 ba 18 ee d0 be 78 aa 57 bd
       -0.0040243655 -0.00052554876 -0.4080665 -0.052652806
000270 de 44 bb 3c 99 a4 b8 b8 d2 0d f8 bb 65 eb af bc
       0.022859987 -8.8044624e-05 -0.007570007 -0.02147455
000280 73 74 82 be 00 ab d0 bb 63 51 c6 38 b4 bf 80 ba
       -0.2547947 -0.006368041 9.456535e-05 -0.0009822757
000290 cd de 03 be 79 1f b4 be e6 bb 64 3b a0 92 6d bd
       -0.1287796 -0.35180262 0.0034902035 -0.05800116
0002a0 b1 59 ce be 29 2e 19 bf e1 b2 a3 bc 93 0e 94 39
       -0.40302804 -0.5983606 -0.019982757 0.00028239618
0002b0 8d 90 df 3b de 49 76 bc f3 b7 0a bc eb 6f c8 be
       0.0068226517 -0.01503226 -0.0084667085 -0.39147887
0002c0 54 41 97 39 c6 05 c2 3b 77 d4 4e bd f8 0d 90 39
       0.00028849638 0.0059210984 -0.05049559 0.00027476228
0002d0 21 67 a0 bb 0b e3 17 3a f4 cc 13 bc 47 7c 01 bc
       -0.0048951064 0.0005794025 -0.009021033 -0.007903165
0002e0 56 88 39 ba 9c 8c 55 39 b4 60 b4 b8 06 43 50 be
       -0.00070775056 0.00020365644 -8.601081e-05 -0.20338067
0002f0 b6 a4 ba bb 9e fe b4 bb a5 16 ba be c5 9b a9 ba
       -0.0056959046 -0.005523517 -0.363454 -0.00129401
000300 7c 64 97 b9 41 10 9e bb fc 8d a7 3a a1 73 6d be
       -0.0002887583 -0.004823715 0.0012783404 -0.2318864
000310 97 33 d3 bb 17 d1 c9 bb 15 51 7d bb ba 61 8c 3a
       -0.006445359 -0.0061589587 -0.0038653065 0.0010710277
000320 54 77 98 bd c6 81 7e ba 29 2b a7 bb b5 29 a9 bb
       -0.07444635 -0.0009708669 -0.0051015806 -0.0051624426
000330 7a 02 86 3a 3a 37 78 bb 73 49 5d bd b3 bd 88 3c
       0.0010224127 -0.0037874714 -0.054025125 0.016692018
000340 2d 94 5c bd cb ff 8d bb 41 53 5f bd a2 e9 b6 38
       -0.05385225 -0.0043334714 -0.054522756 8.721954e-05
000350 ae f9 92 be 55 5c cd be 1f b2 87 bc 6c f4 5e 3a
       -0.28706115 -0.40109506 -0.016564427 0.00085050496
000360 98 3f 1b 3a 65 4f 25 be 2d 2f 29 3a 93 55 84 3c
       0.0005922257 -0.16143568 0.0006453868 0.016154086
000370 cf 86 4f ba 86 f0 77 bb 22 92 54 bd fc 7c 55 3a
       -0.00079165114 -0.0037832572 -0.051897176 0.00081439293
000380 99 63 c7 be b3 74 04 be f3 28 0d bc d5 b0 3f be
       -0.38943174 -0.12935142 -0.00861572 -0.187198
000390 de 68 b5 3b 80 e4 55 3c d1 20 20 3c 48 2d ca be
       0.005536183 0.013054967 0.009773449 -0.39487672
0003a0 58 7c 22 be 5c 09 57 3c 9f 9b 51 3a 1e 87 08 be
       -0.15867746 0.01312479 0.00079959066 -0.13332793
0003b0 29 43 a3 bc 37 7c c7 b8 fe a2 00 38 b1 04 a0 3b
       -0.019929485 -9.512196e-05 3.0669376e-05 0.0048833718
0003c0 e5 52 a5 3b 8c 71 93 3b 1f f0 05 bb aa bb c3 3a
       0.005045282 0.00449962 -0.0020437313 0.0014933248
0003d0 f7 10 03 ba 82 2d b4 be 06 2d 00 3a 14 b1 d4 bc
       -0.00049997814 -0.3519097 0.00048895215 -0.025963344
0003e0 e0 0e 9d 3b 3a 2c 55 be d6 e4 0d 39 2b 41 78 3b
       0.004793033 -0.20817652 0.00013532056 0.003788064
0003f0 77 f3 44 bd 06 21 32 bb d4 80 9b bb ad af af be
       -0.04808375 -0.0027180328 -0.004745582 -0.34313717

bias f4 [2]
000000 e2 97 90 be 92 c1 90 be
       -0.28240877 -0.28272682
