Intelligent car/model_weight/value_net_para.pkl (torch_old, 274079 bytes, 6 tensors)

weight f4 [256, 3]
0	0xbc00f57d	-0.007871029
1	0xbbd4d2e2	-0.0064948658
2	0x3f0fdaa5	0.56193
3	0x3de07333	0.109594725
4	0x3dfd9a97	0.12383001
5	0xbede407d	-0.43408576
6	0xbd57d400	-0.052692413
7	0xbf014ed3	-0.505109
8	0xbeb4f059	-0.3533962
9	0xbf692aee	-0.9108113
10	0x3e8b2519	0.2717674
11	0xbf108232	-0.5644866
12	0x3d09ed56	0.033673607
13	0xbe188c53	-0.1489728
14	0x3f5d5954	0.8646443
15	0xbe1a0b33	-0.15043335
16	0x3ea3817f	0.31934735
17	0x3f25e8c0	0.64808273
18	0xbf376b3e	-0.71648014
19	0xbf1b0718	-0.605577
20	0x3eba8785	0.36431518
21	0xbeddedc0	-0.4334545
22	0x3f073237	0.52810997
23	0xbde196b1	-0.1101507
24	0xbf822945	-1.0168844
25	0xbf1363bf	-0.57574075
26	0x3f0faa62	0.5611936
27	0xbeecf3fb	-0.46279892
28	0x3e1f23c6	0.1554099
29	0xbf3f2a8f	-0.74674314
30	0xbf586615	-0.84530765
31	0xbf35a9e0	-0.70962334
32	0x3e96e031	0.2946792
33	0xbe2d1e52	-0.16906098
34	0x3ec0fdd3	0.37693653
35	0xbe34595c	-0.17612213
36	0xbf2e5b2a	-0.68107855
37	0xbf7d5601	-0.98959357
38	0x3ee8d58f	0.45475432
39	0xbf302417	-0.6880507
40	0xbf7836d8	-0.96958685
41	0x3ec70ff0	0.38879347
42	0x3ef6cc65	0.48202816
43	0xbdd4ef46	-0.103972
44	0x3d9dbfe5	0.077026166
45	0xbd922586	-0.07136063
46	0x3e13c887	0.14431964
47	0x3ee26395	0.442166
48	0x3e212e0b	0.1574022
49	0xbe628f7f	-0.22125052
50	0xbea2ebf3	-0.3182064
51	0x3ed57deb	0.4169763
52	0xbe1417fe	-0.14462277
53	0x3f0fb310	0.561326
54	0xbed06fdb	-0.4071034
55	0x3f20acf9	0.62763935
56	0xbe5ed1c7	-0.21759711
57	0x3d635a59	0.055506084
58	0x3e3b31ee	0.18280765
59	0x3e474f03	0.19463734
60	0x3e5720f8	0.2100867
61	0x3e966129	0.29371002
62	0x3e14887e	0.14505193
63	0x3d7eab7c	0.06217526
64	0xbe6330a4	-0.22186524
65	0x3e48c6a1	0.19607021
66	0x3e8cc54e	0.27494282
67	0xbd887205	-0.066623725
68	0xbbc54ec7	-0.006021354
69	0xbf3ef757	-0.7459616
70	0xbf44aa80	-0.7682266
71	0x3ef8e06f	0.4860873
72	0xbf0fc33f	-0.56157297
73	0xbf447bb9	-0.76751286
74	0xbf114565	-0.5674651
75	0xbe2b0fcf	-0.16705249
76	0x3eca2a98	0.3948562
77	0xbef1e58e	-0.4724545
78	0xbb344500	-0.0027506948
79	0xbf546156	-0.8296102
80	0x3f5e6d8d	0.8688591
81	0xbf165413	-0.5872204
82	0xbf80775f	-1.0036429
83	0xbea3165f	-0.31853005
84	0xbddc81d1	-0.10766948
85	0x3ee2fe6e	0.4433474
86	0xbdaf15eb	-0.085491024
87	0xbd8ee57c	-0.069773644
88	0xbce69e4b	-0.028151652
89	0x3f8a58c9	1.0808345
90	0x3eb0b002	0.34509283
91	0xbe9375c9	-0.288008
92	0x3cbe68b2	0.023243282
93	0xbf400f14	-0.7502301
94	0xbf0aa7d9	-0.54162365
95	0x3ed89576	0.4230153
96	0x3eeead7d	0.46616736
97	0xbec3e9a1	-0.38264182
98	0xbedfec9a	-0.437352
99	0x3e171b6e	0.14756557
100	0x3e6af02c	0.22943181
101	0xbf122ed4	-0.57102704
102	0xbe45e049	-0.19323839
103	0xbf4c83d1	-0.79888636
104	0xbea97cde	-0.3310308
105	0xbf486286	-0.78275335
106	0xbf302689	-0.688088
107	0xbe31670a	-0.17324463
108	0x3e55fa25	0.20896204
109	0xbe5d810d	-0.2163126
110	0x3f068cfd	0.5255888
111	0xbd0ccf21	-0.03437722
112	0xbf079732	-0.5296508
113	0x3f238eec	0.63889956
114	0xbe9f66f9	-0.3113325
115	0x3f1fff26	0.624987
116	0x3ed96025	0.42456165
117	0x3eb03b8d	0.34420434
118	0x3ebc55db	0.36784253
119	0xbf3aa240	-0.72903824
120	0x3d1d9854	0.03847535
121	0xbc418993	-0.011812585
122	0x3ed3c1a5	0.41358677
123	0x3edbf930	0.42963552
124	0xbcb28991	-0.021794112
125	0xbeae7ca2	-0.34079462
126	0xbcb16577	-0.021654828
127	0x3eed8503	0.46390542
128	0xbc73ad9c	-0.014872935
129	0x3eb85dd2	0.3600908
130	0xbec8772f	-0.3915343
131	0x3f132f55	0.574941
132	0xbf261066	-0.6486877
133	0xbf5e7b54	-0.86906934
134	0x3e4c2d53	0.19939165
135	0xbe8d5cbf	-0.27609822
136	0x3f0bf003	0.54663104
137	0x3d349967	0.04409161
138	0x3e8b4542	0.27201277
139	0x3e5a2518	0.21303213
140	0xbd83a2ea	-0.06427558
141	0x3e5c9a8f	0.21543334
142	0x3c98b8e2	0.018642846
143	0xbec0ee98	-0.37682033
144	0xbf5d88bd	-0.8653677
145	0xbf750755	-0.9571431
146	0xbee59af3	-0.4484478
147	0xbd1d568d	-0.03841262
148	0xbe982c3b	-0.29721245
149	0xbe5a6f3e	-0.21331498
150	0x3ec9a47e	0.3938331
151	0x3c037d5e	0.008025495
152	0xbee368c1	-0.44415858
153	0xbf1f99f9	-0.6234432
154	0x3e7cbfdb	0.24682562
155	0x3f04dddb	0.51901025
156	0xbe73d2e8	-0.23810923
157	0x3ee32bf7	0.4436948
158	0x3d9662a7	0.07343035
159	0xbeb5116a	-0.35364848
160	0x3f03c05b	0.51465386
161	0xbeb041ec	-0.34425294
162	0xbdacfd5a	-0.084467605
163	0x3e1ed17a	0.15509596
164	0x3c32521d	0.010883835
165	0x3efb7d8c	0.49119222
166	0x3d9883bd	0.07447002
167	0xbeb579dd	-0.35444537
168	0xbe63826f	-0.22217725
169	0x3e447e36	0.1918877
170	0x3f309970	0.6898413
171	0xbe84e33f	-0.25954625
172	0xbee207bf	-0.44146535
173	0xbec79ccd	-0.38986817
174	0x3ed0f30b	0.40810427
175	0x3e1da7fe	0.15396115
176	0x3f129656	0.57260644
177	0xbec3d24e	-0.38246387
178	0x3dc01577	0.09379094
179	0x3ea8ebd6	0.3299243
180	0x3e7f2362	0.24915841
181	0x3e458d44	0.1929217
182	0x3c87956a	0.016550738
183	0xbdcc16c1	-0.099652775
184	0xbd097e79	-0.03356788
185	0x3f84480f	1.033449
186	0x3efe5f18	0.49681926
187	0xbf02d237	-0.5110201
188	0x3f0cf212	0.5505687
189	0xbf80061c	-1.0001864
190	0xbf577ee5	-0.84178
191	0xbdc06937	-0.09395068
192	0x3e87bcc6	0.2651121
193	0x3ec9f6d0	0.39446115
194	0x3ed2a7c8	0.41143632
195	0xbf7f67dc	-0.9976785
196	0xbef5f14b	-0.48035654
197	0x3d1c93c5	0.03822686
198	0x3dddddfa	0.10833354
199	0xbe874aae	-0.26424164
200	0x3f975e12	1.1825583
201	0x3e16943a	0.14704981
202	0xbe64c0e6	-0.2233921
203	0xbd2b0eaa	-0.04176203
204	0xbeb0fecb	-0.34569392
205	0xbf64606a	-0.89209616
206	0xbeac6c87	-0.3367655
207	0xbf7dfd5d	-0.99214727
208	0xbf364e81	-0.7121354
209	0xbf0394f1	-0.5139914
210	0xbc86fb00	-0.016477108
211	0x3dc4b228	0.09604293
212	0x3ea55f75	0.3229939
213	0x3ef61d61	0.4806929
214	0xbe08352d	-0.13301535
215	0x3eaef039	0.3416765
216	0xbef4e9c0	-0.47834587
217	0xbf8042e7	-1.0020417
218	0x3f02e62a	0.5113245
219	0xbe225a56	-0.15854773
220	0x3ea897e0	0.3292837
221	0x3e94de33	0.29075775
222	0x3e8eb42b	0.27871832
223	0xbd956494	-0.072945744
224	0xbdf53b51	-0.11974204
225	0x3df67c70	0.12035453
226	0xbf5dc0af	-0.86622137
227	0x3dc3e810	0.09565747
228	0xbc8ec495	-0.017427722
229	0x3ecde46d	0.40213338
230	0xbee75289	-0.45180157
231	0x3e77e019	0.2420658
232	0x3e9f9a95	0.31172624
233	0xbf316acd	-0.6930359
234	0x3ec05db7	0.375715
235	0xbea04cd4	-0.31308615
236	0xbd97ed14	-0.07418266
237	0xbf55002d	-0.83203393
238	0xbcaa41bf	-0.020783303
239	0x3e89d97d	0.26923743
240	0x3e81a9de	0.2532491
241	0xbed0f2db	-0.40810284
242	0x3e868445	0.2627279
243	0x3e873f03	0.26415262
244	0xbf0eeacb	-0.55827016
245	0xbf45da5c	-0.77286315
246	0x3e29503f	0.16534518
247	0x3e42a192	0.19006947
248	0xbeb4daff	-0.3532333
249	0xbe8f525e	-0.2799253
250	0x3f11556b	0.5677096
251	0xbe42072a	-0.18948045
252	0xbf257cb4	-0.64643407
253	0x3cddd658	0.027079746
254	0xbf255512	-0.6458293
255	0x3db28be4	0.08718088

bias f4 [256]
0	0xbd5ea3ae	-0.054355316
1	0xbf1ae771	-0.605094
2	0x3f7675f4	0.9627373
3	0x3ee66490	0.44998598
4	0x3f5607a4	0.8360541
5	0xbe6662c0	-0.22498608
6	0x3f35c46a	0.7100283
7	0x3effeb7a	0.49984342
8	0x3ed0b284	0.40761197
9	0x3f59e168	0.8510957
10	0x3e721a33	0.23642807
11	0xbecb9207	-0.39759848
12	0x3ea6212c	0.32447183
13	0x3f1dbde8	0.616179
14	0xbebea4a5	-0.3723499
15	0xbedb7ab6	-0.4286706
16	0xbf0a92fe	-0.5413054
17	0x3f6a633e	0.9155768
18	0x3f16f70f	0.5897073
19	0xbe6c9198	-0.23102415
20	0xbee1e7a9	-0.44122055
21	0xbe59679b	-0.21230929
22	0x3e76f19a	0.24115601
23	0x3f158c9e	0.5841769
24	0x3f237cec	0.6386249
25	0xbdbc7cdf	-0.09203505
26	0x3f727fb0	0.94726086
27	0x3f7cf18f	0.9880609
28	0x3e17a31e	0.14808318
29	0x3e71a673	0.23598652
30	0xbeef5c7a	-0.46750242
31	0x3ee34a8d	0.44392815
32	0xbe17ccf0	-0.14824271
33	0xbef4b946	-0.47797602
34	0x3f081915	0.5316327
35	0x3ec53b32	0.38521725
36	0x3d810411	0.06299604
37	0x3f4c353b	0.79768723
38	0xbddbd7df	-0.107345335
39	0xbf52752c	-0.8221004
40	0xbe4a7935	-0.197728
41	0x3e04b226	0.12958583
42	0xbe6f683e	-0.23379609
43	0xbda67cc4	-0.08129266
44	0x3e6c47fb	0.23074333
45	0x3c241aae	0.010016127
46	0x3ee9284b	0.45538554
47	0x3e7ba1ad	0.24573393
48	0x3f04de11	0.51901346
49	0xbef2c577	-0.4741628
50	0xbe2f64d0	-0.171283
51	0xbe8b6eb4	-0.27232897
52	0xbee20e4b	-0.4415153
53	0xbd4af5a1	-0.049550656
54	0xbe1e874a	-0.15481296
55	0xbf31a8ee	-0.6939839
56	0xbcf390fe	-0.029732224
57	0x3f2ed6c0	0.6829643
58	0xbe8ae38c	-0.2712673
59	0x3f54e165	0.83156425
60	0xbf55fb57	-0.8358664
61	0x3e9c1156	0.30481976
62	0xbe386af7	-0.18009554
63	0xbd920854	-0.07130495
64	0xbed99a01	-0.42500308
65	0x3ec8e5d7	0.39237854
66	0x3f31da9d	0.694742
67	0x3f50814c	0.8144729
68	0x3f54f56b	0.8318698
69	0x3f0f88e5	0.5606826
70	0x3def07fb	0.11671444
71	0xbe67800e	-0.22607443
72	0x3c878ed8	0.016547605
73	0x3f62376f	0.88365835
74	0xbe846060	-0.25854778
75	0x3ef2e67b	0.47441468
76	0x3c8469e1	0.016163768
77	0xbf58ee31	-0.8473845
78	0xbc14164b	-0.009038518
79	0x3edbc25b	0.4292172
80	0xbe35bd40	-0.17747974
81	0xbf51f06e	-0.8200749
82	0xbf192605	-0.5982364
83	0x3dc10c3a	0.0942616
84	0xbf1eb773	-0.6199867
85	0x3ed99f0c	0.42504156
86	0x3f149f2d	0.5805538
87	0xbf1cf892	-0.6131679
88	0x3f5245b3	0.821376
89	0x3e63507c	0.22198671
90	0x3e7e0846	0.24807844
91	0xbe89f3f6	-0.2694394
92	0x3e95a372	0.2922626
93	0x3f0d9fbf	0.5532188
94	0x3f2bf037	0.67163414
95	0x3f7ef306	0.99589574
96	0x3e942da0	0.2894106
97	0x3ea2bb39	0.31783465
98	0xbf641272	-0.89090645
99	0xbf0eb23e	-0.55740726
100	0x3f79586a	0.97400534
101	0x3e9897d1	0.29803327
102	0x3e1b54f5	0.15169127
103	0xbef6b986	-0.48188418
104	0x3f09ae46	0.53781545
105	0x3f41f468	0.7576356
106	0xbecb80a7	-0.3974659
107	0xbcde2ea1	-0.027121844
108	0x3f0b8941	0.5450631
109	0x3e52c163	0.20581584
110	0x3d4df73a	0.0502846
111	0xbf055349	-0.5208021
112	0xbf284765	-0.6573394
113	0x3f47293e	0.77797306
114	0x3f23f139	0.6403995
115	0xbed575eb	-0.41691527
116	0xbdb10af1	-0.08644665
117	0x3e3759c6	0.1790534
118	0x3f089c6d	0.53363687
119	0xbd0c3eea	-0.034239687
120	0x3f327986	0.6971668
121	0x3f5cf40c	0.86309886
122	0x3f4478cb	0.76746815
123	0x3e8f282f	0.27960345
124	0xbf09d9f5	-0.538482
125	0x3efa74ec	0.4891733
126	0x3f80462f	1.0021418
127	0x3e862832	0.26202542
128	0xbf466165	-0.7749236
129	0x3f41c1d1	0.75686365
130	0x3ef030a5	0.46912113
131	0x3dc4b0d3	0.09604039
132	0x3f514098	0.8173919
133	0x3f0ac533	0.5420715
134	0xbf1d6bfb	-0.6149289
135	0xbeb386df	-0.35063836
136	0xbe47ec0b	-0.19523637
137	0xbd2c586a	-0.042076506
138	0x3e1bc459	0.1521162
139	0xbe5ff453	-0.21870546
140	0xbe93efb7	-0.28893825
141	0x3f28d64a	0.6595198
142	0x3e324d68	0.1741234
143	0x3eabf8b6	0.3358819
144	0xbeb4fbbe	-0.35348314
145	0x3f212104	0.62941
146	0x3f42762e	0.7596158
147	0x3f5769c0	0.84145737
148	0x3e224388	0.15846074
149	0xbf19f747	-0.6014294
150	0x3e94f1a6	0.29090613
151	0xbdb6c2f9	-0.08923907
152	0x3ec4832f	0.38381335
153	0xbe912522	-0.28348643
154	0x3f63d2d1	0.88993555
155	0x3ec50d14	0.3848654
156	0xbd54a0a9	-0.05191103
157	0xbe964743	-0.29351243
158	0xbea83560	-0.32853222
159	0x3d226049	0.039642606
160	0x3f6f5221	0.93484694
161	0x3f221dda	0.633268
162	0x3f7a48bf	0.9776725
163	0xbce3bbe5	-0.027799556
164	0x3ed149c4	0.4087659
165	0xbf17d263	-0.593054
166	0xbf0b0913	-0.5431072
167	0x3f765952	0.9623004
168	0xbee29da3	-0.44260892
169	0x3f62fda5	0.8866828
170	0x3f49a214	0.78762937
171	0xbe23a3f1	-0.15980507
172	0x3f4080fd	0.7519682
173	0x3ed2859f	0.4111757
174	0xba9b2013	-0.001183512
175	0xbf156152	-0.58351624
176	0xbf1ae7f7	-0.605102
177	0xbd659a23	-0.0560552
178	0xbe4f287e	-0.2023029
179	0x3ec24c63	0.37948903
180	0xbf66a250	-0.9009142
181	0x3bc22b19	0.005925548
182	0x3f0c4a2b	0.5480067
183	0x3f08f6e1	0.5350171
184	0x3e24c407	0.16090403
185	0x3e001217	0.125069
186	0x3f4b9c9f	0.7953586
187	0x3e5044d6	0.20338759
188	0x3f54fc8e	0.8319787
189	0x3f4888a5	0.78333503
190	0xbeda15d9	-0.42594793
191	0x3f438fa2	0.7639104
192	0xba98d3d9	-0.0011659815
193	0xbf4cff8e	-0.80077446
194	0xbec1b1e3	-0.3783103
195	0xbede8829	-0.43463257
196	0xbf25ef70	-0.6481848
197	0xbe758d70	-0.23979735
198	0x3e862eb6	0.26207513
199	0xbd0be198	-0.03415069
200	0x3f18be89	0.59665734
201	0x3f6d4071	0.92676455
202	0x3f26e15a	0.6518761
203	0x3f3de2a8	0.74173975
204	0x3f517dea	0.81832755
205	0x3f319a15	0.69375736
206	0x3f1cbdd2	0.6122714
207	0x3ec43015	0.38317934
208	0xbe83fc15	-0.2577826
209	0x3d82613f	0.063662045
210	0xbe1507a4	-0.14553696
211	0x3e593c17	0.21214329
212	0x3ef2d28b	0.47426257
213	0xbf200c7c	-0.6251905
214	0x3de4737d	0.1115484
215	0x3dae2dc0	0.0850482
216	0x3dacade2	0.08431603
217	0x3f0460db	0.5171029
218	0x3f2c5055	0.67310077
219	0xbf13fd3c	-0.5780828
220	0x3f54b6ad	0.8309124
221	0x3e91e140	0.28492165
222	0x3f50ef84	0.8161547
223	0xbd9e7a80	-0.07738209
224	0xbd44cf0c	-0.048049018
225	0x3f62597d	0.884178
226	0x3cce02d4	0.025147833
227	0xbe72f3c7	-0.23725806
228	0x3f1c5dd9	0.610807
229	0x3e852a5d	0.26008883
230	0x3eb1af75	0.34704176
231	0x3f2ad9fb	0.6673886
232	0x3f365803	0.71228045
233	0x3ef986fd	0.487358
234	0x3ed0d401	0.40786746
235	0xbef2f905	-0.47455612
236	0x3c9acbeb	0.018896064
237	0x3f2fcf8b	0.6867606
238	0x3e92e0e9	0.28687218
239	0xbe961f7b	-0.29320893
240	0xbee8f109	-0.45496395
241	0x3e41fd99	0.18944396
242	0xbed74a72	-0.42048985
243	0x3e82816b	0.25489363
244	0xbef8a9ce	-0.4856705
245	0x3f4147a3	0.75499934
246	0x3ecace87	0.39610693
247	0xbead5967	-0.3385727
248	0xbf092162	-0.53566563
249	0xbf1bd7ac	-0.60875964
250	0x3f23ac74	0.6393502
251	0xbea113d6	-0.31460446
252	0x3f0449af	0.5167493
253	0xbee58a77	-0.44832203
254	0xbeeb3974	-0.4594227
255	0xbdaa4b8d	-0.083151914

weight f4 [256, 256]
0	0x3ccdd53d	0.025126094
1	0x3d1ee0f9	0.03878877
2	0xbd3ab3c6	-0.0455816
3	0x3d2b4bea	0.041820444
4	0xbd5a294f	-0.05326205
5	0x3d67524c	0.05647497
6	0x3d7c98c6	0.061669134
7	0xbd7bab0f	-0.06144243
8	0x3d619e3c	0.055082545
9	0x3c6e97f6	0.0145625975
10	0x3d3f388c	0.046684787
11	0x3cded4f8	0.02720116
12	0xbd06d4c8	-0.032917768
13	0x3ac8d480	0.0015322119
14	0xbcb3c084	-0.021942385
15	0x3c69634c	0.014244866
16	0xbc6cc876	-0.0144520905
17	0x3ca64d89	0.020300644
18	0xbc3e69d6	-0.011621913
19	0x3cc09eda	0.023513246
20	0xbd327b19	-0.043574426
21	0x3cad7399	0.021173285
22	0x3d0d46ba	0.03449128
23	0xbaeecbc0	-0.0018218681
24	0x3d637bd0	0.055538
25	0x3d0ff0a4	0.035141602
26	0xbd85ad95	-0.06527249
27	0xbb8667a0	-0.0041017085
28	0xbd7351b1	-0.05940408
29	0x3d56a778	0.052405804
30	0xbd5df089	-0.05418447
31	0x3d20d9aa	0.03927008
32	0xbd8adc25	-0.067802705
33	0xbc262151	-0.010139779
34	0xbd8de554	-0.069285065
35	0x3aa71300	0.0012746751
36	0x3bb80d0b	0.005616789
37	0x3ca80747	0.020511283
38	0xbcf06ea9	-0.029349642
39	0xbca1552e	-0.019693937
40	0xbc3c7af9	-0.011503928
41	0xbd813cfa	-0.063104585
42	0xbcfddede	-0.03099006
43	0x3c2b014b	0.01043732
44	0xbd278b5c	-0.040904388
45	0x3cbeb6d8	0.023280546
46	0xbcf61fb3	-0.030044412
47	0x3d415c89	0.04720739
48	0xbd3e1518	-0.046406835
49	0xbd50f322	-0.05101312
50	0x3d5c5408	0.053791076
51	0x3c9c1cc6	0.019056689
52	0x3d0794c5	0.033100862
53	0x3ba670e3	0.005079375
54	0xbd65bf3c	-0.05609058
55	0x3ceb5383	0.028726345
56	0xbd6d2018	-0.057891935
57	0xbcf471b3	-0.029839372
58	0x3ca46ac6	0.020070445
59	0x3c716dca	0.014735648
60	0xbc9e133c	-0.019296281
61	0x3cb012d4	0.021493353
62	0xbc94cd5d	-0.018164331
63	0xbb7a3e40	-0.0038184077
64	0x3d274171	0.040833894
65	0xbd21ba74	-0.039484456
66	0x3d330c98	0.043713182
67	0xbd3f2afe	-0.04667186
68	0xbd41bdd4	-0.047300175
69	0xbd40f6b4	-0.047110274
70	0xbd464be9	-0.048412237
71	0xbd1f11ac	-0.038835213
72	0x3c0059f8	0.00783395
73	0xbb9bdce1	-0.0047565554
74	0xbd7fb7f1	-0.06243128
75	0x3c9aeac6	0.018910777
76	0x3d29ff97	0.041503515
77	0xbbfb2ea8	-0.007665474
78	0x3c619e47	0.013770646
79	0x3cfd6337	0.030931098
80	0x3d06f690	0.032949984
81	0x3d5651d3	0.052324127
82	0xbd66e566	-0.056371115
83	0xbcc73623	-0.024317807
84	0xba1862ea	-0.0005813079
85	0xbd214b7e	-0.039378636
86	0xbd593948	-0.053033143
87	0xbd48baba	-0.0490062
88	0xbd3797e4	-0.04482259
89	0xbc6eefc0	-0.014583528
90	0x3cc845db	0.024447372
91	0x3c06bdb8	0.008223943
92	0xbd2b49ba	-0.041818358
93	0xbd7bdce6	-0.061489962
94	0x3d001578	0.031270474
95	0x3d22881c	0.039680585
96	0xbd4fc5e1	-0.05072582
97	0x3b85d43b	0.0040841377
98	0x3d4debeb	0.050273817
99	0xbd8294f8	-0.0637607
100	0xbc5d2ae8	-0.013498999
101	0x3c4fa650	0.012673929
102	0x3d7bbc6c	0.06145899
103	0xbc9e5931	-0.01932964
104	0xbd253747	-0.04033592
105	0xbd48f09a	-0.04905758
106	0xbc89e7d0	-0.01683417
107	0x3bf51336	0.0074790968
108	0x3cfa0fc2	0.030525092
109	0xbd103795	-0.035209257
110	0xbd241a1a	-0.040063955
111	0xbd38de95	-0.045134146
112	0x3c60f697	0.013730667
113	0xbc95691c	-0.018238597
114	0x3d453b56	0.04815229
115	0x3d0a4973	0.033761453
116	0x3cb25863	0.021770662
117	0xbd3dfce2	-0.046383746
118	0xbbd1cfa0	-0.0064029247
119	0x3c975b2f	0.018476097
120	0x3d19dd4a	0.037564553
121	0xbcf76508	-0.030199543
122	0xbd7670ea	-0.060166277
123	0x3b950f7c	0.004548965
124	0xbca051ec	-0.019570313
125	0x3d6d7084	0.05796863
126	0x3cd18704	0.025577076
127	0x3d345648	0.044027597
128	0x3c569a5a	0.013098324
129	0xbc2af182	-0.0104335565
130	0xbd387e31	-0.04504222
131	0x3c065f4d	0.008201432
132	0x3d21bf4b	0.03948907
133	0x3d4d3b0a	0.050105132
134	0x3c858c70	0.016302317
135	0x3d2efc3b	0.042721014
136	0x3b6e03ce	0.0036318186
137	0xbd73704c	-0.059433267
138	0x3b8fb3d2	0.00438545
139	0x3c174648	0.009233065
140	0x3d4f9c25	0.05068602
141	0x3d5b353a	0.053517558
142	0x3d18bc94	0.037289217
143	0xbd480cee	-0.048840456
144	0xbcda97af	-0.026683656
145	0xbd3a940c	-0.045551345
146	0x3caa2fe4	0.02077479
147	0xbbca34dc	-0.006170852
148	0xbbd3e180	-0.0064660907
149	0xbd8116c6	-0.06303172
150	0x3ccd9a0f	0.025097875
151	0x3c8b0618	0.01697068
152	0xbd0a7dc8	-0.03381136
153	0xbd303bc6	-0.043025754
154	0xbc1bffc8	-0.009521432
155	0xbc51d3fc	-0.012806889
156	0x3d00fe7d	0.0314927
157	0xbd82647f	-0.06366824
158	0xbccc3524	-0.024927683
159	0xbce8cdda	-0.02841847
160	0x3d0efe61	0.034910563
161	0x3d4f64e6	0.050633334
162	0xbc920130	-0.017822832
163	0xbd2efc5b	-0.042721134
164	0x3b5fbbdd	0.0034139075
165	0x3d54dfb2	0.051971145
166	0xbd723c2c	-0.059139416
167	0x3bb27d30	0.0054470524
168	0xbbb06de0	-0.005384192
169	0x3d4b0623	0.0495664
170	0xbd724a5e	-0.059152953
171	0x3d637feb	0.055541914
172	0x3d36a954	0.044595078
173	0x3cad5f14	0.0211635
174	0xbc675e2b	-0.0141215725
175	0x3d520f90	0.051284373
176	0x3ca97412	0.02068523
177	0x3d1aceb6	0.03779479
178	0x3c94b656	0.01815335
179	0x3bc4be2d	0.006004116
180	0xbcc44ef2	-0.023963425
181	0x3c1824af	0.00928609
182	0xbcb40395	-0.021974364
183	0x3b429a69	0.0029694086
184	0x3d2f5130	0.042802036
185	0xbd4aef8d	-0.04954486
186	0xbcd50a0c	-0.026005767
187	0x3d7d1ce8	0.061795145
188	0xbc5fe978	-0.013666503
189	0x3d3fd0c1	0.046829943
190	0x3d65ab91	0.05607182
191	0xbbc58240	-0.00602749
192	0xbd867040	-0.06564379
193	0x3d1a6ec2	0.037703283
194	0x3d647c11	0.05578238
195	0x3d49b072	0.049240537
196	0xbd872827	-0.06599455
197	0x3baddd68	0.0053059347
198	0x3aaf4a80	0.0013373643
199	0xbd80bed3	-0.06286397
200	0xbccc0e10	-0.02490905
201	0x3d6e3302	0.058154114
202	0x3cf60ec7	0.030036343
203	0x3d046b4e	0.032328896
204	0x3c8af770	0.01696369
205	0xbb1ae5b9	-0.002363546
206	0xbd3ad87f	-0.045616623
207	0x3d29d43c	0.041462168
208	0xbbed2356	-0.0072368784
209	0xbd330b89	-0.043712173
210	0xbc0ee5eb	-0.008721809
211	0x3c602308	0.013680227
212	0x3c696f39	0.014247709
213	0xbd4dcfb2	-0.0502469
214	0x3d430ec0	0.04762149
215	0x3d7d1caa	0.061794914
216	0xbd89e27b	-0.06732651
217	0x3d5d2a4b	0.05399541
218	0x3cb2b2ed	0.021813834
219	0xbc4f11d5	-0.012638529
220	0xbcb4bb80	-0.022062063
221	0x3cc425d1	0.023943814
222	0x3ce48aee	0.027898278
223	0xbc0a4e18	-0.008441471
224	0xbb1e5037	-0.0024156698
225	0xbd145c13	-0.03622062
226	0xbd448bd6	-0.04798492
227	0xbd86cfdd	-0.065826155
228	0x3b282600	0.0025657415
229	0xbd794730	-0.060858905
230	0x3d4f5682	0.05061961
231	0xbc932d7e	-0.017966028
232	0xbd20cffc	-0.03926085
233	0xbcee3c3a	-0.029081453
234	0xbcf8a798	-0.030353352
235	0x3d123221	0.035692338
236	0xbd3a94d2	-0.045552082
237	0xbd15e214	-0.036592558
238	0x3cc0e9ea	0.023549039
239	0xbc9284eb	-0.017885646
240	0x3d21638d	0.03940158
241	0xbd616c1c	-0.05503474
242	0xbd711512	-0.058857985
243	0xbd4af4d5	-0.049549896
244	0xbd2c09c2	-0.042001493
245	0x3c9ac35b	0.01889198
246	0xbcd98129	-0.026550846
247	0xbc095951	-0.008383111
248	0xbcf5f42a	-0.030023653
249	0xbc8b0c7e	-0.01697373
250	0xbb9127c7	-0.0044297907
251	0x3a5006f2	0.0007935605
252	0xbd32da94	-0.043665484
253	0xbd08cd4b	-0.033398908
254	0xbbd945dc	-0.0066306423
255	0xbca0fb3d	-0.01965105

bias f4 [256]
0	0x3c01fb3c	0.007933434
1	0xbb18d1be	-0.0023318375
2	0x3e90dfe1	0.28295806
3	0xbd460385	-0.0483432
4	0x3eb0230f	0.34401748
5	0x3e776455	0.24159367
6	0xbd42b8ca	-0.04753951
7	0x3e9df538	0.3085115
8	0x3ee13b61	0.43990615
9	0xbce20017	-0.027587933
10	0x3d4354fc	0.04768847
11	0x3ed25dcb	0.41087183
12	0x3ccfd263	0.025368875
13	0xbc789fbc	-0.015174802
14	0x3e9d7840	0.30755806
15	0x3d197316	0.03746327
16	0x3e2804e9	0.16408123
17	0x3dc2146f	0.09476554
18	0xbcc249b7	-0.02371679
19	0x3ed56080	0.41675186
20	0x3d59d1dd	0.053178657
21	0xbd3da6e3	-0.046301734
22	0x3cb1e235	0.02171431
23	0x3ecb4fa9	0.39709213
24	0xbd7efeb5	-0.062254626
25	0x3ea85df1	0.32884172
26	0xbd8f7e26	-0.07006483
27	0x3d408662	0.047003157
28	0x3ed33ef6	0.41258973
29	0x3c61e7d9	0.013788187
30	0xbb93c288	-0.004509274
31	0xbd7d78fa	-0.06188295
32	0x3ed40c9c	0.4141587
33	0x3cc8ea1c	0.024525695
34	0x3e8c1ef1	0.27367356
35	0x3cf1776b	0.029475888
36	0x3ebddc78	0.37082267
37	0x3d15338f	0.036426123
38	0x3b86648b	0.004101341
39	0xbcd12e11	-0.025534661
40	0x3d4bb43a	0.049732424
41	0xbca8fa1b	-0.020627072
42	0x3a79fc77	0.00095362164
43	0x3ead3681	0.33830646
44	0xbd349d79	-0.04409549
45	0xbbc4ba72	-0.0060036713
46	0x3c33a186	0.010963803
47	0x3e720d4c	0.23637885
48	0x3cf3986f	0.029735772
49	0x3d06f707	0.032950427
50	0x3eb41049	0.35168675
51	0x3eb023dc	0.3440236
52	0xbd90988e	-0.070603475
53	0x3ce5578d	0.027995849
54	0xbc665d76	-0.014060369
55	0x3caa0d18	0.020758197
56	0xbd0f8524	-0.035039082
57	0x3dcf6778	0.10127157
58	0x3c8a0927	0.016850067
59	0xbd6bea6c	-0.05759661
60	0x3e914a0d	0.2837681
61	0xbb80818f	-0.0039216946
62	0x3cafba26	0.021451067
63	0x3e8a3d98	0.27000117
64	0x3e84dadd	0.2594823
65	0x3d48ceb7	0.049025264
66	0x3c58cfd2	0.013233142
67	0x3ea0b47c	0.313877
68	0x3e7062cd	0.2347519
69	0x3ee5e7c9	0.449034
70	0x3e8b9aa8	0.2726643
71	0xbd842a5a	-0.064533904
72	0x3d20c8cb	0.03925399
73	0xbd0538a0	-0.032524705
74	0x3cc0f257	0.023553057
75	0x3d4b1ef7	0.049590077
76	0xbd1c5a22	-0.038171895
77	0xbd47be34	-0.048765376
78	0x3aad34fa	0.0013214641
79	0xbdbe6438	-0.09296459
80	0x3ecb3b71	0.39693788
81	0xbcb2435b	-0.021760633
82	0x3edacd82	0.42734915
83	0xbc832d8f	-0.016012935
84	0xbd888d9a	-0.06667633
85	0x3eb7f8a9	0.359319
86	0xbc20cbff	-0.009814261
87	0x3d5e7af0	0.05431646
88	0x3ea3a807	0.31964132
89	0x3c3140d6	0.010818681
90	0xbcd3ef15	-0.02587084
91	0x3c4144a9	0.011796155
92	0x3eeef631	0.46672204
93	0x3c4559cb	0.012045334
94	0x3e8f42b0	0.27980566
95	0x3cd87d69	0.026426988
96	0x3d3d7cab	0.04626147
97	0x3d0e7b8a	0.034785785
98	0xbc6427a7	-0.0139254695
99	0x3e8fd8c1	0.28095058
100	0x3ecebfad	0.40380612
101	0x3ee590d1	0.4483705
102	0x3d18ce4e	0.037306122
103	0x3e7abf23	0.24486975
104	0xbb81fb64	-0.0039667357
105	0xbcd0d75c	-0.025493316
106	0x3d467149	0.04844788
107	0xbadcfc9c	-0.0016859951
108	0x3e8aaa21	0.27082923
109	0x3c383810	0.011243835
110	0x3e784214	0.24243957
111	0xbaac3e28	-0.0013141083
112	0x3cbe2bfd	0.023214335
113	0x3ad49ea2	0.0016221593
114	0x3eae421a	0.34034806
115	0xbaf54999	-0.001871395
116	0xbd4636ad	-0.048391987
117	0xbcd2ea4f	-0.025746493
118	0xbd129375	-0.035785157
119	0xbd26d0e8	-0.040726572
120	0xbd23eb38	-0.040019244
121	0x3e7e12b7	0.24811827
122	0x3ec9367e	0.39299387
123	0x3ece8c0f	0.4034123
124	0x3d58cb85	0.052928466
125	0x3d2053af	0.039142307
126	0xbbdc2812	-0.006718644
127	0x3c8b4de0	0.017004907
128	0xbbc12900	-0.00589478
129	0x3c8e308b	0.017357131
130	0xbcdf63c2	-0.027269248
131	0x3d50cfb4	0.05097933
132	0xbd0c0892	-0.03418786
133	0x3ed1dc3e	0.40988344
134	0xbda6e212	-0.08148588
135	0x3e9eeb52	0.3103891
136	0xbd6ffe10	-0.058591902
137	0x3e3756f3	0.17904262
138	0xbcf88d37	-0.030340774
139	0x3efbf4ec	0.49210298
140	0x3ed47d26	0.4150173
141	0x3d38973e	0.04506611
142	0x3cb94d40	0.022619843
143	0x3ab5cd76	0.0013870436
144	0x3d13f07d	0.03611802
145	0xbd0a061e	-0.03369724
146	0xbc961f32	-0.018325422
147	0x3d0eccf9	0.034863446
148	0x3e7dc81e	0.2478337
149	0x3e55de1e	0.20885512
150	0x3e859857	0.2609279
151	0xbd7cee8e	-0.06175094
152	0xbd2bf8b5	-0.041985232
153	0xbb869200	-0.00410676
154	0x3f1ed0ea	0.6203753
155	0x3ebbcf76	0.36681718
156	0xbbe9a7cc	-0.0071305986
157	0xbd6e2fae	-0.05815094
158	0x3d1a9053	0.037735295
159	0xbcedbb37	-0.029019935
160	0x3e50c7b5	0.20388682
161	0xbb9a71c5	-0.0047132694
162	0x3b9f6d51	0.0048653265
163	0x3bc94150	0.006141819
164	0x3ef1bada	0.4721287
165	0x3ed5c1b9	0.4174936
166	0x3ccd876c	0.025088988
167	0x3ea6e2e2	0.32594973
168	0x3ea2eb25	0.31820026
169	0x3f572b3d	0.8405035
170	0xbcfa1cb9	-0.030531274
171	0xbbee1eb0	-0.007266842
172	0xbdda8748	-0.10670334
173	0xbd45e4ec	-0.04831402
174	0xbcb5dca1	-0.02219993
175	0x3ed86fc6	0.42272776
176	0xbd644ac4	-0.055735365
177	0xbc26298f	-0.010141744
178	0x3e7e3739	0.24825753
179	0x3d547b0a	0.05187515
180	0xbd77771c	-0.060416326
181	0x3d2bef0f	0.04197603
182	0xbd2123fd	-0.03934096
183	0x3ce3f721	0.027827801
184	0xbc5e63b0	-0.013573572
185	0xbd1c5c78	-0.038174123
186	0xbd36e103	-0.04464818
187	0x3efb1ec9	0.49046925
188	0xbd8a6df3	-0.067592524
189	0xbcd70bca	-0.026250739
190	0x3eecf8ab	0.4628347
191	0x3ccef895	0.025265018
192	0x3baa6480	0.005199969
193	0xbd265bd6	-0.040614925
194	0xbc855f22	-0.016280714
195	0x3ebb385e	0.36566442
196	0xbd99f391	-0.0751716
197	0xbbae0e3c	-0.0053117555
198	0x3d3a6e61	0.04551542
199	0xbc8c0224	-0.017090864
200	0x3eaf959d	0.34293833
201	0x3ccd8428	0.025087431
202	0xbd48f4c6	-0.04906156
203	0x3d374f1a	0.04475317
204	0x3d0ab215	0.03386124
205	0xbd65817b	-0.056031685
206	0x3e83735c	0.2567395
207	0xbbbf9303	-0.0058463826
208	0x3eb28301	0.34865573
209	0xbcbaca34	-0.022801496
210	0x3eab9627	0.33512995
211	0xbd280128	-0.041016728
212	0x3ed97c31	0.42477563
213	0x3edcaaae	0.43098968
214	0xbd6c6936	-0.057717524
215	0x3c0a0b88	0.008425601
216	0x3d7e5c46	0.062099718
217	0x3e52d16a	0.20587698
218	0xbd59e904	-0.053200737
219	0xbcb7b3c3	-0.022424584
220	0xbc490b98	-0.012270831
221	0xbd0d6198	-0.0345169
222	0x3e8d3317	0.2757804
223	0x3cc564ec	0.024095975
224	0x3eb51fb9	0.35375765
225	0x3e9bed50	0.30454493
226	0x3d425f6e	0.04745429
227	0x3e2485ba	0.16066638
228	0x3c41127b	0.011784191
229	0x3b28e62a	0.0025771954
230	0xbd42deeb	-0.047575872
231	0x3ed1ceea	0.40978175
232	0x3ec327e5	0.38116375
233	0xbda38feb	-0.079864345
234	0x3b0ce6e1	0.002149992
235	0x3ee3168c	0.4435314
236	0x3d1a6d4e	0.037701897
237	0x3c7eda68	0.015555002
238	0xbce40ae4	-0.027837224
239	0xbc873860	-0.016506374
240	0xbd264f02	-0.04060269
241	0x3c778865	0.015108203
242	0xbc74a28c	-0.014931332
243	0xbd83c431	-0.06433905
244	0x3d4f0026	0.05053725
245	0x3eb85dea	0.3600915
246	0xbd26ae65	-0.04069366
247	0xbd8d75e6	-0.06907253
248	0x3d25f2fe	0.04051494
249	0x3ef50abb	0.4785975
250	0x3c688318	0.014191411
251	0xbcbaab86	-0.022786867
252	0x3ea5aa4f	0.32356498
253	0x3d5a9c09	0.053371463
254	0xbd058ed1	-0.032606903
255	0x3edf7671	0.4364505

weight f4 [2, 256]
0	0xbb8bfddb	-0.0042722053
1	0xb90229ee	-0.00012413386
2	0xbe5537ac	-0.20822018
3	0xbc159c11	-0.009131447
4	0xbecefca6	-0.4042713
5	0xbd42d649	-0.04756764
6	0xbc920230	-0.017823309
7	0xbd6cc688	-0.05780652
8	0xbdc808c5	-0.09767298
9	0x3b1bf25c	0.002379558
10	0xbba28741	-0.004959971
11	0xbecbe105	-0.39820114
12	0xbc2316e5	-0.009954189
13	0x3b021fa4	0.0019855285
14	0xbe2d3f7f	-0.16918753
15	0xbc8733ac	-0.016504131
16	0xbd4c7344	-0.049914613
17	0xbbc3135d	-0.005953236
18	0x3b7af4a2	0.0038292785
19	0xbe9c5f4b	-0.30541453
20	0xbb46384b	-0.0030245956
21	0xbbfcf6b7	-0.0077198404
22	0xbbdd3c73	-0.006751591
23	0xbe965e52	-0.29368836
24	0xbb9fcfa3	-0.004877047
25	0xbdc67e63	-0.09692075
26	0xbc1f52fe	-0.009724377
27	0xb9efe604	-0.00045757007
28	0xbec03f17	-0.37548134
29	0xbc04ed2b	-0.008113186
30	0xbb46e33c	-0.0030347845
31	0xbc666dc2	-0.014064254
32	0xbe5fbf55	-0.21850331
33	0x3abfc589	0.0014631014
34	0xbd420c4c	-0.04737501
35	0x3b9df25e	0.004820152
36	0xbdc77239	-0.09738583
37	0xbb7736ef	-0.0037721952
38	0x3af885a4	0.0018960726
39	0xbc07f35b	-0.008297767
40	0xba35087b	-0.0006905866
41	0x3b985e10	0.004649885
42	0x3bcc6051	0.0062370677
43	0xbd326940	-0.043557405
44	0xbb86a486	-0.004108968
45	0xbbf64ccf	-0.0075164805
46	0xbc06fee6	-0.008239483
47	0xbe72c458	-0.23707712
48	0x3b8ee1f7	0.004360433
49	0xbcb0571b	-0.02152591
50	0xbd6013d0	-0.054706395
51	0xbeb65c92	-0.356175
52	0xbc85642e	-0.016283121
53	0x3a6b6e3f	0.00089809665
54	0xba588046	-0.00082588603
55	0x39a7f411	0.00032034566
56	0x39838e9c	0.0002509252
57	0xbe182a1a	-0.1485981
58	0x3a90414b	0.0011005787
59	0x3a19aa80	0.00058618933
60	0xbe0ff233	-0.14057235
61	0xbb248e16	-0.0025109104
62	0x3ba1a125	0.00493254
63	0xbd5d7453	-0.054066014
64	0xbd499ec2	-0.04922367
65	0x3948db25	0.00019155124
66	0x3b17c184	0.0023156116
67	0xbd3f809f	-0.046753522
68	0xbd2088f1	-0.039193098
69	0xbdd9faff	-0.10643577
70	0xbce5664c	-0.02800288
71	0x3aa027e1	0.0012218916
72	0xbc01e21e	-0.007927446
73	0xb9cbb221	-0.00038851894
74	0xbbdefc3a	-0.00680497
75	0xbc02bfb1	-0.007980273
76	0x3c76edc5	0.015071337
77	0xba1bdaca	-0.0005945383
78	0xbaaec87a	-0.0013334893
79	0x3c3b037c	0.011414405
80	0xbea773b8	-0.32705474
81	0xbc8616be	-0.016368266
82	0xbebfd16e	-0.3746447
83	0xbb9ddb7a	-0.0048174234
84	0xbb8be779	-0.004269537
85	0xbdbddcaf	-0.09270608
86	0xba8b7293	-0.0010639004
87	0xbbaa62f8	-0.0051997863
88	0xbd631309	-0.055438075
89	0x3b07f7ce	0.0020747068
90	0xbacae192	-0.0015478602
91	0xb8db02ea	-0.000104432766
92	0xbe714bea	-0.23564115
93	0x3b98490a	0.004647379
94	0xbd30943f	-0.04311013
95	0x3a464de6	0.00075647084
96	0x3b83766b	0.0040119193
97	0x3972512b	0.00023109156
98	0x3b0a83d1	0.0021135698
99	0xbe7f771d	-0.24947782
100	0xbe29b7e8	-0.16574061
101	0xbeaae601	-0.33378604
102	0xba5e6f51	-0.00084852154
103	0xbd300d50	-0.042981446
104	0x3a806334	0.000979519
105	0xb9b8d7f0	-0.000352561
106	0xbbd112b0	-0.0063804016
107	0xbb1e9c30	-0.0024201982
108	0xbd54c594	-0.051946238
109	0x3a118b15	0.0005552036
110	0xbd334196	-0.04376372
111	0xbc020643	-0.007936063
112	0x3ab5aa9b	0.0013860048
113	0xbc14c72a	-0.009080688
114	0xbd2d1a8b	-0.04226164
115	0x3a14198e	0.000564956
116	0xbbff1522	-0.0077845016
117	0x3b81363c	0.003943233
118	0x3ba2f2c6	0.0049727885
119	0x3a521d90	0.00080152694
120	0x3b0a90ff	0.0021143553
121	0xbe22dfcd	-0.15905686
122	0xbec88bd7	-0.3916919
123	0xbe309d90	-0.17247605
124	0xba26ec94	-0.00063676503
125	0xbadfa6e3	-0.0017063286
126	0xba01b66b	-0.0004948142
127	0x3a64ee21	0.0008732994
128	0x3a6379ff	0.00086775416
129	0xbafb63ba	-0.0019179501
130	0xbb37b5e7	-0.0028032006
131	0x3a1f435f	0.0006075408
132	0x3c541bb2	0.012946056
133	0xbe8cd7a0	-0.2750826
134	0xbcbd31f6	-0.023095112
135	0xbd4d8c22	-0.05018247
136	0xbb6dd67e	-0.0036291177
137	0xbd2272d2	-0.039660282
138	0xba263305	-0.000634
139	0xbead973c	-0.33904445
140	0xbe2aebcb	-0.1669151
141	0x37ba303d	2.219539e-05
142	0x3b17e674	0.0023178132
143	0xbb3b7987	-0.0028606371
144	0xbc830bd5	-0.015996853
145	0x3a565240	0.00081757084
146	0x3ba3e60e	0.00500179
147	0xbc1a1945	-0.009405439
148	0xbd57754e	-0.052602105
149	0xbd515ba6	-0.051112793
150	0xbe6b83f6	-0.22999558
151	0x3bb3d9ea	0.005488624
152	0xbb83decf	-0.0040243636
153	0xba09c525	-0.0005255512
154	0xbed19de3	-0.4094077
155	0xbd5d03bc	-0.05395864
156	0x3cbb44de	0.022859987
157	0xb8b8a48c	-8.804453e-05
158	0xbbf80e17	-0.007570039
159	0xbcafeba4	-0.021474667
160	0xbe815309	-0.25258663
161	0xbbd0ab1f	-0.0063680555
162	0x38c651ad	9.456589e-05
163	0xba80bfea	-0.000982282
164	0xbe040b8b	-0.12895028
165	0xbeb4b30e	-0.35292858
166	0x3b64bc35	0.003490222
167	0xbd72a391	-0.05923802
168	0xbecefa11	-0.4042516
169	0xbf195170	-0.5988989
170	0xbca3b2da	-0.019982744
171	0x39940e88	0.00028239586
172	0x3bdf7a13	0.0068199723
173	0xbc7649e0	-0.015032262
174	0xbc0ab80b	-0.008466731
175	0xbec909c8	-0.39265275
176	0x39974163	0.0002884968
177	0x3bc20594	0.005921075
178	0xbd52b6b3	-0.051443767
179	0x39900e0b	0.00027476283
180	0xbba06753	-0.0048951297
181	0x3a17e2f2	0.00057940104
182	0xbc13ccf8	-0.009021036
183	0xbc017c5a	-0.007903183
184	0xba398892	-0.00070775405
185	0x39558ccd	0.00020365715
186	0xb8b459d0	-8.599798e-05
187	0xbe50457a	-0.20339003
188	0xbbbaa4ba	-0.0056959065
189	0xbbb4fee9	-0.0055235517
190	0xbebab94f	-0.36469504
191	0xbaa99be9	-0.0012940142
192	0xb99764ad	-0.00028875974
193	0xbbafc86b	-0.005364468
194	0x3aa78dd7	0.001278336
195	0xbe6eb0c0	-0.23309612
196	0xbbd3341c	-0.006445421
197	0xbbc9d143	-0.006158979
198	0xbb7d50e9	-0.0038652963
199	0x3a8c6185	0.0010710215
200	0xbd9d60dd	-0.07684491
201	0xba7e820b	-0.0009708709
202	0xbba72b5f	-0.005101606
203	0xbba929c3	-0.005162449
204	0x3a86022a	0.0010224034
205	0xbb783747	-0.0037874745
206	0xbd616577	-0.055028405
207	0x3c88bdbe	0.016692039
208	0xbd61c8f3	-0.05512328
209	0xbb8dfff2	-0.0043334896
210	0xbd64e98d	-0.055886794
211	0x38b6e9cb	8.7219836e-05
212	0xbe939de1	-0.2883139
213	0xbecdefea	-0.40222102
214	0xbc87b249	-0.016564505
215	0x3a5ef48e	0.00085050694
216	0x3a1b3fe8	0.00059223035
217	0xbe269ad3	-0.16269998
218	0x3a292f2c	0.00064538675
219	0x3c845591	0.016154082
220	0xba4f86e8	-0.0007916526
221	0xbb77f0b6	-0.0037832684
222	0xbd589645	-0.052877683
223	0x3a557d50	0.0008143978
224	0xbec8090e	-0.39069408
225	0xbe0758eb	-0.13217513
226	0xbc0d2941	-0.008615793
227	0xbe3c1135	-0.18365939
228	0x3bb568fb	0.0055361963
229	0x3c55e49b	0.013054992
230	0x3c202105	0.0097734975
231	0xbecad0b4	-0.39612353
232	0xbe23ac34	-0.15983659
233	0x3c570bce	0.013125373
234	0x3a519b77	0.00079958834
235	0xbe09adcd	-0.13445206
236	0xbca34349	-0.019929545
237	0xb8c77c6b	-9.512234e-05
238	0x3800a313	3.0669453e-05
239	0x3ba004d4	0.004883388
240	0x3ba552f8	0.005045291
241	0x3b9371d1	0.004499652
242	0xbb05f044	-0.00204374
243	0x3ac3bb96	0.0014933224
244	0xba031134	-0.0004999817
245	0xbeb4587a	-0.35223752
246	0x3a002d23	0.00048895384
247	0xbcd4b15e	-0.025963482
248	0x3b9d0f10	0.0047930554
249	0xbe55adff	-0.20867155
250	0x390de4ac	0.00013531995
251	0x3b783f7e	0.0037879641
252	0xbd4a4b19	-0.049388025
253	0xbb3220fb	-0.0027180302
254	0xbb9b8129	-0.0047456217
255	0xbeb05b78	-0.34444785

bias f4 [2]
0	0xbe923b47	-0.2856085
1	0xbe92565e	-0.28581518
