Intelligent car/model_weight/value_net_para2.pkl (torch_old, 274081 bytes, 6 tensors)

weight f4 [256, 3]
00000000: 9984 91bf 2cf2 5fbf 29e4 e23e f6bf 9d3e
00000010: c018 373e e1ed 9dbf 5fc9 99bf 93e3 9fbf
00000020: 8653 9f3d d54e 6a3e 470a cd3d 2e19 45bf
00000030: f942 f33d cf50 053e d1cb bdbf 0f01 d7bd
00000040: 36ce 083e 66dd 1a3f 726c 5e3e 8960 9a3e
00000050: cb3a 283e c166 af3e 5b58 a8be 8419 863e
00000060: 19f4 50bd 72fd 953e 99b4 9dbf 6288 a53d
00000070: fecf ac3d f09d 6ebf dbf3 07bf c7f5 9a3e
00000080: d640 b7bd 34f0 ff3e 2cc0 22bf 4be7 81bf
00000090: cc7b 483e 6068 6b3e 75a2 94bf 9b6b da3a
000000a0: e0e3 14bd 3f92 533f 36b3 9ebf 2e8e 61bf
000000b0: 81fd 903e 9e40 80bd 52a5 f33c 757e 7f3f
000000c0: f64e 153e b3cf 3e3e d288 b1bf 6e61 dd38
000000d0: a901 83bd d348 7b3f fa13 b4bd c219 5bbe
000000e0: faf0 babe e0ee b73e 4a26 99be e084 de3e
000000f0: 0cc8 90be 4ef9 79bf 61b3 e8bd 852c db3d
00000100: 1fd8 ee3d b98a a8bf 8ecf 853e 04e5 883e
00000110: 674c 8a3e 336c 513e 77ee d9be aebb 68be
00000120: 438b c6bd bf49 5dbf 4c2b 1cbf 2a4e 8cbf
00000130: 8ac7 90bf 7754 a5bd 3609 8d3e 0bbf cabe
00000140: 1e85 f4bd c382 e33e b751 1cbf a6cb 01bf
00000150: 34df 87be aef3 f13e 57c3 cbbe fee4 84bf
00000160: c010 76bf e2ea 0b3d 19fe c73d 7b42 c83e
00000170: fd9f 66bf f2de 78bf af7c 733e e555 8abf
00000180: aa53 e03e 4335 0abf 6b9a bbbf 910b c3be
00000190: cfa0 ecbd b947 c2be ae23 bebc cb7e d73d
000001a0: 4998 a13e d296 78be 9a73 063e 2240 f33e
000001b0: d663 b93d 368c 14bc 183d 123f ed4f e7be
000001c0: 80d1 5e3e fb00 023f a61f f03e 184f bc3e
000001d0: 3287 b63e c18e 9bbf fa86 85bf e666 c43e
000001e0: e1a5 8dbd 3847 a53d b3a3 733f 5803 823d
000001f0: eb6e f33e aa30 cb3d ddbf d93d 9c23 e93d
00000200: f215 a9bf be8f bd3e 2ce7 2abf 4cb1 eb3e
00000210: 1393 d1be e067 683d ef8d 563e 697c 17ba
00000220: 6a67 75bd d83c 603f 7605 e53e 0155 0bbf
00000230: 9ae4 c5bf 563c 98bf 64c8 55bf 460a bc3d
00000240: 6249 8f3e a68d 04bf 9809 2e3f a1aa 18be
00000250: f473 6d3e 7872 883e 7cc7 c13e e28b 733e
00000260: 3850 37bf b642 433e 4460 b7be f243 e83e
00000270: 453b 3fbf f2bd 7cbf f6dc 073e 3e71 0ebe
00000280: ff4e 54bf c7b7 173f 97b3 db3e 178c ccbc
00000290: 3cd2 9a3e b78a 14bf 5b1f b63d 0411 6f3e
000002a0: ab9f 2bbe 30b7 683e 7941 773f 0f9e 4abf
000002b0: 0387 88bf 6f1b a7be 786c 97bf bc3e 7bbf
000002c0: 10da 1fbe 733a bc3e f19c bebe 296d ccbe
000002d0: 9326 613e 2270 09bf 36ff c8bd 595f a43e
000002e0: b6ec 2d3e 606e 2e3e 02d4 a0bf d53f 46bf
000002f0: 2cce 03be ea37 2e3e 25cb 533e 1ece d83e
00000300: bade 93bf c665 65bf b4cf 4cbe ae6e f53d
00000310: e6fa 263e 881b b5bf cbe6 6fbf d52b a2bf
00000320: 5cc4 10bf 14dd a2bf a48e 81bf d0ee acbe
00000330: c3ca e8be 975d ca3e 0249 133f c003 da3e
00000340: efde 0f3f 7838 153f 1e0e c03d ba01 6c3e
00000350: af39 8fbf c208 1dbe 2364 90bf 82cc 4e3f
00000360: fa12 81be 3e53 eb3e 1894 24bf 7a91 803e
00000370: 2dae 833e e301 8ebf 8286 08bb 9d29 7abd
00000380: 7603 793f e235 9dbe 8c30 803e a540 74bf
00000390: 820d 84bf 4f7b 8fbf 0dd5 af3e 230d b4be
000003a0: c049 1c3f 2542 35be 1438 6bbd aa29 ab3e
000003b0: 48cb b1bf e6c5 35bf 6645 6f3e 1946 853e
000003c0: 2d80 d33e 2699 34bd 5098 5cbf 6e77 f93e
000003d0: 9a46 23bf 920d 98bf 4e4a 7cbf 1380 86bf
000003e0: a5d9 4cbe 207e 13bd 669d 743e 0b6e 7b3e
000003f0: 3378 dcbe 2d9c 803d 5df1 1c3f ce49 363d
-1.136859 -0.874789 0.44314697 0.30810517 0.17880535 -1.233822 -1.2014579 -1.2491325
0.07779603 0.22881635 0.10011726 -0.76991546 0.118780084 0.13019107 -1.4827825 -0.10498249
0.13359913 0.6049408 0.21721056 0.30151775 0.16428678 0.34258083 -0.3287991 0.26191342
-0.05101404 0.29294926 -1.2320739 0.080826536 0.08438109 -0.93209743 -0.5310647 0.30265638
-0.08947913 0.49987948 -0.6357448 -1.014871 0.19578475 0.22989035 -1.1612078 0.0016664149
-0.03635013 0.8264503 -1.2398441 -0.88107574 0.28318408 -0.06262325 0.029741917 0.99802333
0.14580902 0.18633918 -1.3869879 0.00010556249 -0.06396801 0.98157996 -0.08792873 -0.21396545
-0.36511976 0.35924435 -0.29912025 0.4346075 -0.28277624 -0.97646034 -0.11362339 0.10701851
0.116623156 -1.3167335 0.26134914 0.26737225 0.27011415 0.20451431 -0.42564747 -0.22727844
-0.09694531 -0.8644065 -0.61003566 -1.0961354 -1.1310894 -0.08072751 0.2754609 -0.3959888
-0.119394526 0.444357 -0.61062187 -0.5070137 -0.26537478 0.47256225 -0.3979747 -1.0382383
-0.9611931 0.03415955 0.09765262 0.3911322 -0.9008787 -0.9721519 0.23778032 -1.0807463
0.4381383 -0.5398752 -1.46565 -0.38094762 -0.11554109 -0.37945345 -0.023210373 0.10522231
0.31561497 -0.24276283 0.13130036 0.47509867 0.09052245 -0.009066632 0.5712447 -0.45178166
0.21759605 0.50782746 0.46899146 0.36779094 0.3565002 -1.215294 -1.0431817 0.38359755
-0.069164045 0.080702245 0.9517166 0.06348294 0.4754556 0.09921391 0.10632298 0.11383745
-1.3209822 0.3702373 -0.6675899 0.46033704 -0.4093252 0.056739688 0.20952581 -0.00057787314
-0.059913076 0.8759284 0.4473073 -0.5442658 -1.5460389 -1.1893413 -0.83508897 0.09181647
0.27985674 -0.5177864 0.6798339 -0.1490884 0.23188764 0.26649833 0.37847507 0.2378383
-0.7160678 0.19068417 -0.35815632 0.45364338 -0.74699813 -0.98727334 0.13267884 -0.13910386
-0.8293304 0.59264797 0.42910454 -0.024969144 0.3023852 -0.5802416 0.08892699 0.23346335
-0.16760127 0.2272613 0.9658428 -0.7914743 -1.0666202 -0.32638118 -1.1829977 -0.981426
-0.15610528 0.36763343 -0.37229112 -0.39927033 0.21987371 -0.53686726 -0.098143026 0.32103994
0.1698483 0.17034292 -1.25647 -0.7744115 -0.12871617 0.17013517 0.20682962 0.42344755
-1.1552346 -0.8960842 -0.20001107 0.11984001 0.16306648 -1.4149027 -0.9371154 -1.2669626
-0.5654962 -1.2723718 -1.0121655 -0.3377595 -0.45467195 0.39524528 0.57533276 0.42580986
0.56199545 0.5828929 0.09377693 0.23047534 -1.1189479 -0.15335372 -1.1280559 0.80780804
-0.2520979 0.45961946 -0.64288473 0.2511099 0.25718823 -1.1094326 -0.0020832126 -0.06107484
0.97270906 -0.30705172 0.25037038 -0.9541114 -1.0316622 -1.1209506 0.34342232 -0.35166273
0.61050034 -0.17701013 -0.057426527 0.33430225 -1.3890162 -0.71005094 0.23366317 0.26030043
0.41308728 -0.044091366 -0.8616991 0.4872393 -0.63779604 -1.1879141 -0.9855088 -1.0507835
-0.200049 -0.036008954 0.23888168 0.24553697 -0.43060455 0.06279788 0.6130579 0.04450398

bias f4 [256]
00000000: d39b 133f fdc5 b5bf 8cf2 4b3f 13ec 9fbf
00000010: cd24 cebf b282 223f 208a 3f3f a88f 663f
00000020: aef3 acbf 8bfe f8bf 1587 213f 5bbf cdbf
00000030: 6acf a2bf fec7 ad3f e23f a13e a980 673f
00000040: f54b 07c0 bc9a 383f 1947 a6be da4f a03f
00000050: 63fd 233f 4dd3 ebbf c778 a73e ce24 4ebf
00000060: 3a06 8d3f 857e 8b3f ea35 c4be 14bd 503f
00000070: 87db 92be 8099 683e 2e61 9bbe f0a5 b7bf
00000080: 31c0 f9bf 0ba8 06bf 36ec 933f 8e7b 553f
00000090: 13f6 3f3f e044 2bbf 650f 183e b76a 843f
000000a0: 9db1 a33f 7ccc f33e 3a55 aabf 494e 153f
000000b0: 9916 4bbf 33ef d43f b46a 08c0 db3b 863e
000000c0: 332a 873f 5ee1 623f 8c36 fdbe 9d03 823f
000000d0: 2e17 533f 1b82 273f 134e 9d3f d2bb 61be
000000e0: e379 5e3f 9a73 963f e8c5 bc3e 608d 903f
000000f0: 8dc9 71bf 33f0 173f 0b7c 023f b199 ab3f
00000100: 4cf1 ab3e 8729 06c0 81b7 a23f f669 803e
00000110: b59a 6f3f 75a5 a93f 90ee f8bf e2fd 873f
00000120: 5776 bb3d 1dcd bcbf 6d4f 3f3f d685 8ebf
00000130: 50be 0d3f 1613 10bf 11e4 cdbf baa7 de3e
00000140: 6958 dfbf 4893 02c0 6ffc 8c3f bc32 6b3f
00000150: 9634 4bbf d1fb cdbf 33f5 97bf e3c2 b73f
00000160: 2879 b3bf 3209 4fbf 5557 02be d0cf af3f
00000170: c9e0 9c3f 146e d3bf 737a 5dbf 0a70 f83e
00000180: 0030 b23e 2001 bcbf ac59 893f 1569 cd3f
00000190: 44ae b63e e58b 353f 398f 083f 765c 803f
000001a0: c00a 76bf 070f c73f c6da 993f 5da4 393f
000001b0: e81b 3abf 6e56 2e3f c75a a7bf 8c5a 32be
000001c0: 04ec 1fbf 8dab e83e 7462 06bf 209e 8d3f
000001d0: 85ec 123f bff7 eabf d373 13c0 8fef 8c3f
000001e0: 1f79 2d3f 821d 9dbf 4d97 a33f 5f02 5d3f
000001f0: 3997 9c3f ecee 37bf 07a6 ad3f 8649 c1be
00000200: 0983 4a3f 2834 fdbf 962a 99bf e491 0c3f
00000210: 4672 033f 8100 c33f 62af 77bf 4cd0 883f
00000220: 3271 bf3f 59f3 dabf 5f10 883f c43e 5e3f
00000230: 7835 d0bf aa1a c5bf 2636 8a3f d497 80bf
00000240: 79ff 823f 3809 573f a54e a73f 0e94 913f
00000250: a611 4c3f cebf cdbf ee9e 58bf b826 22bf
00000260: c680 6a3f 654c a13f 8267 91bf a877 e63e
00000270: 5b2b 413f ff6e 473f d265 87bf 44f6 7cbf
00000280: f167 8bbf 4864 793f 40b6 34bf 6a86 eabf
00000290: 9f44 4abf 0fad 593f ec9b 853f f046 3c3f
000002a0: 0fba 133d 9c7e 1bc0 00dd 953f 47a0 043f
000002b0: a61e 063f 764f 4a3f d655 573f b9b0 413f
000002c0: d9aa 103f 85c6 6b3f eac9 afbf c204 963f
000002d0: 46a4 5f3f 7028 5f3f 37d6 ee3e 8ae6 273e
000002e0: 60bb 393f efa4 203f ba47 973f bfdb 0b3f
000002f0: ba82 27be 28c7 9cbf bad4 743f ce78 bc3e
00000300: 0744 0c3f 996e 8c3f d4a6 0dbf 44a8 db3e
00000310: 921e b4bf adfb 7d3f 17c6 af3e f23e 993f
00000320: 68c0 f5be b600 0a3f af17 893f c81f 143f
00000330: efcb c93f 47d9 a13f 3e30 973f c4f7 8b3e
00000340: c1db af3f d9d4 0e3f c7fa 623f 9de3 c2bf
00000350: 873c 1a3e 4959 163f f624 a03f a382 e9be
00000360: 2ef1 b33f 44be 0c3f 373f 883f cf9f 53bf
00000370: 874b e0bf f5ed bcbf b373 a33f 3528 be3f
00000380: d41f 783e 881e abbf 9c78 a9bf 439b d0bf
00000390: 1a20 9c3f d0d4 b33f a976 633f d9e4 913f
000003a0: e289 e8bf 0842 aebf 3840 053f dd92 73bf
000003b0: 8078 94bf 7d42 50bf d48e 80bf cc68 753f
000003c0: 0093 183f ba0d d3bc 4196 643f 0e7c 813f
000003d0: 6556 7e3f ecb2 dc3e faa6 26ba bd20 5cbf
000003e0: a4b1 a0bf cc49 163f 59b5 03c0 c65b a1bf
000003f0: be5c 6cbf 8769 08c0 5d35 763f 4ad1 933f
0.57659644 -1.4201046 0.7966697 -1.2493919 -1.6104981 0.63480675 0.7482014 0.9006295
-1.3511865 -1.945268 0.63096744 -1.6074022 -1.2719548 1.3576658 0.3149405 0.90430695
-2.114011 0.72111106 -0.32476118 1.2524369 0.6405851 -1.8423859 0.32709333 -0.8052491
1.1017525 1.0897986 -0.38322383 0.8153851 -0.2868311 0.22714806 -0.3034758 -1.4347515
-1.9511777 -0.52600163 1.1556461 0.83391654 0.74984854 -0.6690197 0.14849623 1.0345067
1.2788578 0.47616947 -1.3307259 0.5832258 -0.79331356 1.6635498 -2.1315126 0.2621754
1.0559753 0.88625133 -0.49455678 1.0157353 0.82457244 0.654329 1.2289451 -0.22044304
0.86904734 1.1754029 0.3686974 1.1293144 -0.9444817 0.5935089 0.50970525 1.3406278
0.33582532 -2.0962846 1.2712251 0.25080842 0.9359544 1.3253618 -1.9447803 1.0624354
0.09153431 -1.4750096 0.7473057 -1.1134593 0.5536852 -0.5627912 -1.6085225 0.4348734
-1.7448856 -2.0402393 1.1014537 0.9187429 -0.79377115 -1.6092473 -1.1871704 1.435635
-1.4021349 -0.80873406 -0.12728627 1.3735294 1.2256099 -1.6517968 -0.8651497 0.4852298
0.34802246 -1.4687843 1.0730491 1.6047693 0.3567983 0.7091659 0.5334354 1.0028217
-0.96110153 1.5551461 1.2019889 0.72516423 -0.7269883 0.6810063 -1.3074578 -0.17417353
-0.62469506 0.45443383 -0.5249398 1.1063881 0.5739215 -1.8356856 -2.3039443 1.1010607
0.6776294 -1.227463 1.2780548 0.86331743 1.223365 -0.7184894 1.3566293 -0.37751406
0.79106194 -1.9781542 -1.1966121 0.5491011 0.5134624 1.5234529 -0.9675199 1.0688567
1.495642 -1.7105514 1.0629996 0.8681452 -1.6266317 -1.5398762 1.0797775 -1.0046334
1.0234214 0.8399844 1.3070875 1.1373308 0.7971443 -1.6074159 -0.8461751 -0.6334033
0.9160274 1.2601439 -1.1359713 0.45013165 0.7545678 0.7790374 -1.0577948 -0.9881327
-1.0891095 0.9741864 -0.7059059 -1.832227 -0.7901096 0.8502969 1.0438209 0.7354574
0.03606611 -2.4296026 1.1708069 0.51807064 0.52390516 0.790275 0.8411535 0.7566028
0.5651069 0.9209979 -1.3733494 1.1720202 0.87360036 0.8717108 0.46647808 0.16396537
0.72551537 0.6275167 1.1818764 0.5463218 -0.16358462 -1.2248278 0.95637095 0.36810917
0.547913 1.0971252 -0.55332685 0.42901814 -1.4071829 0.9921215 0.34330818 1.1972334
-0.47998357 0.53907335 1.0710353 0.57860994 1.576536 1.2644433 1.1811597 0.27337468
1.3738939 0.5579353 0.88663906 -1.5225712 0.15062152 0.5872999 1.251128 -0.4560748
1.4057977 0.5497782 1.0644292 -0.82665724 -1.7523049 -1.4760119 1.2769684 1.485602
0.24230891 -1.3368692 -1.3239932 -1.6297382 1.2197297 1.404932 0.88852936 1.1397964
-1.8167078 -1.3613901 0.52051115 -0.9514597 -1.1599274 -0.81351453 -1.0043588 0.9586303
0.59599304 -0.025763381 0.8929177 1.0115983 0.9935058 0.43105257 -0.0006357279 -0.85987455
-1.2554212 0.58706355 -2.0579436 -1.2606132 -0.92329013 -2.1314409 0.96175176 1.1548245

weight f4 [256, 256]
00000000: 2f4c 463f 99e5 a2bc 56a3 3d3f 6e35 033c
00000010: e972 88bd db5f 23be 3eb7 cbbc 170c 233e
00000020: 9e0e 43bf 7a44 72bd 28c3 dc3e 600e 253e
00000030: 7fb2 89bd 4131 a33e e567 4c3f b831 463e
00000040: fb5e 80bd c2f6 853d c05f 9cbc 6d0b 613e
00000050: 7b67 133f e896 62bd b686 fd3c 21cb b1bd
00000060: 6fcb 953e 49f0 3d3f 020b 5c3e 9b55 163e
00000070: 58d9 f7be 4e7f 513f 2451 35be a725 7dbd
00000080: ec5e ab3d 74c6 d23c f952 eabd 32aa a33e
00000090: 61fa 8d3d b940 20bf 19b0 623d e88a 413f
000000a0: 89af 2c3e bc6c 83bd c2f4 c1bb 4b35 803e
000000b0: 1e35 01bf d379 dd3e 98bd 593c 4f28 513f
000000c0: 7f71 9f3e 947b b23d 0278 963d 1037 783e
000000d0: c19b 4a3f e382 003f d44f 1a3e a4d0 583d
000000e0: f16c 46bd ea47 3b3f b16c 303f 86af 123e
000000f0: 3881 8abd 6ec6 b8b9 7ec5 4d3f c54d 933d
00000100: 59eb 463f 0d74 cabd 3e40 353f 4a21 413f
00000110: 3b51 5b3e c0d3 02bd 57a0 85bd e379 343f
00000120: 79b7 19be c228 a1bd 9321 4fbd f548 68bd
00000130: 7024 4a3f c66f 0ebf 28d1 54bf d136 ca3e
00000140: d066 43bb 3353 3d3e 102a 2d3f 08f8 02be
00000150: 9fb4 61bf b9c0 11be 3fe9 5f3e 5c82 e03d
00000160: b29d 1dbf 590e b0bd 857e cfbd 4776 2abe
00000170: 86ba 2d3f cd9f f53c 932f f1be f4b0 393f
00000180: dbc6 443f b0f1 36bd 82c2 803e 71dc d83d
00000190: 4581 343f 5ae2 1cbd d79c e23b e1e5 3a3f
000001a0: 0cbd 573d e3fe f8bd 7a25 9d3e 7ebc 493f
000001b0: 9851 a6be a990 85bc d935 423d 864c 21bd
000001c0: 9cc4 0bbe a979 4b3f 34de 0d3d b41b 343f
000001d0: ac7f 443f 088c 8dbd 486a 2abf 3389 a83e
000001e0: 8a20 393f 8a49 1ebe 6421 473d b349 e23e
000001f0: d68d 2b3f 91fe 853d 89e3 3d3e ace4 5dbd
00000200: 359c 163b 685f d73d 653f e3be 1847 423f
00000210: 7623 433f 88ef 8b3d 571b fcbe 259e 4c3f
00000220: a18a 253c 71da 74bf f373 263f 8b7f 4d3f
00000230: 225b 48bd 1d96 51bc 670f ab3d 0a0f a0bd
00000240: 6ee3 3d3f 574e 903d bd18 ce3c 969a 833e
00000250: 8fe2 07bd c18a 4fbf 474c 8bbe 446a 033d
00000260: 61b0 333f a412 293e 41b5 b6be 7e6d 4a3f
00000270: 8ce7 4b3f 6115 373f 1870 06bd 3a7d 0e3d
00000280: 1d66 3ebd 3c4f 493f b629 7e3c 4816 9ebd
00000290: 36a9 c4be 7e0e 303f 686d 753d c9d9 1d3e
000002a0: f616 8f3d b89e 10bd 29eb 193e 6d5f 4f3f
000002b0: 5bf5 8a3d a589 5f3e f182 3e3f 495f 2c3f
000002c0: c5c7 413f cc26 8b3e ad1a 01bd 303c 2c3f
000002d0: 1509 083f a8be e03e 137c 3e3f 50b2 373f
000002e0: b6e4 3d3f 1df2 4b3f b490 0a3f 5184 3a3f
000002f0: f01e 95bd 650b cfbc 4828 0c3f 30e2 343f
00000300: 09b1 363f 0640 493f aa4f 50bd 3eb4 333f
00000310: 5847 4bbd a663 b83e 6966 323f 739c 0abd
00000320: 97e9 38bd dc12 483f 9c6c bb3d 768f 8b3e
00000330: 1a49 203e 3e30 2d3f 9dfe a43d 55c2 333d
00000340: 34ff f13d 1732 97be 8133 163f 6a55 7abf
00000350: 5667 abbe c177 993e 5c4a 3d3f acd3 a93c
00000360: 2330 d33d 72c4 343f cc6c 12bb ab6f 83bd
00000370: 8ffb b5bc 23c6 dfbc 2d61 a33e eb3a 873d
00000380: 5e2c 4a3f 2876 63be c7d1 a7bd 962c 8b3d
00000390: 8c7b 2a3f a18a 3a3e 05c2 303f f529 2b3f
000003a0: da03 c5bc 4704 a8bc 7556 5ebe 8bb6 00bf
000003b0: 3990 2fbd daf3 b93d be3d a4be 12a3 3d3f
000003c0: 3cdc dbbd d5f8 323e e0fd dc3c ec65 703e
000003d0: 5cb3 913e d1f8 d23e 6424 85be ac70 bbbd
000003e0: 5766 d13c 52ca 383e 40fa d13d d6d2 e4be
000003f0: cb2e babe d51f 603d f6c4 2b3f 231f 4a3e
0.77459997 -0.019884871 0.74077356 0.008008344 -0.066625424 -0.15954535 -0.02486765 0.1592258
-0.7619418 -0.059147336 0.43117642 0.16118765 -0.067234986 0.31873515 0.7984603 0.19354904
-0.06268116 0.06541206 -0.019088626 0.21977015 0.57579774 -0.055319697 0.030948024 -0.08681322
0.2925677 0.7419477 0.21488574 0.14681093 -0.48408008 0.81834877 -0.17706734 -0.061803486
0.08367714 0.025729395 -0.11441607 0.31965786 0.069325216 -0.6259876 0.05534372 0.7560258
0.16863836 -0.06417224 -0.00591907 0.2504066 -0.50471675 0.43257007 0.013289832 0.8170213
0.31141278 0.08714977 0.073471084 0.24239755 0.7914391 0.5019972 0.15069515 0.05293335
-0.04844374 0.7315661 0.6891585 0.1432477 -0.06762928 -0.00035243056 0.80379474 0.07192568
0.7770286 -0.09885416 0.7080115 0.7544142 0.21417706 -0.03194022 -0.06524723 0.70498484
-0.15011396 -0.07869102 -0.05056913 -0.056710202 0.7896185 -0.556393 -0.8313165 0.39494947
-0.002981592 0.18488769 0.6764231 -0.12789929 -0.8816623 -0.14233674 0.2186632 0.10962364
-0.6156875 -0.085964866 -0.101315536 -0.16646682 0.6786274 0.029983426 -0.4710661 0.72535634
0.7686593 -0.044664085 0.25148398 0.10588921 0.7050975 -0.038301803 0.0069156694 0.7300702
0.052670524 -0.12157991 0.30692655 0.7880324 -0.32484126 -0.01630433 0.047414634 -0.03937962
-0.1364922 0.79482514 0.034635738 0.7035477 0.7675731 -0.069114745 -0.6656842 0.32917175
0.72315276 -0.1545774 0.04861583 0.44196853 0.670133 0.06542695 0.18543829 -0.054173157
0.002298129 0.10516244 -0.44384304 0.7588973 0.76225984 0.06832796 -0.4923961 0.7992881
0.0101038525 -0.95645815 0.65020674 0.8027274 -0.048915036 -0.012792137 0.08352547 -0.078153685
0.74175155 0.07046192 0.02515828 0.25703877 -0.033175047 -0.81071097 -0.27206632 0.032083765
0.7019101 0.16511017 -0.3568516 0.7907332 0.7965019 0.71516997 -0.032821745 0.034787394
-0.0464841 0.7863653 0.015512874 -0.077190936 -0.38410348 0.68772113 0.05991879 0.1541511
0.06986801 -0.035307616 0.15031113 0.81004983 0.06785079 0.21829851 0.7441855 0.67332894
0.7569545 0.27178037 -0.03151958 0.6727934 0.5313886 0.4389546 0.7440807 0.7175646
0.7417711 0.7966631 0.5412705 0.7285815 -0.072812915 -0.025273988 0.54748964 0.70657635
0.71363884 0.78613317 -0.050857224 0.701969 -0.049628586 0.36013526 0.69687515 -0.033840608
-0.045144644 0.7815378 0.09151575 0.2725789 0.15652886 0.67651737 0.08056376 0.0438865
0.11816254 -0.29530403 0.5867234 -0.9778658 -0.33477277 0.29974177 0.7394159 0.020730816
0.10311916 0.7061225 -0.002234268 -0.06417783 -0.022214679 -0.027316159 0.31910077 0.066030346
0.7897395 -0.22213042 -0.08194309 0.067956135 0.6659477 0.18216945 0.6904605 0.66860896
-0.024049688 -0.020509852 -0.21712668 -0.5027854 -0.04286215 0.09079714 -0.32078356 0.7407695
-0.10735366 0.17477734 0.026976526 0.2347638 0.28457153 0.41205457 -0.26004326 -0.0915235
0.025561495 0.18045929 0.102528095 -0.44692105 -0.36363825 0.054717857 0.67097414 0.1973844

bias f4 [256]
00000000: 59f4 4a3f 2846 f23e 747c 32bd 5b89 74bd
00000010: e0ca 32bd 3946 8f3f 35d6 783f d961 94bd
00000020: 3153 543f 8202 593f 85d5 2a3f 0dcc adbc
00000030: 6857 5b3d 2861 2b3d f040 403f fe1f 873f
00000040: d65b 6f3f 4074 873f f3e8 61bd 43f6 883f
00000050: 3342 523f 9945 55bd 861a 773f bcdf da3c
00000060: 33bf 223f 8b93 5c3f ff2c 313f c97e 2d3f
00000070: dc23 d6bc d656 17bc 9ad2 edbc 1eb3 3f3f
00000080: 891f 873e b80b 3e3f 6f36 3c3d 59f4 3d3f
00000090: 2f17 cbbc c93f 433f 3b0a 8a3f aac2 8bbd
000000a0: a0f9 823f 78ef 903f eb6e debc f699 89bc
000000b0: f190 733f f89f ebbc ba42 333f b116 ce3c
000000c0: 6f62 7c3f 772b 8a3f 11ea 943f aeb0 04bd
000000d0: 5d83 0a3d 08ee 373c b00f 5b3f d155 4d3f
000000e0: 337f b1bd cd11 d1bc 0199 863f 586d 463c
000000f0: 4dae 183d a6a0 513f bf65 0c3c e3ef f8bc
00000100: 7b5c 90bd 5760 273f 7462 313d 9c09 773d
00000110: 4094 42bc 3b26 393f 6699 2bbd d411 5c3f
00000120: 13ef 8e3c dca4 6d3f 2e3d 6cbd 0f18 74bd
00000130: 8b6c 5b3d a5e2 293f 582c 1d3c 58a7 423d
00000140: 706a 18bd de59 973f 35e5 953c 2ad2 d03c
00000150: 4ec3 0e3f a6d8 c03c 22e3 853f 5eff 1c3d
00000160: 3fd4 8b3f fa24 573f 8a3e 493f 8baa 753f
00000170: 3f10 4c3f 258f b8bd 8641 4b3f 239e 7cbe
00000180: fe58 86bd af15 e7bc 61d3 e5bc 9c6a 453f
00000190: b74d 373f 14a1 213f 768a 883f 30c1 20bd
000001a0: 56b7 29bd 9f36 253f f070 933f 579e b5bb
000001b0: c7d2 5e3f aa18 e33c 1463 74bd 3e91 573c
000001c0: 504f 063d 61c6 8cbd 02f7 b73c fea9 bb3c
000001d0: e19b db3c b82c 0dbd a0ed e03c 1a36 823f
000001e0: 6b46 18bd f1d9 353f bf31 413f 9079 923f
000001f0: 6859 003c 2a40 833f efac 74bd 749b 643f
00000200: e4c1 003c 9225 fdbc 55eb 913f 31df 543f
00000210: 55e3 c03c eda5 b5bd b951 43bd e3de 6c3f
00000220: 9107 383f fa25 bfbc fc84 083c 3e22 8b3f
00000230: 51b2 eabc af8b 263f 885e 2e3f 5051 83bd
00000240: 3698 373f 8ae9 163d b6ea 743c 7cc3 d63b
00000250: 9cfc f43c f0fb 293d d705 903b 9524 2abd
00000260: b08f 583f 5b5b 803f c710 253d b615 8dbd
00000270: 9f25 813b 4893 2f3f e0c1 873f cb42 c43b
00000280: c4c3 7e3d 4f3d 3d3f bf9e c43c e077 813f
00000290: d0d2 5f3f 9ba8 4a3f d0ec 1dbc c280 883f
000002a0: 06c1 513f 7e26 8c3f 4ca2 203f 9d0e 883f
000002b0: 5c84 403f 9913 443f c5bc 4d3f 18c7 81be
000002c0: 748b 863f 39b6 8f3f cd85 793f 673a 6c3f
000002d0: e4f7 79bd 3bf4 823f 8479 823f 6573 6e3f
000002e0: d641 823f 75fc 56bd e264 863f 1115 95bd
000002f0: de19 463f 4564 393f 9c23 31bd e840 9cbd
00000300: 5e5c 1b3d e522 823f 6377 9cbc 4b0f 3b3f
00000310: 839d 8e3f 3422 98bc 7616 da3c bf75 6e3f
00000320: 9938 063d 9183 673f 710a 2a3f 3a0b f13c
00000330: 4805 a0bc a850 913f 6084 8a3f a895 843f
00000340: 3a68 15bd ec4a 333c ed99 b9bc bde2 3bbd
00000350: 31f2 3d3f 260d 81bd 889b 703c 3d83 9ebc
00000360: 90a5 853f 4985 7c3f 8a79 00bd f035 bb3c
00000370: ede4 0b3d cf66 543f dfe2 693f c96a 393f
00000380: 2897 9ebd aa67 99bd 7a84 39bc 622e 50bd
00000390: 437b b4bb dc86 8f3f b6ce 1abd da9f 413d
000003a0: 833d 5e3f 141b f7bc 00e1 e53c 1e39 293f
000003b0: 3f65 4dbd fb90 253f ae6f 593f b328 95bc
000003c0: 764e 143d a41c c53c 43b8 613f b0e0 8b3f
000003d0: ef89 613f 4c14 423f 17bc 243f dbd1 383f
000003e0: 004f 2b3f df16 8b3b 33a3 2e3f 5dc4 6c3f
000003f0: a8c2 90bc 6843 753f de33 483f d36e 8c3f
0.79279095 0.4731915 -0.04357572 -0.059701305 -0.043650508 1.1193305 0.97201854 -0.072452255
0.8293944 0.8476945 0.66732055 -0.021215463 0.053550154 0.041840702 0.75099087 1.0556638
0.93499506 1.0582352 -0.0551538 1.0700153 0.8213226 -0.052068327 0.96524847 0.026718013
0.63572997 0.8616263 0.69209284 0.67771584 -0.026140146 -0.009237012 -0.029031087 0.74882686
0.26391247 0.7423663 0.04595035 0.7420097 -0.024791328 0.76269203 1.0784372 -0.068242386
1.023243 1.132308 -0.0271525 -0.016797047 0.9514304 -0.028762802 0.7002369 0.025157304
0.985877 1.0794514 1.1633931 -0.032395057 0.033816684 0.011226185 0.8557081 0.8020907
-0.086668395 -0.025521183 1.0515443 0.0121110305 0.0372756 0.81885755 0.00856918 -0.030387824
-0.07048889 0.6538138 0.043306783 0.0603119 -0.011876166 0.7232396 -0.04189434 0.85964704
0.017447984 0.9282968 -0.057675533 -0.059593257 0.05357031 0.6636146 0.009593092 0.047522873
-0.03721088 1.18243 0.018297771 0.025490839 0.5576676 0.023540806 1.045994 0.038329475
1.0924147 0.84040797 0.7861105 0.9596335 0.7971229 -0.09011678 0.79396856 -0.246697
-0.06559943 -0.028208582 -0.028054895 0.771158 0.7160296 0.6313641 1.0667255 -0.039246738
-0.04143461 0.6453647 1.1518841 -0.005542557 0.8704037 0.027721722 -0.0596648 0.013157187
0.032790482 -0.06873775 0.02245665 0.022908207 0.026807727 -0.034466475 0.027457058 1.017276
-0.03717653 0.7103568 0.7546653 1.1443348 0.007833816 1.0253956 -0.059735235 0.892997
0.007858727 -0.030901704 1.1399943 0.83153063 0.0235459 -0.088695385 -0.04768536 0.925276
0.71886545 -0.023333538 0.008332487 1.0869825 -0.028649481 0.6505689 0.68112993 -0.064119935
0.7171663 0.036843814 0.014948538 0.0065540653 0.02990561 0.041500032 0.0043952274 -0.041538794
0.8459425 1.002788 0.040299203 -0.06888907 0.0039412524 0.6858411 1.0606041 0.0059894077
0.062198415 0.73921674 0.024001477 1.0114708 0.8743105 0.7916352 -0.00963898 1.0664294
0.81935155 1.0949247 0.62747645 1.062946 0.75201964 0.76592404 0.80366164 -0.2534721
1.0511308 1.1227485 0.9746979 0.92276615 -0.061027423 1.0230783 1.0193334 0.9314483
1.0176342 -0.052486856 1.0499537 -0.07279409 0.7738322 0.72418624 -0.04324685 -0.076295674
0.037929885 1.0166899 -0.019099897 0.7307021 1.1141819 -0.018570997 0.026622038 0.93148416
0.03276882 0.9043513 0.6642218 0.029424299 -0.019533768 1.1352739 1.0821648 1.0358171
-0.03647635 0.010943156 -0.022656405 -0.04587053 0.7419768 -0.06301336 0.014685519 -0.019349689
1.0441151 0.98640877 -0.03136591 0.022852868 0.034153868 0.82969373 0.913618 0.72428566
-0.077436745 -0.074904755 -0.011323089 -0.050825484 -0.005507858 1.1213031 -0.03779479 0.047271587
0.8681261 -0.030164279 0.02806139 0.6610278 -0.050145384 0.6467435 0.84936035 -0.018207883
0.03620764 0.024061508 0.88171786 1.0927944 0.88101095 0.7581222 0.643495 0.72195214
0.6691742 0.00424467 0.6821777 0.92487127 -0.017670944 0.9580598 0.78204143 1.0971321

weight f4 [2, 256]
00000000: c95d a9be 2755 92bd 2582 ee3a ba72 1abc
00000010: 3e6a 1dbc 3ee4 17bf d242 87be 9967 bfbc
00000020: fea5 e4be ceb4 b0bd e7f5 c2bc f4e8 b4bb
00000030: 8425 8cbb 902a 26ba 46ad b9be 0502 f6be
00000040: 596c f7bd 0001 d9be f363 01bc e9fe c6be
00000050: eadb 89be 67a5 5bbc 7cea 35bf 4075 d2bb
00000060: aef1 d4be a18a febd e50d 20bf a2c7 86bc
00000070: 79da b43b 32e0 863b 19cc 02bc 0ee4 f9be
00000080: 4e05 82bd 8589 80bd 6803 9ebb df7f 7ebd
00000090: 8f57 ddbb cbcc 30bd 0ec0 bebe 11c0 cabb
000000a0: 8989 b7be 666b e0be f3cd b1bc 5b4e edbb
000000b0: 2d01 4bbe a1a9 28bc c161 40bd f3b5 ea3b
000000c0: 045c bbbe 0dae e6be cc4d 08bf 8612 4c3a
000000d0: fcce 10bc 7d7d 9cb9 2bf6 40be f164 9dbe
000000e0: 4d40 febb 3d39 2ebb 886b febe d96c d43b
000000f0: 5a5a fb3b c8ed 0ebf ffb5 21bb 30f5 27bc
00000100: ab19 7c3c e396 41bd 5fed 11bc 02db 06b8
00000110: 4a50 653b 0441 14bf 715d 1cbc 0892 e1bd
00000120: 83d2 f93a 6766 58be c102 47b9 2894 0abb
00000130: 5a23 0ebc c109 4abe c3c6 823a f0a5 bcbb
00000140: 6002 2abc a441 f1be dc54 913c 206b edbb
00000150: 3aab 13bf c8c6 bfbc 2d6b c5be 7ec1 283b
00000160: 3539 b0be 5cf5 f0bd c75a 54be 48cd a5be
00000170: 6db2 9abe 6ed3 8fbc 3d3c f3be 897d a43e
00000180: 50ae e73c 6773 bbbb 7335 ebbb 8b5b b7bc
00000190: 0425 cdbe 5338 50bc e1aa 3abf ad6c 643a
000001a0: 1751 90bc 5af5 dfbe b284 cebe d528 2cbc
000001b0: a949 56be 0b3f b13a 1108 2ab9 a8a3 c6bb
000001c0: 6bb5 953b ea2a 40bc 2abe e4bc 435e d7bc
000001d0: 34b7 edbb 3ce3 6339 80c8 8b3b c508 35bf
000001e0: 4231 60bc 0652 f8be a22f 4cbe 0528 cabe
000001f0: 25ec 9eb9 9aff aabe 545a be3b d37d 69be
00000200: 0f34 a3bb e1f1 04bc 9026 0dbf 642d 82bd
00000210: f251 3dbc f8ec bfbb 2227 40bc 193e 87be
00000220: ad47 e6be a3bf b1bc e451 12bc 5f55 cabe
00000230: 404a e1bb 8c0a 1cbf 9729 1bbf 2c1b bbbb
00000240: b110 91be 8d14 1cbb ed61 03bc 52c6 bcbb
00000250: b0a0 1abc e07b dd3b 6953 0d3c 8c67 2fbc
00000260: 0aa1 d4bd 6045 50be 836c e0bb 1444 9c3b
00000270: 5efb af3b f821 e8be 791a cabe 9fdd 313b
00000280: 5be7 143a c46b 51be 8b8d 003c 902e 24bf
00000290: c7ed a7bd 14e0 f5be cd14 2439 d2c4 3cbf
000002a0: 09c2 3abe 82db bfbe 1706 30bd 0704 c1be
000002b0: c023 99bd f0ac 31be 2d25 01be 002f 853f
000002c0: 79dc 94be 46cc e4be e2a0 3bbf 8c90 5cbe
000002d0: 2576 3638 b660 30bf 51c5 82be 0b87 fabd
000002e0: f9a8 37bf ff88 913b f413 3ebf 0e67 413b
000002f0: 1b0f efbd 7030 dbbe 05d8 d039 9811 f539
00000300: d0bf fdbb e259 1dbf 0ddd ae3b d93e 8abc
00000310: 3f85 f0be 2d6c e5bb f2e5 11bc 86b8 2bbe
00000320: a31a 37bc 9caa 8bbe 40e8 c5bc 1099 47bc
00000330: 4f2a 61b9 c7ea dabe c06d b3be 3c7d 08bf
00000340: 7427 b63b 21ff 6ebb 9937 b1bb 008e e5ba
00000350: 954a e3be 87c0 a03b b881 15bb c414 003b
00000360: 2c02 f4be cfe0 0abe 8471 333a 54f9 353c
00000370: 6f10 8a3b e88d a4bd ab39 59be 15df 23bf
00000380: 66ef acbc 169c 263c fdb2 45bc 3c83 55b9
00000390: 9601 4abc 2363 09bf 19c6 a3bb d6f0 4eba
000003a0: f50a f9bd 73d9 04ba 1591 013a 40ee a7be
000003b0: 1d53 acbb 1477 19bf 02b1 05bf 5267 91bb
000003c0: 2a3f 6fba 4301 38bc 54a1 f2bd 919c acbe
000003d0: 2c27 85be 5935 80be 55d7 debc 08f8 18bf
000003e0: 1053 2abd a8f6 f1bb cf58 75bd 3974 8dbe
000003f0: a786 463a a407 84be 43d1 8bbe d6d7 3bbf
-0.33079365 -0.07145148 0.0018196745 -0.009426767 -0.00960785 -0.59332645 -0.26418167 -0.023364829
-0.44657892 -0.08628236 -0.023798896 -0.0055209342 -0.004276933 -0.000633874 -0.3626501 -0.48048416
-0.120812126 -0.42383575 -0.007897365 -0.38866356 -0.26925594 -0.013406134 -0.7106092 -0.0064226687
-0.41590637 -0.12428785 -0.625212 -0.016452614 0.005519208 0.0041160816 -0.007983231 -0.48806804
-0.06348668 -0.0627623 -0.0048221834 -0.062133666 -0.0067548226 -0.043164056 -0.372559 -0.006187447
-0.35847118 -0.43831939 -0.02170465 -0.0072420067 -0.19824667 -0.010294349 -0.046968225 0.0071628033
-0.3659364 -0.45054665 -0.5324371 0.00077847426 -0.008838411 -0.00029848135 -0.18843906 -0.30741075
-0.00775913 -0.002658441 -0.49691415 0.006482702 0.007670683 -0.55831575 -0.0024675129 -0.010251328
0.015386979 -0.047263037 -0.008906691 -3.2152057e-05 0.0034990483 -0.57911706 -0.009543763 -0.110141814
0.001905993 -0.21132813 -0.00018979145 -0.0021145437 -0.008675421 -0.19730283 0.0009977448 -0.005757086
-0.010376543 -0.47120392 0.01774066 -0.0072454363 -0.57683146 -0.023410216 -0.3855833 0.0025750096
-0.34418646 -0.117655486 -0.20737754 -0.3238318 -0.30214253 -0.017556872 -0.47506896 0.32127026
0.02828136 -0.005720544 -0.0071780025 -0.022382518 -0.40067303 -0.012708741 -0.7291699 0.0008713704
-0.017616792 -0.43741876 -0.40335613 -0.010507782 -0.20926537 0.0013522817 -0.00016215468 -0.00606199
0.004568746 -0.0117289815 -0.027922709 -0.026290065 -0.0072545055 0.00021733058 0.004265845 -0.70716506
-0.013683619 -0.4850008 -0.19940045 -0.39483657 -0.0003031205 -0.33398134 0.005809108 -0.22801904
-0.004980571 -0.008114309 -0.55136967 -0.06356314 -0.011555182 -0.0058571063 -0.01172808 -0.26414564
-0.4497656 -0.021697825 -0.008930657 -0.39518258 -0.0068753064 -0.60953593 -0.60610336 -0.0057100262
-0.28333047 -0.002381596 -0.008018953 -0.0057609463 -0.009437725 0.006759152 0.008625844 -0.01070584
-0.10382278 -0.20338964 -0.006848873 0.0047688577 0.0053705415 -0.45338416 -0.39473322 0.0027140153
0.00056802266 -0.20451266 0.0078462465 -0.6413355 -0.08199649 -0.4802252 0.00015648008 -0.73737824
-0.18238081 -0.3747216 -0.042974558 -0.37698385 -0.07477522 -0.17351127 -0.12611838 1.0404968
-0.29074457 -0.44687098 -0.7329236 -0.21539515 4.3502212e-05 -0.6889757 -0.25541165 -0.12232789
-0.71742207 0.00444138 -0.74249196 0.0029510888 -0.11672803 -0.42810392 0.000398338 0.0004674315
-0.007743813 -0.61465275 0.00533641 -0.016875671 -0.4697666 -0.007001421 -0.008904921 -0.16769609
-0.011175784 -0.27278602 -0.024158597 -0.012182489 -0.00021473433 -0.42757246 -0.3504467 -0.5331609
0.0055589024 -0.0036467987 -0.005408239 -0.0017513633 -0.4439284 0.0049057635 -0.0022812914 0.0019543627
-0.47657907 -0.1356232 0.0006845223 0.011106808 0.004213385 -0.08034879 -0.21213405 -0.6401227
-0.021110248 0.01016905 -0.0120666 -0.00020362152 -0.01232948 -0.53666896 -0.0049979803 -0.0007894164
-0.12160293 -0.0005067803 0.00049425784 -0.32798958 -0.0052589313 -0.59947324 -0.5222322 -0.0044373656
-0.00091265386 -0.01123077 -0.11847177 -0.337132 -0.26006448 -0.250407 -0.027202288 -0.59753466
-0.04158312 -0.00738414 -0.059899148 -0.27627733 0.00075731653 -0.2578708 -0.27308092 -0.73376215

bias f4 [2]
00000000: ce04 3abf 4389 39bf
-0.7266358 -0.7247507
