Intelligent car/model_weight/value_net_para1.pkl (torch_old, 274079 bytes, 6 tensors)

weight f4 [256, 3]
0	0xbe64c5a7	-0.22341023
1	0xbe1110cb	-0.14166562
2	0xbecbc2d7	-0.39797089
3	0x3ecae199	0.39625242
4	0xbdc78404	-0.09741977
5	0x3dd52629	0.10407669
6	0xbeef86b2	-0.46782452
7	0x3ec23099	0.37927702
8	0xbe52ec86	-0.20598039
9	0xbe38d6c9	-0.18050684
10	0xbd825c18	-0.06365222
11	0xbcbc2c4b	-0.02297034
12	0x3d85ef1b	0.065397464
13	0x3d663496	0.056202494
14	0xbf3bf9b3	-0.73427886
15	0x3e02be82	0.12767985
16	0xbeaf3ee9	-0.34227684
17	0xbe87ce7b	-0.2652472
18	0xbe9f7df7	-0.3115079
19	0x3ea570f8	0.3231275
20	0xbf410ebc	-0.7541311
21	0xbf42c7ee	-0.7608632
22	0xbd0cf858	-0.034416527
23	0x3e69122f	0.22760843
24	0xbef6b39e	-0.48183912
25	0x3eb303a5	0.34963718
26	0x3e54ec73	0.20793323
27	0x3ecbae64	0.39781487
28	0xbef01dd6	-0.46897763
29	0x3f29153a	0.66048014
30	0xbea88b96	-0.32918996
31	0x3dd96d88	0.106165946
32	0xbf8b4bf6	-1.0882556
33	0xbf4365ce	-0.76327217
34	0xbf88d891	-1.0691091
35	0xbdf58d77	-0.11989873
36	0xbf3df9c5	-0.74209243
37	0x3ec46b5e	0.38363165
38	0xbda076b2	-0.07835139
39	0x3e4406aa	0.19143167
40	0x3e3e5932	0.18588713
41	0xbcf7b89c	-0.030239396
42	0xbf7bf60c	-0.9842231
43	0xbef9f90d	-0.48822823
44	0xbd9c6d16	-0.07637994
45	0xbeff1623	-0.49821576
46	0xbf849bdc	-1.0360065
47	0x3f0abdf9	0.54196125
48	0xbf45a5ce	-0.7720612
49	0xbf1492d6	-0.58036554
50	0xbeae45f9	-0.3403776
51	0xbed2b79a	-0.41155702
52	0xbf5e6ed4	-0.8688786
53	0xbda13fee	-0.07873522
54	0xbef99f44	-0.48754323
55	0x3ed39d24	0.41330826
56	0xbecca910	-0.39972734
57	0xbf0523a1	-0.5200749
58	0x3de4a399	0.11164016
59	0xbf877ab4	-1.0584321
60	0xbee1e316	-0.44118565
61	0xbf098963	-0.5372526
62	0xbeeb3325	-0.45937458
63	0xbdbb1378	-0.09134573
64	0x3da095fa	0.07841106
65	0xbe34ea0b	-0.17667405
66	0x3e142c5e	0.1447005
67	0xbe911cb4	-0.2834221
68	0x3f5d184d	0.86365205
69	0x3da6128f	0.081090085
70	0x3e276f82	0.1635113
71	0xbde8cb21	-0.11366869
72	0x3e9c6694	0.3054701
73	0xbd01d42a	-0.031696476
74	0x3ef2686a	0.47345287
75	0xbea82b8c	-0.32845724
76	0xbe69ba40	-0.22824955
77	0xbefc015a	-0.4921978
78	0xbf3ecd29	-0.745318
79	0xbf879131	-1.0591184
80	0x3ecdc67e	0.401905
81	0xbe0d454f	-0.1379597
82	0xbc07855c	-0.008271541
83	0xbc5db9c5	-0.01353306
84	0x3eeb3365	0.45937648
85	0xbefc7bf9	-0.49313334
86	0xbdef5378	-0.11685842
87	0xbf27c2c3	-0.6553156
88	0xbf867809	-1.0505382
89	0xbee2c4e7	-0.4429085
90	0xbf3a711a	-0.7282883
91	0x3e06d936	0.13168797
92	0xbf8dd43c	-1.1080394
93	0x3f02f6ed	0.5115803
94	0x3eceb51e	0.40372556
95	0x3df534e1	0.119729765
96	0xbf496b2d	-0.7867916
97	0xbc1bad36	-0.009501746
98	0xbe7a7a4e	-0.24460718
99	0x3e73376c	0.2375161
100	0xbeb1a363	-0.34694967
101	0x3e70c218	0.23511541
102	0xbedc8aac	-0.43074548
103	0xbf40c750	-0.75304127
104	0x3e89269a	0.26787263
105	0xbf5340f7	-0.82521003
106	0xbf856288	-1.0420694
107	0x3e055219	0.13019599
108	0xbee277f9	-0.44232157
109	0x3da63ea0	0.081174135
110	0x3f31d0d5	0.6945928
111	0x3e24ec14	0.16105682
112	0x3e478540	0.19484425
113	0xbe0880cb	-0.1333038
114	0x3ecaba45	0.39595237
115	0xbe8e5567	-0.27799532
116	0xbf15405c	-0.5830133
117	0xbc835b7f	-0.01603484
118	0xbe90f1b6	-0.2830941
119	0x3d480385	0.04883148
120	0xbed90226	-0.42384452
121	0x3dcfe80c	0.10151681
122	0xbf802ed4	-1.0014291
123	0x3ebef2d2	0.37294632
124	0x3daf1855	0.08549563
125	0xbf5f6467	-0.87262577
126	0x3da2e170	0.07953155
127	0xbf4981b1	-0.7871352
128	0x3eeb9d4a	0.4601844
129	0xbf6a7290	-0.9158106
130	0xbf45f22a	-0.7732264
131	0xbdd4239f	-0.10358357
132	0x3d609dc9	0.054837976
133	0xbe3c6a61	-0.18399955
134	0x3f7bc2ac	0.9834392
135	0x3e004a72	0.12528399
136	0x3d51d12a	0.051224865
137	0xbf3dfe3e	-0.7421607
138	0xbeda50cf	-0.42639777
139	0x3dd8911c	0.105745524
140	0xbf80c2ae	-1.0059412
141	0x3dc14ce8	0.09438497
142	0x3e7199ec	0.23593873
143	0xbe378219	-0.17920722
144	0xbe1b8b89	-0.15189947
145	0x3e7814a3	0.24226622
146	0xbf8e9b61	-1.1141168
147	0xbea5e02a	-0.32397586
148	0xbd41b85e	-0.047294967
149	0x3ea40ac5	0.32039467
150	0xbe8c98e5	-0.274604
151	0xbf3c8352	-0.7363788
152	0xbd4f82ef	-0.050661977
153	0xbf593e0a	-0.8486029
154	0xbf2ac967	-0.66713566
155	0x3ddaf5ac	0.106913894
156	0xbf0dcd5a	-0.55391467
157	0xbf7d82b1	-0.99027544
158	0x3e4fd699	0.20296706
159	0x3e05dffc	0.13073725
160	0xbe57ee9b	-0.21087115
161	0xbf2990e2	-0.662367
162	0x3e0a2bf3	0.13493328
163	0x3e232f9c	0.1593613
164	0x3e5788d1	0.21048285
165	0xbeb72c5d	-0.35776034
166	0xbf470c87	-0.7775349
167	0x3de53b12	0.111929074
168	0xbef8850f	-0.48539016
169	0x3dd89703	0.10575678
170	0xbf8177e0	-1.0114708
171	0xbf7e6698	-0.99375296
172	0xbf022e55	-0.5085195
173	0xbd46ef6b	-0.04856817
174	0x3e7930c6	0.24335012
175	0xbea8826b	-0.32912
176	0x3dc7ad46	0.09749846
177	0x3ece5685	0.40300384
178	0x3ea34751	0.31890348
179	0xbe52e296	-0.20594248
180	0xbe93239e	-0.2873811
181	0x3e2aa788	0.1666547
182	0x3e554eac	0.20830792
183	0xbf380013	-0.71875113
184	0xbf47a77b	-0.7798993
185	0x3f06961f	0.52572817
186	0x3dc2c1c8	0.09509617
187	0xbe777f57	-0.2416967
188	0x3f71f322	0.94511616
189	0xbf878da2	-1.0590098
190	0xbf4ceae3	-0.8004591
191	0x3f016cea	0.50556815
192	0xbf3de7dd	-0.7418192
193	0x3e9d84bc	0.3076533
194	0xbdbd39be	-0.09239529
195	0xbd86c387	-0.06580263
196	0x3e2e7383	0.17036252
197	0xbf901065	-1.1255003
198	0xbf271519	-0.6526657
199	0xbf4b8a48	-0.79507875
200	0xbf110815	-0.5665296
201	0x3e19e61a	0.15029183
202	0xbee808e1	-0.45319274
203	0xbe6bad29	-0.23015274
204	0xbe516cf6	-0.20451722
205	0xbdbed0eb	-0.09317192
206	0xbca1e10c	-0.019760631
207	0x3eb83345	0.35976616
208	0x3b8c4ee2	0.0042818645
209	0xbe4bf850	-0.19918942
210	0xbf52b9a6	-0.8231453
211	0xbef6f027	-0.48230097
212	0xbea93cbe	-0.33054155
213	0xbf3be172	-0.7339088
214	0xbf8555a2	-1.0416758
215	0xbeeba34c	-0.46023023
216	0x3f0fbc55	0.56146747
217	0xbf01b94e	-0.5067338
218	0xbe3b2918	-0.18277395
219	0xbe855784	-0.26043332
220	0xbf3ffcb2	-0.7499496
221	0x3e4f5795	0.20248254
222	0x3ee2a5a7	0.44267008
223	0xbe9732cb	-0.2953094
224	0xbf3af944	-0.730366
225	0x3e9d7b08	0.30757928
226	0xbeb9a38a	-0.36257583
227	0xbda99a8b	-0.0828143
228	0xbf252290	-0.64505863
229	0x3dc549e2	0.09633233
230	0xbf4c6b43	-0.7985117
231	0xbf2f014d	-0.6836136
232	0xbbb2321d	-0.005438103
233	0xbe040b62	-0.12894967
234	0xbf315547	-0.6927075
235	0x3eb6bab8	0.3568933
236	0xbe5867f6	-0.21133408
237	0xbca0f9bb	-0.01965033
238	0xbf6c3327	-0.9226555
239	0x3d75a73b	0.059973937
240	0x3eb2dcab	0.3493398
241	0xbee8f3e9	-0.4549859
242	0x3e1b8eb0	0.1519115
243	0x3e764405	0.24049385
244	0x3e90c753	0.28277072
245	0xbf312691	-0.6919947
246	0xbea19b7b	-0.31563935
247	0x3d4f3d97	0.050595846
248	0xbdf7a798	-0.12092513
249	0xbf125ced	-0.57173043
250	0xbf818d41	-1.0121232
251	0x3f0b77bd	0.5447958
252	0xbe4352c4	-0.19074541
253	0xbf74a6e6	-0.95567167
254	0x3f0ea805	0.5572513
255	0xbee1836b	-0.44045576

bias f4 [256]
0	0xbf01883f	-0.5059852
1	0x3e9d3f6b	0.30712447
2	0xbf0060fb	-0.5014798
3	0x3f46516c	0.7746799
4	0xbe2c09ed	-0.16800661
5	0xbe31627f	-0.1732273
6	0xbd44be74	-0.048033193
7	0x3f16c966	0.5890106
8	0xbf07fd46	-0.5312084
9	0xbe82f0dc	-0.25574386
10	0x3f22611e	0.6342944
11	0xbd476484	-0.048679844
12	0xbed3e014	-0.41381896
13	0xbe91432e	-0.28371567
14	0x3e4f9fd4	0.20275813
15	0x3f3d92df	0.7405223
16	0x3eda8146	0.42676753
17	0x3f2e2d21	0.6803761
18	0xbe33bef1	-0.17553307
19	0x3f70c3e6	0.9404892
20	0x3f48b7d4	0.784055
21	0x3f71e509	0.94490105
22	0xbea252ec	-0.3170389
23	0x3e1521c7	0.14563666
24	0xbe837e1c	-0.2568215
25	0x3f43d926	0.7650322
26	0x3e76e8c2	0.24112228
27	0xbe25d9d1	-0.16196372
28	0xbe4c3299	-0.19941176
29	0x3da581af	0.08081376
30	0x3e97e888	0.29669595
31	0x3ef8350e	0.48477978
32	0x3f376f7f	0.71654505
33	0xbda594e4	-0.08085039
34	0x3f872936	1.0559452
35	0x3eb3026f	0.34962794
36	0xbf06b003	-0.5261232
37	0xbdcc66b5	-0.09980527
38	0x3d449595	0.047994215
39	0xbee4b03b	-0.44665703
40	0x3f6ca694	0.9244168
41	0xbc359d80	-0.011084914
42	0x3f271ff5	0.6528314
43	0x3dd69331	0.10477293
44	0xbedd1b73	-0.43185005
45	0x3e8255d8	0.2545612
46	0xbeed76df	-0.46379754
47	0x3ec58c2e	0.3858351
48	0x3de2ef3a	0.11080785
49	0xbf11f497	-0.5701384
50	0x3f7d6baf	0.9899244
51	0x3e24120a	0.16022506
52	0x3f6c3442	0.9226724
53	0xbe800793	-0.2500578
54	0x3d906aaf	0.07051598
55	0x3f15c1e8	0.58499
56	0x3f58f10f	0.84742826
57	0x3f3b30dd	0.73121434
58	0xbe0c6b19	-0.1371273
59	0xbdced0e7	-0.10098439
60	0xbec57261	-0.38563827
61	0x3f0e6b4a	0.5563246
62	0x3f6a943a	0.91632426
63	0x3f014ddb	0.50509423
64	0x3f045e68	0.5170655
65	0xbdf7fe05	-0.12108997
66	0x3f57e935	0.8434022
67	0xbeb4f4d4	-0.3534304
68	0xbf0733fc	-0.52813697
69	0x3ed97978	0.42475486
70	0x3ef5bf7e	0.4799766
71	0x3f161e86	0.58640325
72	0x3ba0bb44	0.0049051363
73	0x3f4e013a	0.8047062
74	0x3dd0e7d9	0.102004714
75	0xbd969ad7	-0.07353752
76	0x3e824027	0.2543957
77	0x3f04e2c7	0.51908535
78	0xbc61c40a	-0.0137796495
79	0x3f435905	0.7630771
80	0xbecd739a	-0.4012726
81	0x3e97a6b6	0.29619378
82	0xbebfb9ae	-0.3744635
83	0x3eda0201	0.42579654
84	0x3f605862	0.8763486
85	0x3f13728b	0.57596654
86	0x3f62e9ae	0.88637817
87	0x3f0f5961	0.55995756
88	0xbeb66c5d	-0.3562955
89	0xbddf42a7	-0.10901385
90	0x3ec2cd20	0.38047123
91	0x3f7c04e9	0.9844499
92	0x3efc170e	0.4923634
93	0xbdd31a70	-0.10307777
94	0x3f112d17	0.56709427
95	0x3f87e0c8	1.0615473
96	0x3f8005da	1.0001786
97	0xbea3b76b	-0.31975874
98	0x3f3140f5	0.6923974
99	0x3f4f898b	0.8106925
100	0xbcc72270	-0.024308413
101	0x3f769807	0.96325725
102	0x3f2a8c9b	0.66620797
103	0xbedc7684	-0.4305917
104	0x3ee59ab0	0.4484458
105	0x3eef12ef	0.46694133
106	0x3ad095b3	0.0015913754
107	0x3efe7d45	0.49704948
108	0x3e8f5a8a	0.27998763
109	0x3f47fca9	0.78119904
110	0x3e6416cd	0.22274323
111	0xbf04c105	-0.51857024
112	0xbe3c5390	-0.18391252
113	0xbeacbcbe	-0.3373775
114	0xbef2b46c	-0.47403276
115	0xbeb7a144	-0.35865223
116	0x3d894e84	0.06704429
117	0xbe5d22c4	-0.21595293
118	0x3d24cd87	0.04023507
119	0x3dd825a7	0.105540566
120	0x3ed55d9b	0.41672978
121	0xbe5d0b6e	-0.21586391
122	0x3f5621b9	0.83645207
123	0x3daa7960	0.08323932
124	0xbf148e07	-0.58029217
125	0x3f8724cb	1.0558103
126	0x3dc1900b	0.09451302
127	0x3f822cf2	1.0169966
128	0x3f28fd25	0.6601127
129	0x3f23357c	0.63753486
130	0xbeb2438e	-0.34817165
131	0x3f6bbeca	0.92087996
132	0x3ede7420	0.4344797
133	0x3f0d7252	0.55252564
134	0x3f1082ba	0.5644947
135	0x3d957b0a	0.072988585
136	0xbf0293df	-0.51006883
137	0xbf0e2a2c	-0.555331
138	0xbece6ac4	-0.4031583
139	0xbc45cd5c	-0.012072887
140	0x3f4812a5	0.7815345
141	0xbf0fecce	-0.5622071
142	0x3f06fb79	0.52727467
143	0x3f6e3034	0.930423
144	0xbcac3473	-0.021021103
145	0x3ee7e85b	0.4529446
146	0x3d592a95	0.053019125
147	0x3e39d689	0.18148245
148	0xbe597ad3	-0.2123826
149	0x3eb0a93d	0.3450412
150	0x3f85fd52	1.0467932
151	0x3f318e53	0.69357795
152	0x3f5bb014	0.8581555
153	0xbe57b929	-0.21066727
154	0x3f1c1bcc	0.60979915
155	0xbea59dbd	-0.32346907
156	0x3e933446	0.2875082
157	0x3f70a526	0.94001997
158	0xbde7b37b	-0.1131353
159	0xbec950e5	-0.3931953
160	0x3e84c1d9	0.25929144
161	0xbe0470b0	-0.12933612
162	0x3f59db6b	0.8510043
163	0xbf15b572	-0.5847999
164	0xbeb57397	-0.3543975
165	0x3f67e7e2	0.905882
166	0xbe01536f	-0.12629484
167	0x3f58fe18	0.84762716
168	0xbdacb6f5	-0.08433334
169	0xbf2d8ca5	-0.6779273
170	0x3f069379	0.52568775
171	0xbe51588e	-0.20443937
172	0xbe6092a5	-0.2193094
173	0x3e73e790	0.23818803
174	0x3db4c6b0	0.08826959
175	0x3c2ab8d6	0.010420045
176	0x3f578356	0.8418478
177	0xbe8d5fab	-0.2761205
178	0x3e3f7957	0.18698631
179	0xbe0fdacc	-0.14048308
180	0x3eabf22c	0.335832
181	0x3f38a161	0.72121245
182	0x3df68030	0.120361686
183	0xbe8683de	-0.26272482
184	0xbebdc89f	-0.37067124
185	0xbeea4c7a	-0.45761472
186	0x3eeb481e	0.4595346
187	0x3f44427f	0.76663965
188	0xbd8433c4	-0.06455186
189	0xbe9f8b63	-0.3116103
190	0x3efe8438	0.4971025
191	0xbd5fc362	-0.05462969
192	0x3f53fe36	0.8280977
193	0x3f6887c7	0.9083218
194	0x3ea6cbc0	0.32577324
195	0x3efc9b0e	0.49337047
196	0xbd851bfa	-0.06499477
197	0x3f1053fc	0.5637815
198	0x3ea78a03	0.32722482
199	0x3eb4deaf	0.35326144
200	0xbd1cf5fe	-0.038320534
201	0x3e3ad34b	0.18244664
202	0xbeef1f4f	-0.46703574
203	0x3f01b46a	0.50665915
204	0x3d28c34e	0.041201882
205	0xbe285a3a	-0.16440669
206	0xbef0c212	-0.47023064
207	0xbebd3612	-0.36955315
208	0x3f846a08	1.0344858
209	0x3f2d9532	0.6780578
210	0xbd0b6399	-0.03403053
211	0x3f52f14e	0.8239945
212	0x3f266fcd	0.65014344
213	0x3f2b3c50	0.66888905
214	0xbf227d86	-0.63472784
215	0x3f76a86b	0.96350735
216	0xbf0f0c56	-0.558782
217	0x3f3072d4	0.68925214
218	0xbdf1e84b	-0.118118845
219	0xbd8ba1d0	-0.06817973
220	0x3bda890b	0.006669169
221	0xbd0cd242	-0.034380205
222	0x3f6daa1d	0.928377
223	0x3f490647	0.78525203
224	0x3e7b0a1d	0.24515577
225	0x3ec2b2bd	0.3802699
226	0x3de66113	0.11248984
227	0x3f36663e	0.7124976
228	0xbf1cc520	-0.6123829
229	0x3e90bd3e	0.2826938
230	0x3eea3800	0.4574585
231	0x3e83adcf	0.25718543
232	0x3e6bd2e5	0.23029669
233	0xbe269f2a	-0.16271654
234	0x3c8bfcdd	0.017088348
235	0xbf0e7a5c	-0.55655456
236	0x3efe96f8	0.49724555
237	0x3f4dcf2e	0.80394256
238	0xbdaf2e65	-0.08553771
239	0x3f17d450	0.5930834
240	0x3ef74a47	0.48298857
241	0xbea754e3	-0.3268195
242	0x3e9f16c4	0.31072056
243	0xbe036ec9	-0.1283523
244	0xbe987cab	-0.29782614
245	0x3ec2d4ef	0.3805308
246	0xbf26c0d7	-0.65138
247	0x3f861031	1.0473691
248	0x3f487a95	0.78312045
249	0xbe8b5774	-0.2721516
250	0x3e91346d	0.2836031
251	0x3e299003	0.16558842
252	0xbdae97f1	-0.08525074
253	0xb8b7fd00	-8.773245e-05
254	0x3f0a6e4c	0.5407455
255	0xbe13eb33	-0.1444519

weight f4 [256, 256]
0	0x3d2663e8	0.04062262
1	0x3d13ee35	0.036115844
2	0x3d2daa1c	0.042398557
3	0xbbb8cf5e	-0.0056399545
4	0x3cb32094	0.02186612
5	0x3d8b2ba9	0.06795437
6	0xbd10b738	-0.03533098
7	0xbcfb9028	-0.030708387
8	0x3bcc5301	0.006235481
9	0xbc573e1a	-0.013137365
10	0xbce82bf5	-0.028341273
11	0x3d1b1d18	0.037869543
12	0x3d1c3223	0.03813375
13	0xbd82c170	-0.063845515
14	0xbccdb994	-0.025112905
15	0xbd7e218c	-0.06204371
16	0x3d255c68	0.04037133
17	0xbd3a0522	-0.04541505
18	0x3d2cf33e	0.04222416
19	0x3d59ed6f	0.05320495
20	0x3d12960e	0.035787635
21	0xbc02799e	-0.007963566
22	0x3bc0d460	0.005884692
23	0xbce91aaa	-0.028455097
24	0xbd807e68	-0.0627411
25	0x3c0deec4	0.008662883
26	0xbbd03090	-0.0063534454
27	0xbbed16fe	-0.007235407
28	0x3cdf2739	0.027240383
29	0xbd4e2eba	-0.05033753
30	0x3d1b985c	0.037987098
31	0x3cc3c111	0.023895772
32	0xbd02eaad	-0.031962086
33	0xbd485407	-0.04890826
34	0xbc2aaa80	-0.010416627
35	0x3bf10b30	0.00735607
36	0xbd6e6f86	-0.058211826
37	0xbc9311fc	-0.017952912
38	0xbcbe3668	-0.023219302
39	0x3ae88f40	0.0017742887
40	0x3b1d1b2d	0.0023972497
41	0xbd0ea4d8	-0.034825176
42	0x3d06379e	0.032767884
43	0xbcabe5e8	-0.020983651
44	0xbd32cc07	-0.043651607
45	0xbd587812	-0.052848883
46	0x3c6b064a	0.014344761
47	0xbb3eaaf4	-0.0029093595
48	0x3d5d76fe	0.054068558
49	0x3c9262c0	0.017869353
50	0x3d77cc6c	0.060497686
51	0xbd3cee16	-0.046125494
52	0x3c014de0	0.007892102
53	0x3d02ce31	0.03193492
54	0xbbdb1022	-0.006685273
55	0x3d62084c	0.055183694
56	0xba0f2d95	-0.00054618093
57	0x3cac8abc	0.021062247
58	0x3c299860	0.01035127
59	0xbc21171c	-0.00983217
60	0xbc6a7a61	-0.014311404
61	0x3d6404aa	0.05566851
62	0xbc8b31f2	-0.01699159
63	0x3c561c38	0.013068251
64	0xbd5a015d	-0.053223956
65	0x3d10f921	0.035393838
66	0x3c47ece0	0.0122024715
67	0xbd08dd06	-0.03341391
68	0x3c91d9dc	0.017804079
69	0xbcda779c	-0.026668362
70	0xbc3592f8	-0.011082403
71	0x3d239b5a	0.039943077
72	0x3acfbf00	0.0015849769
73	0x3cfbe100	0.030746937
74	0xbd85983d	-0.06523178
75	0x3cc73599	0.02431755
76	0x3d4e54f6	0.050373994
77	0xbb983b65	-0.0046457523
78	0xbd830af9	-0.06398577
79	0x3cbcb350	0.023034722
80	0x3d5c102f	0.05372637
81	0xbc34a54f	-0.011025741
82	0xbd516faa	-0.05113188
83	0xbd56eb10	-0.052470267
84	0x3bb4ac00	0.005513668
85	0xbbabef40	-0.0052470267
86	0xbc8735bc	-0.016505115
87	0x3a236b80	0.00062339753
88	0xbce33f60	-0.02774018
89	0x3cadc1f0	0.02121064
90	0x3d58326c	0.05278246
91	0xbd2a9776	-0.04164835
92	0xbc9678a0	-0.018368065
93	0xbcde1b14	-0.027112521
94	0xbd6ea300	-0.058260918
95	0x3d44a2b2	0.04800672
96	0xbbbebbdc	-0.0058207344
97	0xbc7e3e24	-0.015517745
98	0x3d507c26	0.050899647
99	0x3cfc9c0c	0.030836128
100	0x3cf849e4	0.030308671
101	0x3a8baa80	0.0010655671
102	0xbd1c869c	-0.03821431
103	0xbd8a05dd	-0.067393996
104	0xbc92652d	-0.01787051
105	0xbd3d8169	-0.046265993
106	0x3d1a0f66	0.03761234
107	0x3c8a2d50	0.01686731
108	0xbd57602c	-0.05258195
109	0xbc4eee68	-0.012630083
110	0xbbcc8b20	-0.006242171
111	0xbd7493f0	-0.059711397
112	0xbd56c4cc	-0.052433774
113	0xbd7e0500	-0.062016487
114	0x3d406a2d	0.046976257
115	0xbd363186	-0.044480823
116	0x3c39bc3b	0.011336382
117	0x3c8b4540	0.017000794
118	0xbbe1919d	-0.0068838135
119	0x3bf574c2	0.0074907253
120	0x39ab8820	0.00032717083
121	0x3cef9c34	0.029249288
122	0x3c283b20	0.010268003
123	0xbd1635fe	-0.036672585
124	0x3d4aed0c	0.04954247
125	0xbd451306	-0.048113845
126	0xbd0a4a5c	-0.03376232
127	0x3d3ef5c8	0.046621114
128	0xbcb46db9	-0.022024976
129	0xbc18494a	-0.009294817
130	0x3ccb21bc	0.02479636
131	0x3d4f44b2	0.050602622
132	0xbd552ea4	-0.052046433
133	0x3d602b74	0.05472894
134	0x3d309930	0.04311484
135	0x3d3bff2f	0.04589766
136	0x3ccf0bc0	0.025274158
137	0xbca8330c	-0.020532154
138	0xbd48b214	-0.048997954
139	0xbd624220	-0.055238843
140	0xbbe3df88	-0.0069541372
141	0x3cdd3b94	0.027005948
142	0xbd8d51bb	-0.069003545
143	0xbd5b4d0e	-0.053540282
144	0x3d154333	0.03644104
145	0xb9adfc00	-0.00033184886
146	0xbce9e74c	-0.028552674
147	0xbd21a9d2	-0.039468594
148	0xbd10c6dd	-0.0353459
149	0x3d1d7448	0.038440973
150	0xbd5895a2	-0.052877076
151	0x3d0f2aed	0.034953047
152	0xbd79303c	-0.060837016
153	0xbca88698	-0.020571992
154	0x3d179ef2	0.037016816
155	0x3d2a3859	0.041557644
156	0xbcd7e9ea	-0.026356656
157	0xbd2eee62	-0.04270781
158	0xbd72f733	-0.05931778
159	0x3d40a834	0.04703541
160	0x3d12ac0a	0.0358086
161	0x3d577bff	0.052608486
162	0x3cd4a6ca	0.025958437
163	0x3d3116a6	0.04323449
164	0x3a8e7ec0	0.0010871515
165	0x3c125b5e	0.008932916
166	0x3c99c54d	0.018770838
167	0x3d2116fc	0.03932856
168	0xbd828548	-0.06373078
169	0xbcc56183	-0.024094349
170	0xbd1abfe2	-0.03778065
171	0xbcbb1110	-0.022835284
172	0xbd881ec0	-0.0664649
173	0xbcbe01d2	-0.023194227
174	0xbcf898b7	-0.030346258
175	0xbd5acf48	-0.053420335
176	0x3d756012	0.059906073
177	0xbd43ef06	-0.047835372
178	0xbd4c148e	-0.04982429
179	0xbd0f0a28	-0.034921795
180	0xbd668086	-0.056274913
181	0x3cde788b	0.027157089
182	0xbd4163ca	-0.047214307
183	0xbd83c0e0	-0.06433272
184	0xbd4e3aa2	-0.050348885
185	0x3cead23e	0.028664704
186	0x3d63960e	0.055563025
187	0xbd7631a8	-0.06010595
188	0x3c0d6f9a	0.008632565
189	0xbc428536	-0.01187258
190	0xbcf3b3e3	-0.029748863
191	0x3cce1e17	0.025160832
192	0x3c0b0012	0.0084839035
193	0xbce6c4a4	-0.028169937
194	0xbc111ee8	-0.008857466
195	0xbbd78180	-0.006576717
196	0x3d3a8220	0.045534253
197	0xbc8bd8dc	-0.01707118
198	0x3c587b3d	0.013212976
199	0x3d0c403e	0.034240954
200	0x3c33feeb	0.01098607
201	0xba626700	-0.0008636564
202	0xbbcfe80b	-0.0063448003
203	0xbba1d7f1	-0.0049390723
204	0x3c30ae06	0.010783678
205	0xbae26d84	-0.001727507
206	0xbc9a2e5a	-0.01882093
207	0x3be2d140	0.006921917
208	0xbc940ca0	-0.018072426
209	0xbd4140c5	-0.04718091
210	0xbc81033d	-0.015748614
211	0x3d3f6026	0.046722554
212	0xbbc4cce6	-0.006005871
213	0x3c039b90	0.008032694
214	0x3d3317ea	0.043723978
215	0x3d0caf04	0.034346595
216	0x3c5b7442	0.013394417
217	0xbd546e8c	-0.05186324
218	0x3d22db70	0.039760053
219	0xbd25d837	-0.0404894
220	0xbd6b1798	-0.057395548
221	0xbd58a275	-0.052889306
222	0x3d04ae41	0.032392744
223	0xbcd1d3b1	-0.025613638
224	0x3d6e52f0	0.058184564
225	0x3c2ddadd	0.010611263
226	0x3d3fa05f	0.0467838
227	0xbc438b28	-0.011935033
228	0xbd43b16c	-0.047776625
229	0xbd09788e	-0.033562236
230	0x3c5375a4	0.012906466
231	0xbd7ae4e8	-0.06125346
232	0xbd13a22e	-0.03604334
233	0x3c6d1d58	0.014472328
234	0xbd6d2cf7	-0.05790421
235	0xbd8a7c84	-0.06762031
236	0x3d5947f9	0.053047154
237	0xbd622530	-0.055211246
238	0x3d57a817	0.052650537
239	0xbbb9ee2a	-0.0056741433
240	0x3d2e4bd0	0.04255277
241	0xbd09b2d1	-0.0336178
242	0xbd566cd8	-0.052349895
243	0xbca83e0e	-0.020537402
244	0x3cc2e158	0.023789093
245	0xbd471e73	-0.048613023
246	0xbd4215aa	-0.04738394
247	0xbb2562e0	-0.0025235936
248	0xbcb496e0	-0.022044599
249	0xbd6420e2	-0.055695422
250	0x3c97b3d7	0.018518372
251	0xbc4aa375	-0.012368073
252	0xbd530ffb	-0.051528912
253	0x3b81eec0	0.003965229
254	0xbd1409fe	-0.03614234
255	0xbd85706b	-0.06515583

bias f4 [256]
0	0xbc895080	-0.016762018
1	0x3d30eb51	0.043193165
2	0x3ec08848	0.37603974
3	0xbd36f326	-0.04466548
4	0x3ed7c975	0.42145887
5	0xbcb821bd	-0.022477025
6	0xbd8995d3	-0.0671803
7	0xbd357070	-0.044296682
8	0xbd2ec26a	-0.042665876
9	0xbd6642ae	-0.056215934
10	0x3eba46c7	0.36382124
11	0x3eb43024	0.35192978
12	0x3eebbea0	0.46043873
13	0x3ecd28cb	0.40070185
14	0x3ecfb396	0.405667
15	0x3efd4fcc	0.49474943
16	0x3ecc6169	0.39918068
17	0x3caba49b	0.020952513
18	0x3d0446e8	0.032294184
19	0x3edc7bb2	0.43063122
20	0x3d17303b	0.03691123
21	0x3d3ddaa7	0.0463511
22	0x3ee0763c	0.43840206
23	0x3dd5c5e7	0.104381375
24	0x3cf3c0b5	0.029754976
25	0x3d0a6f38	0.033797473
26	0x3c152dc8	0.009105153
27	0x3ecb0c4f	0.39657828
28	0x3ee65c74	0.4499241
29	0xbc5028ee	-0.012705071
30	0x3ed9c4a3	0.42532834
31	0x3ec9f297	0.39442894
32	0x3ed9fe85	0.42576995
33	0xbd8304e0	-0.06397414
34	0x3ebcc56e	0.36869377
35	0x3eead17e	0.45862955
36	0x3ee40d36	0.4454133
37	0xbd374ca4	-0.044750825
38	0x3ede0d13	0.4336935
39	0xbdcf1750	-0.101118684
40	0x3d3adf3c	0.04562305
41	0xbc617088	-0.01375974
42	0x3d08d52b	0.033406418
43	0xbd659fbd	-0.05606054
44	0xbd1a456b	-0.03766386
45	0xbd0eaff2	-0.034835763
46	0x3d18160e	0.037130408
47	0xbd23ecaa	-0.040020622
48	0x3f01a992	0.5064937
49	0xbd5d0d64	-0.05396785
50	0x3ba770e1	0.0051098918
51	0x3ecf0dd0	0.40440226
52	0x3ebf2d49	0.37339237
53	0x3eeafe72	0.4589725
54	0x3cd5f1a2	0.026116196
55	0xbd67ee1c	-0.056623563
56	0x3eda3991	0.42622045
57	0x3a8076a2	0.000980098
58	0x3d388374	0.04504724
59	0xbd910213	-0.07080474
60	0xbd9f5d64	-0.07781485
61	0x3ee17d06	0.44040698
62	0x3ec80340	0.3906498
63	0x3eecd738	0.4625795
64	0x3ed73ab5	0.42036977
65	0xbd4c6491	-0.049900595
66	0x3cc5edae	0.024161186
67	0xbd796e1b	-0.06089602
68	0xbd3e246a	-0.046421446
69	0xbd8daabb	-0.0691733
70	0x3ef5bb41	0.47994426
71	0x3eb79c84	0.358616
72	0x3ef74202	0.48292547
73	0x3edf4cf5	0.436134
74	0xbcd01ce4	-0.025404401
75	0x3ee4537a	0.44594938
76	0xbd4a0c56	-0.04932817
77	0x3ec71f00	0.3889084
78	0xbd286363	-0.041110408
79	0x3aef2de7	0.0018247933
80	0x3efa8b23	0.48934278
81	0xbd5059ff	-0.050867077
82	0x3d4cc767	0.049994852
83	0x3cfaa0e8	0.030594304
84	0xbbaaf7b3	-0.0052175163
85	0xbc89e0df	-0.01683086
86	0xbbc97d70	-0.0061489865
87	0xbd4a98bd	-0.04946207
88	0xbd514872	-0.05109448
89	0xbd1216c6	-0.03566625
90	0x3ed08520	0.40726566
91	0x3ee393fa	0.44448835
92	0xbd4a1aea	-0.049342074
93	0x3beb074e	0.0071725016
94	0x3ef6eca4	0.48227417
95	0xbb5dee2f	-0.0033863892
96	0x3ed9bef4	0.42528498
97	0xbd200e62	-0.039076217
98	0xbc34f908	-0.011045702
99	0xbc7f4ec0	-0.01558274
100	0x3efa2ad3	0.48860797
101	0x3ec03804	0.37542737
102	0x3d0dbb75	0.0346026
103	0x3cad4540	0.021151185
104	0x3c3313fb	0.010930057
105	0x3ecd42cd	0.40090027
106	0x3eb9b832	0.36273342
107	0x3ee3a434	0.44461215
108	0x3ef1a59d	0.47196665
109	0xbd630ea0	-0.05543387
110	0xbc8ed780	-0.017436743
111	0x3ee6e53a	0.4509676
112	0x3ebd4a81	0.36970904
113	0x3d1a7daf	0.037717517
114	0xbd033ef5	-0.032042462
115	0x3d30bc74	0.043148473
116	0x3caff141	0.021477344
117	0x3cf461b3	0.029831743
118	0x3ec3a4d8	0.38211703
119	0xbc52558e	-0.012837781
120	0x3d44b255	0.048021633
121	0xbd55a1dc	-0.052156314
122	0x3baecdf6	0.005334611
123	0x3c6b1c0a	0.014349947
124	0x3bcfe99f	0.0063449885
125	0x3cf753d0	0.030191332
126	0x3cb5ee2c	0.022208296
127	0x3eaec3b7	0.34133694
128	0x3eb9b302	0.36269385
129	0xbd5c9c64	-0.053860083
130	0x3c3fbe8e	0.011703147
131	0x3ec83684	0.39104092
132	0xbd84548c	-0.064614385
133	0xbcc5c895	-0.024143497
134	0xbd0cc9ca	-0.03437213
135	0x3ef3884f	0.47564933
136	0xbd1dafbc	-0.03849767
137	0x3df7ceb0	0.120999694
138	0x3cb81fc2	0.02247608
139	0x3edfa3b3	0.4367958
140	0xbda121c6	-0.0786777
141	0xbaacfab1	-0.001319727
142	0x3ee95083	0.45569238
143	0x3ebd44fe	0.369667
144	0x3d0437c8	0.03227976
145	0x3d18e293	0.037325453
146	0xbd0bf3ca	-0.034168042
147	0x3eeb7092	0.45984322
148	0x3ef347e3	0.47515783
149	0x3ef6d971	0.4821277
150	0xbc654554	-0.01399358
151	0xbd78a689	-0.060705695
152	0xbd4fa1cf	-0.050691422
153	0xbb478efc	-0.0030450216
154	0x3ee7c421	0.45266822
155	0x3ef4e5a2	0.47831446
156	0xbc9e2a05	-0.019307146
157	0x3ed2ed1b	0.41196522
158	0x3eb6388d	0.3559002
159	0xbd58fea8	-0.052977234
160	0x3d4db516	0.050221525
161	0x3f002e59	0.5007072
162	0x3ef9b582	0.48771292
163	0x3efd5976	0.49482316
164	0x3d030ce7	0.031994727
165	0x3d19d43e	0.037555926
166	0x3ec6d417	0.38833687
167	0x3ef5b007	0.4798586
168	0x3eb39bf2	0.35079914
169	0x3cfdce34	0.030982114
170	0xbca77548	-0.020441666
171	0x3ecf125f	0.40443704
172	0x3d415db6	0.04720851
173	0x3ed3a35e	0.41335577
174	0x3ed4876e	0.41509575
175	0xbc70302c	-0.014659923
176	0x3ef46cdf	0.47739312
177	0xbce1eb61	-0.027578058
178	0x3c49c576	0.012315145
179	0x3ee293b3	0.4425331
180	0x3efd2f98	0.49450374
181	0x3ee2926b	0.44252333
182	0xbc8258fe	-0.015911575
183	0x3eef776d	0.46770802
184	0xbd4491c6	-0.047990583
185	0xbc5f5d91	-0.013633148
186	0xbc669e5f	-0.014075845
187	0x3d42b2bf	0.047533747
188	0x3b5f6bcf	0.0034091359
189	0xbb88c6f0	-0.004174106
190	0x3ec83741	0.39104655
191	0x3c80664d	0.01567378
192	0xbb6853ec	-0.0035450412
193	0x3ef38a68	0.47566533
194	0x3ecfd428	0.4059155
195	0x3ca23553	0.019800818
196	0xbcda6c04	-0.026662834
197	0xbcb9e6e9	-0.022693114
198	0xbd2102a6	-0.039309166
199	0x3e88e31a	0.26735765
200	0x3d004082	0.03131152
201	0x3ec4fe7d	0.3847541
202	0xbd4af3c3	-0.049548876
203	0x3ee757e9	0.45184258
204	0x3d11a9bc	0.035562262
205	0x3eede6d5	0.46465173
206	0xbd15b8bc	-0.03655313
207	0xbd90ad38	-0.07064289
208	0xb6edd855	-7.0883348e-06
209	0x3ef95787	0.4869959
210	0x3c1b0167	0.009460784
211	0x3ee721c5	0.45142952
212	0x3d327bb1	0.043574993
213	0x3ec9194b	0.3927711
214	0x3cab9766	0.020946216
215	0x3edbd7ef	0.42938182
216	0x3ecb797f	0.39741132
217	0x3c820c62	0.015875045
218	0xbd65bbe7	-0.0560874
219	0x3ec4e533	0.38456115
220	0xbd427faf	-0.04748505
221	0xbd250820	-0.04029095
222	0x3ec6a1a3	0.38795194
223	0xbd3a5c89	-0.045498405
224	0x3ebc28cc	0.36749876
225	0xbc1e6d70	-0.009669647
226	0x3ebfc2e9	0.37453392
227	0xbc956d70	-0.01824066
228	0x3edae083	0.42749414
229	0x3b87e9f1	0.004147761
230	0x3ed81efa	0.42211133
231	0x3f076480	0.52887726
232	0x3eea5428	0.4576733
233	0x3ec57488	0.3856547
234	0x3ec2d54c	0.38053358
235	0x3d4543cb	0.048160356
236	0xbd84c0d0	-0.064820886
237	0x3ee698c6	0.45038432
238	0xbcd9927c	-0.026559107
239	0x3ebf54cd	0.37369385
240	0x3cdeb0f3	0.027183985
241	0xbba3ae2e	-0.004995129
242	0x3d0acfad	0.03388946
243	0xbc9dcaa3	-0.019261664
244	0xbd2e46d3	-0.042548012
245	0x3ee9742a	0.4559644
246	0x3ed753a5	0.42056003
247	0x3ecedb69	0.40401772
248	0xbc2a1970	-0.010382041
249	0x3ee9de74	0.4567753
250	0x3ed2ffb4	0.4121071
251	0x3ee8d7fc	0.45477283
252	0x3ed2fe10	0.4120946
253	0x3eed4f2b	0.46349463
254	0x3c987944	0.018612511
255	0x3f00f542	0.50374234

weight f4 [2, 256]
0	0xbb50d1ba	-0.0031863288
1	0xbbacdd50	-0.005275406
2	0xbe8c2591	-0.2737241
3	0x3b927ebf	0.0044706757
4	0xbde0bebd	-0.109738804
5	0x3b0e6270	0.0021726154
6	0x3c86b0f2	0.016441796
7	0xbba35438	-0.004984405
8	0x3a23f67b	0.0006254685
9	0x3c6c6c7d	0.0144301625
10	0xbe98b1d0	-0.2982316
11	0xbe525c42	-0.20543006
12	0xbe90510d	-0.28186837
13	0xbdd0d1d7	-0.10196274
14	0xbe8ca3e4	-0.2746879
15	0xbe8b3823	-0.27191266
16	0xbe7c4c6a	-0.24638525
17	0xbb85ff41	-0.0040892665
18	0xbb1fcf2a	-0.0024384954
19	0xbe9f4097	-0.31103966
20	0xbb964825	-0.004586237
21	0x3adbd9e3	0.0016773309
22	0xbdc33468	-0.0953148
23	0xbccca12c	-0.024979196
24	0xbbe73d1a	-0.0070568444
25	0xbb327561	-0.0027230608
26	0x3ad0de64	0.0015935418
27	0xbee609dd	-0.449294
28	0xbecde79d	-0.4021577
29	0xbc05cea8	-0.0081669465
30	0xbe791084	-0.24322706
31	0xbeb46537	-0.3523347
32	0xbe64ae5c	-0.22332138
33	0xbce0f1d4	-0.027459063
34	0xbda30d25	-0.079614915
35	0xbe9dc725	-0.30815998
36	0xbdc31458	-0.09525365
37	0x3bc424e6	0.005985844
38	0xbebba5f3	-0.36650047
39	0x3b020458	0.0019839015
40	0xbb84992a	-0.004046579
41	0xbd280301	-0.04101849
42	0xbc0be1c4	-0.008537713
43	0x3ba5195c	0.0050384235
44	0xbb9198f1	-0.004443281
45	0xb8fe7053	-0.00012132586
46	0x3a943ff9	0.0011310569
47	0xbc0c3273	-0.00855695
48	0xbeb5dc79	-0.3551977
49	0x3a17b65b	0.0005787366
50	0xbc1980d9	-0.009369099
51	0xbeb75091	-0.35803655
52	0xbed0830f	-0.4072499
53	0xbe5a6c79	-0.21330442
54	0xbc1ab1e7	-0.009441829
55	0x3bad8389	0.005295221
56	0xbeb5ef5c	-0.3553418
57	0x3bd5f670	0.006529622
58	0xbb822958	-0.0039722137
59	0x3ca41f6a	0.02003451
60	0xbccbfe60	-0.024901569
61	0xbe971928	-0.2951138
62	0xbe9da6fc	-0.3079146
63	0xbe771d45	-0.24132259
64	0xbe8fc133	-0.28077087
65	0x3bbe1ceb	0.005801787
66	0xbcbb3ddd	-0.022856647
67	0x3a8b5697	0.0010630664
68	0x3940c74c	0.00018384791
69	0xbbb0488d	-0.0053797425
70	0xbea652a4	-0.32484925
71	0xbeb284c3	-0.34866914
72	0xbe7e256b	-0.24818961
73	0xbea81597	-0.32828972
74	0xb9613334	-0.00021476747
75	0xbe9e6a85	-0.30940643
76	0x3ac5d9aa	0.0015094776
77	0xbeb58bfb	-0.3545836
78	0x3baff0ee	0.005369297
79	0xbbe2f5f7	-0.006926294
80	0xbe972db8	-0.29527068
81	0x3acf0c31	0.001579648
82	0x3a5d4a4d	0.00084415526
83	0xb930a524	-0.00016846188
84	0xbb4beef0	-0.003111776
85	0xbc27031c	-0.010193612
86	0x39b1a8b9	0.0003388578
87	0x3baebfdc	0.00533293
88	0x393dd8ec	0.00018105254
89	0xbc75c663	-0.015000912
90	0xbec69538	-0.3878572
91	0xbec1d727	-0.3785946
92	0xba6c004a	-0.00090027286
93	0x3bb77875	0.0055990764
94	0xbde517eb	-0.111862026
95	0x3cafc9bd	0.021458501
96	0xbef22dcc	-0.47300565
97	0x390c2b5d	0.00013367595
98	0xb98b6477	-0.00026586998
99	0xbab6008b	-0.001388566
100	0xbde49441	-0.1116109
101	0xbeabc7bd	-0.33550826
102	0xbc1f69a2	-0.009729775
103	0x3b078563	0.002067887
104	0x3c075af9	0.008261436
105	0xbe678d8e	-0.22612593
106	0xbe972035	-0.2951676
107	0xbe93c142	-0.28858382
108	0xbdb73229	-0.08945114
109	0xbc070d8b	-0.008242975
110	0x3c8ff6ce	0.01757374
111	0xbddc9560	-0.107706785
112	0xbe9dd843	-0.30829057
113	0xbc302bcb	-0.010752629
114	0xb9840805	-0.00025182977
115	0x3b421222	0.0029612859
116	0x3b30aa4d	0.0026956976
117	0xbb56b3d0	-0.0032760985
118	0xbdd6da2e	-0.10490833
119	0x3bf8b28f	0.007589645
120	0xba56a22b	-0.0008187617
121	0xbc285112	-0.010273235
122	0x3be0e1b9	0.0068628457
123	0xbc1dc478	-0.009629361
124	0x3c9c85c2	0.01910675
125	0xba32b583	-0.00068172085
126	0xbb8ae0e8	-0.0042382367
127	0xbd8acb76	-0.06777088
128	0xbeaf2a59	-0.34211996
129	0xbc36f142	-0.011165919
130	0x3bcdaa19	0.0062763807
131	0xbea6a5b0	-0.32548285
132	0x3bb37183	0.005476178
133	0xbc0f91c6	-0.008762782
134	0xba140e92	-0.0005647923
135	0xbeaccf70	-0.33752012
136	0x389e9d0f	7.5632815e-05
137	0xbea69ed6	-0.32543057
138	0xb9f2339a	-0.00046196283
139	0xbe2dc568	-0.16969836
140	0xbb9bee88	-0.0047586598
141	0xbcbac304	-0.022798069
142	0xbea8d2f1	-0.32973436
143	0xbeac51fb	-0.33656296
144	0x3a3e3ffc	0.0007257459
145	0xbc217440	-0.009854376
146	0x3bb4cb99	0.005517435
147	0xbe7a1f81	-0.2442608
148	0xbeb917fe	-0.36151117
149	0xbe87458e	-0.26420254
150	0xb8c613fb	-9.4450974e-05
151	0xbc2e7908	-0.010648973
152	0xbc8fa5e7	-0.017535163
153	0xba596c28	-0.00082940096
154	0xbe697c96	-0.22801432
155	0xbe808522	-0.25101572
156	0xba4f6543	-0.00079115125
157	0xbe5625f3	-0.20912914
158	0xbe091340	-0.1338625
159	0xbaba4a63	-0.0014212843
160	0x3bb42498	0.0054975264
161	0xbdd68e37	-0.10476344
162	0xbdd9cc47	-0.10634666
163	0xbdcab379	-0.09897513
164	0x3ca69c5e	0.020338234
165	0xbc3c22bf	-0.0114828935
166	0xbd9b6bfe	-0.07588957
167	0xbea20a39	-0.31648424
168	0xbe27a2f1	-0.16370751
169	0xbca0f596	-0.019648355
170	0xbbb756c5	-0.0055950605
171	0xbe321ad8	-0.17393053
172	0x39e84724	0.00044303492
173	0xbed5f288	-0.417866
174	0xbe8ab5e1	-0.27091888
175	0xbc2a55fb	-0.010396476
176	0xbdb84e22	-0.08999278
177	0xbc9fe842	-0.019519929
178	0x3bacd089	0.0052738828
179	0xbe9b5c1f	-0.3034372
180	0xbefbb1c2	-0.49159056
181	0xbee44556	-0.4458415
182	0xbc0eab89	-0.008707889
183	0xbeb3a358	-0.3508556
184	0xbbf257c8	-0.0073957182
185	0xbba27248	-0.004957471
186	0xbcb3380b	-0.02187731
187	0xbc2380cb	-0.009979437
188	0xba682537	-0.0008855643
189	0xba598698	-0.0008297949
190	0xbe634adf	-0.2219653
191	0xb9f13450	-0.00046006078
192	0x3b4257c0	0.0029654354
193	0xbdf47e7a	-0.11938186
194	0xbea44845	-0.32086387
195	0xbc091249	-0.008366176
196	0xb9866229	-0.00025631607
197	0xbc2916cd	-0.010320378
198	0x3ba570c3	0.0050488426
199	0xbd940100	-0.07226753
200	0x3bdd1331	0.0067466726
201	0xbe92059d	-0.28519908
202	0x3cfd5282	0.030923132
203	0xbe5f3431	-0.21797253
204	0xbc1cf114	-0.009578962
205	0xbea60664	-0.3242675
206	0xba6eb6ea	-0.0009106236
207	0x3b519196	0.0031977645
208	0xbc4713d4	-0.0121507235
209	0xbdaf7a86	-0.08568291
210	0x3ae87827	0.0017736004
211	0xbed6d1bb	-0.41956887
212	0xbc50faca	-0.012755105
213	0xbea36a8b	-0.31917223
214	0x3ce4ab53	0.027913725
215	0xbea25a94	-0.3170973
216	0xbe8c775f	-0.27434823
217	0x3a1779a7	0.00057783205
218	0x3a142b96	0.0005652247
219	0xbea35f74	-0.31908762
220	0x3b041cc2	0.0020158743
221	0xbcc50e38	-0.024054632
222	0xbea4378e	-0.32073635
223	0xbc034bfc	-0.008013722
224	0xbedb4bc2	-0.42831236
225	0xb9a59117	-0.00031579353
226	0xbe8620cb	-0.26196894
227	0xba310105	-0.0006752166
228	0xbe9b8ea8	-0.30382276
229	0x3a3f57c1	0.0007299148
230	0xbed7b0db	-0.42127118
231	0xbe98cc3d	-0.2984332
232	0xbeaa8e00	-0.33311462
233	0xbec63b14	-0.38716948
234	0xbdb485c0	-0.08814573
235	0x3a2c58d2	0.00065745146
236	0x3bb2dcf8	0.0054584704
237	0xbda3f77c	-0.08006188
238	0xbc3af51f	-0.0114109805
239	0xbed63f0a	-0.4184497
240	0xbb708b4c	-0.003670412
241	0x3bb61408	0.005556587
242	0x3b4dbbd7	0.003139248
243	0xbc1d51af	-0.009601994
244	0xbb9f1bf4	-0.004855627
245	0xbeaa065e	-0.33207983
246	0xbecd8bee	-0.4014582
247	0xbe6740f2	-0.22583368
248	0xba6ff069	-0.00091529504
249	0xbe975a80	-0.29561234
250	0xbe85a682	-0.26103598
251	0xbea3e4a2	-0.3201037
252	0xbe82b904	-0.2553178
253	0xbdc7e495	-0.097603954
254	0xbbe49c77	-0.00697666
255	0xbeab8d23	-0.33506116

bias f4 [2]
0	0xbec220ee	-0.37915748
1	0xbec96e3e	-0.3934192
