Intelligent car/model_weight/value_net_para3.pkl (torch_old, 274091 bytes, 6 tensors)

weight f4 [256, 3]
0	0x3e1adc81	0.15123178
1	0x3ef9280a	0.4866336
2	0x3ebca5c8	0.3684523
3	0x3ed6f982	0.41987234
4	0xbed4fd9c	-0.4159974
5	0x3f0e01fe	0.5547179
6	0x3ef5bf21	0.47997382
7	0x3eeeada5	0.46616855
8	0xbf0edee6	-0.55808866
9	0x3f04994c	0.5179641
10	0xbf26743c	-0.6502111
11	0xbf61b7a6	-0.8817085
12	0x3d03d445	0.032184858
13	0x3ebc1d76	0.36741227
14	0xbeb69c3c	-0.35666072
15	0xbeb78382	-0.3584252
16	0x3e049a26	0.12949428
17	0x3e65b77e	0.22433278
18	0xbf59872b	-0.84971875
19	0xbf2e4fc4	-0.6809046
20	0x3e047301	0.12934496
21	0x3d089b44	0.033351198
22	0xbd1aaead	-0.03776424
23	0x3f6e1187	0.92995495
24	0xbf2aa849	-0.6666303
25	0xbf89a3f1	-1.0753156
26	0xbe63acef	-0.22233938
27	0xbf87eb5a	-1.0618699
28	0xbf640744	-0.89073586
29	0xbe77e29b	-0.24207537
30	0xbd5efcbd	-0.05444025
31	0xbf681343	-0.9065439
32	0xbeefe76d	-0.4685625
33	0xbf62a353	-0.88530463
34	0xbf8dad1b	-1.1068453
35	0xbef8cea9	-0.4859517
36	0x3ecaf094	0.39636672
37	0xbe37f4c0	-0.17964458
38	0xbf83596d	-1.0261666
39	0xbf334195	-0.70021945
40	0xbf8b1320	-1.0865211
41	0x3e96619b	0.29371342
42	0xbead2161	-0.3381453
43	0x3e11d9f5	0.142433
44	0x3f57de97	0.8432402
45	0xbd60af8d	-0.05485492
46	0x3e6b59b5	0.2298344
47	0xbf4bcc54	-0.79608655
48	0xbf29a45e	-0.6626643
49	0xbf3b93c3	-0.7327234
50	0x3ed75a2d	0.42060986
51	0xbf94e0ad	-1.1631066
52	0xbf6b3835	-0.9188264
53	0x3e83c99e	0.2573976
54	0x3ce80d64	0.028326698
55	0xbe26f2d5	-0.1630357
56	0x3f978db9	1.1840125
57	0x3d51df36	0.05123826
58	0xbe579c11	-0.21055628
59	0x3fba16e5	1.4538237
60	0x3e57b5a5	0.21065386
61	0x3e8e0c5e	0.2774381
62	0xbf7fcc45	-0.99921066
63	0xbf32f2b4	-0.69901586
64	0xbf326150	-0.6967974
65	0x3cc22e4a	0.023703713
66	0xbed0d706	-0.4078905
67	0x3d9a44d4	0.07532659
68	0xbf31738b	-0.6931693
69	0x3e9e0018	0.30859447
70	0x3e8e1a55	0.27754465
71	0x3f08aaf1	0.53385836
72	0xbe081917	-0.13290821
73	0x3eb01c3e	0.34396547
74	0xbf2c5875	-0.67322475
75	0xbd189b33	-0.037257385
76	0xbe3f53f1	-0.18684365
77	0xbed17406	-0.4090883
78	0xbf391dc3	-0.7231104
79	0xbf3ad9f9	-0.7298885
80	0x3db8acb9	0.09017319
81	0xbd8ba91c	-0.068193644
82	0x3e1f0105	0.15527733
83	0xbea3204d	-0.3186058
84	0x3ec9147b	0.39273438
85	0xbebbf0b5	-0.36707082
86	0x3eabbc56	0.33542126
87	0xbf50c359	-0.81548077
88	0x3ded2681	0.1157961
89	0x3d713251	0.058885876
90	0xbf3a49b6	-0.72768724
91	0x3e36b770	0.17843413
92	0xbeeda3c9	-0.4641402
93	0xbf81a85f	-1.0129508
94	0xbf2fff75	-0.6874917
95	0xbe861e35	-0.2619492
96	0xbb3ee78a	-0.0029129707
97	0x3e8cbd2c	0.27488077
98	0x3f1472f4	0.57987905
99	0x3bf8a251	0.007587709
100	0xbf1fe1db	-0.62454003
101	0xbe81be9b	-0.25340733
102	0x3e98de38	0.2985704
103	0x3eec31a0	0.4613161
104	0xbe439223	-0.19098715
105	0xbd0160de	-0.03158652
106	0x3e10ddde	0.14147136
107	0x3f506a05	0.8141177
108	0x3e185dfe	0.14879605
109	0xbecb7df9	-0.39744547
110	0xbe705aab	-0.23472087
111	0x3ce5c70c	0.028049015
112	0x3dbf285e	0.09333871
113	0xbf84d89d	-1.0378605
114	0xbf28913a	-0.658466
115	0x3ee01814	0.4376837
116	0x3e9b5a1e	0.3034219
117	0xbf8664bd	-1.0499493
118	0x3ddeb839	0.108749814
119	0xbdaf30d0	-0.08554232
120	0x3f092857	0.5357718
121	0xbef74d22	-0.48301035
122	0x3eda381e	0.4262094
123	0xbf101648	-0.56284
124	0xbf3a84de	-0.7285899
125	0xbf101819	-0.5628677
126	0x3e310f3f	0.17290972
127	0xbcf3b264	-0.02974815
128	0xbded163e	-0.11576508
129	0xbede5d8c	-0.43430746
130	0x3e96a720	0.2942438
131	0x3df498cf	0.119432084
132	0xbf8412ad	-1.0318199
133	0xbf811f3c	-1.0087657
134	0xbecd8764	-0.40142357
135	0xbdc9c904	-0.09852794
136	0x3e83adf1	0.25718644
137	0xbf213f01	-0.6298676
138	0xbf490280	-0.7851944
139	0x3e1e626e	0.15467235
140	0xbda43c1a	-0.08019276
141	0xbf7baa0b	-0.9830634
142	0xbf98dbad	-1.194204
143	0x3ed148e1	0.40875915
144	0xbeadb3ae	-0.33926147
145	0x3dfd8b01	0.123800285
146	0x3e5d63cc	0.216201
147	0x3e122047	0.14270125
148	0x3ede11ed	0.4337305
149	0x3c3d62ce	0.011559201
150	0xbea8ce4c	-0.32969892
151	0x3ecb0884	0.39654934
152	0x3e37c8c4	0.1794768
153	0xbf0cf3e0	-0.55059624
154	0xbf7820ac	-0.96924853
155	0xbe9f759d	-0.3114442
156	0x3e86b435	0.26309362
157	0x3c89304e	0.016746666
158	0xbf8a70e0	-1.0815697
159	0x3b0c701c	0.0021429127
160	0xbf36310f	-0.7116861
161	0xbe8896b8	-0.2667749
162	0xbf9084f2	-1.1290572
163	0x3e267da1	0.16258861
164	0xbefb695f	-0.4910383
165	0xbf186e0c	-0.5954292
166	0x3edadfd6	0.42748898
167	0x3c84d34d	0.016214037
168	0xbf8c9139	-1.0981818
169	0xbf82556e	-1.0182321
170	0xbe9a194a	-0.3009742
171	0xbe728736	-0.23684391
172	0x3e8531f3	0.2601467
173	0x3efeab67	0.49740145
174	0x3d620d5d	0.055188525
175	0x3d988272	0.074467555
176	0xbf35c984	-0.71010613
177	0x3bedecfb	0.0072609163
178	0xbeb3f95d	-0.35151187
179	0xbe80582e	-0.25067276
180	0x3df3dd2d	0.1190742
181	0x3dd10aca	0.10207136
182	0xbf2e0bb7	-0.67986625
183	0xbf217b32	-0.63078606
184	0x3e6f5f2c	0.23376149
185	0x3ec3e452	0.38260132
186	0xbf075103	-0.5285799
187	0x3d829ece	0.06377946
188	0xbea1df6c	-0.3161577
189	0xbf09d3b5	-0.53838664
190	0x3f01d11f	0.5070972
191	0xbf3ece3d	-0.74533445
192	0xbf38438c	-0.7197807
193	0x3eee2a5b	0.4651669
194	0x3ef17397	0.471585
195	0xbf95ab6b	-1.1692938
196	0xbf74cf88	-0.9562917
197	0x3e3f6b37	0.18693243
198	0xbf4ff362	-0.8123075
199	0xbf94d424	-1.162724
200	0x3ebc69a5	0.3679935
201	0xbf4ae347	-0.7925305
202	0xbf8242e7	-1.0176667
203	0xbecfa249	-0.405535
204	0x3d3d52c3	0.046221506
205	0x3caad1a9	0.020851927
206	0xbedf8215	-0.43653932
207	0xbf64243c	-0.8911779
208	0x3e161042	0.1465464
209	0xbe18b9d4	-0.14914638
210	0xbf717c4f	-0.94330305
211	0xbf2c95cd	-0.6741608
212	0xbec82433	-0.39090118
213	0xbf3445d4	-0.7041905
214	0xbe5f4fbd	-0.21807761
215	0xbdd347bc	-0.103164166
216	0x3ed13841	0.4086323
217	0x3e23b2c8	0.15986168
218	0xbf4e4694	-0.80576444
219	0xbca2aad3	-0.019856846
220	0x3db83d8f	0.08996116
221	0x3ed58877	0.41705677
222	0xbed468be	-0.41486162
223	0x3e8314a5	0.25601688
224	0x3eb390ea	0.35071498
225	0xbf54d867	-0.83142704
226	0x3e069118	0.13141286
227	0xbc0ed9ab	-0.008718888
228	0x3dd31aa5	0.103078164
229	0x3d951105	0.07278637
230	0xbf66fa76	-0.90225923
231	0xbf764633	-0.96200866
232	0xbf550059	-0.83203655
233	0x3ef74602	0.482956
234	0x3c40c98a	0.011766801
235	0x3ed049ec	0.40681398
236	0xbe6268c8	-0.22110283
237	0xbf0a55b1	-0.54037005
238	0x3e7aa65f	0.24477528
239	0x3d066893	0.032814573
240	0xbf980820	-1.187748
241	0xbf891b1c	-1.0711398
242	0x3d5ba3c8	0.05362299
243	0xbdbd9763	-0.0925739
244	0xbeb3da40	-0.3512745
245	0x3eb1b2ea	0.34706813
246	0x3e2971b6	0.16547284
247	0x3eb102c2	0.34572417
248	0xbed6e152	-0.4196878
249	0xbf17cc0e	-0.5929574
250	0xbf4efba1	-0.80852705
251	0xbe8099d0	-0.2511735
252	0x3e9d8b7a	0.30770475
253	0xbc330904	-0.010927442
254	0xbf823fa3	-1.017567
255	0x3e9bf0eb	0.30457243

bias f4 [256]
0	0x3f20c4ed	0.62800485
1	0x3d08cb11	0.033396784
2	0x3ec0612e	0.37574142
3	0xbeea4610	-0.45756578
4	0xbdc7bded	-0.09753022
5	0xbe89677d	-0.26836768
6	0x3f090d91	0.53536326
7	0x3ee084e3	0.43851385
8	0x3ef360a1	0.4753466
9	0x3e036526	0.12831554
10	0x3f6c7234	0.9236176
11	0x3f434af6	0.76286256
12	0x3dcba23e	0.099430546
13	0x3f3d404b	0.7392623
14	0x3f8af931	1.0857297
15	0xbf76c436	-0.96393144
16	0x3f1d5fc4	0.6147425
17	0x3f8aac43	1.083382
18	0x3fafb0ed	1.3725868
19	0x3f23cc8a	0.63983977
20	0xbe76f6b7	-0.24117552
21	0x3f3ebc66	0.74506223
22	0x3f83f1bf	1.030815
23	0x3f2a490e	0.6651772
24	0x3e1d2f10	0.15349984
25	0xbe95d68c	-0.2926525
26	0x3f819826	1.0124557
27	0xbf7596ca	-0.9593321
28	0x3f8f732c	1.1207023
29	0x3f911fc9	1.1337825
30	0x3f204613	0.62606925
31	0x3ee312d9	0.44350317
32	0x3ef98afe	0.48738855
33	0x3f1135a2	0.5672246
34	0xbe8d51e0	-0.27601528
35	0x3f8a3e12	1.0800192
36	0x3f1903b4	0.59771276
37	0x3f81bc09	1.0135509
38	0x3f1126bb	0.56699723
39	0x3e83b652	0.25725037
40	0x3f52d6af	0.8235883
41	0x3f66b32f	0.9011716
42	0x3e8f1245	0.27943626
43	0xbd9def37	-0.07711642
44	0x3dc683d9	0.09693117
45	0xbf89a6c3	-1.0754017
46	0xbf2313b5	-0.63701946
47	0x3f2f5343	0.6848642
48	0xbf0465f5	-0.51718074
49	0x3f24d9b4	0.6439469
50	0x3eb73b1c	0.35787284
51	0x3f83cfc5	1.0297781
52	0xbf9cee66	-1.2260253
53	0x3eef008a	0.466801
54	0x3f53deb8	0.82761717
55	0xbdccb673	-0.09995737
56	0x3eadadbd	0.33921614
57	0x3d97b949	0.07408387
58	0xbf9f0206	-1.2422493
59	0x3f89f890	1.077898
60	0xbf0308a2	-0.5118505
61	0xbeeeaa70	-0.46614408
62	0xbec09e7b	-0.3762091
63	0xbf0d6274	-0.5522835
64	0xbe8571e6	-0.2606346
65	0x3f24a886	0.64319646
66	0x3f8ea73e	1.1144788
67	0x3f528178	0.82228804
68	0xbf796ad6	-0.97428644
69	0x3f192883	0.5982744
70	0x3f50f96d	0.81630594
71	0x3f317e0d	0.69332963
72	0xbe838dce	-0.25694126
73	0x3f9053fa	1.1275628
74	0xbcc8e628	-0.02452381
75	0x3f8d59d2	1.1043036
76	0x3c8d1825	0.017223427
77	0x3e89998f	0.26874968
78	0x3e0fa477	0.14027582
79	0xbea98ed1	-0.33116773
80	0x3f8f4de8	1.119565
81	0xbeea8343	-0.4580327
82	0x3eea2e8d	0.4573864
83	0x3f678ffe	0.9045409
84	0xbf93c794	-1.1545281
85	0xbf03d092	-0.5149013
86	0x3f86a326	1.0518539
87	0x3f6e6087	0.9311604
88	0x3f6f0a76	0.9337534
89	0x3e3e877d	0.18606372
90	0x3f340b1c	0.7032945
91	0x3e3f46c0	0.18679333
92	0x3dd6e8d8	0.1049363
93	0xbe206947	-0.1566516
94	0xbef93bf2	-0.48678547
95	0x3f77f50c	0.96858287
96	0xbca43bb4	-0.020048
97	0x3f8a6629	1.0812427
98	0x3ea3bfc1	0.31982234
99	0x3f434884	0.76282525
100	0x3f051874	0.5199044
101	0x3f714c7e	0.9425734
102	0x3cba0d4b	0.022711417
103	0x3f872fe6	1.0561492
104	0x3f51ab64	0.81902146
105	0x3e8ac6d9	0.27104834
106	0x3eeed27a	0.46644956
107	0x3f14175a	0.5784813
108	0x3ebe4ddb	0.37168774
109	0x3db02952	0.08601631
110	0x3f8993ba	1.0748208
111	0xbcd05d34	-0.025435068
112	0x3f753fd8	0.9580054
113	0xbe062e29	-0.13103546
114	0xbec299bc	-0.38007915
115	0x3f8ad994	1.084765
116	0xbe52464c	-0.20534629
117	0x3eb007d2	0.34380966
118	0x3e276916	0.16348681
119	0x3f0ec9d9	0.55776745
120	0x3f4b99b9	0.7953144
121	0xbf4a2c9a	-0.78974307
122	0xbec47bc6	-0.38375682
123	0x3ece80f8	0.4033277
124	0x3ee199cc	0.4406265
125	0x3f18dbe6	0.5971054
126	0xbd324195	-0.043519575
127	0x3f3afb85	0.7304004
128	0x3f51efc2	0.82006466
129	0x3e361aa4	0.177836
130	0x3f5ab6a9	0.8543497
131	0x3e8ac584	0.27103817
132	0x3f93f411	1.1558858
133	0x3f063ca6	0.5243629
134	0x3f5f3930	0.87196636
135	0x3e75f4a7	0.24019109
136	0xbf4eed45	-0.80830795
137	0xbde1828b	-0.11011227
138	0x3f307c16	0.6893934
139	0xbf0af7ea	-0.54284537
140	0x3f9658e8	1.1745882
141	0x3f8f47d4	1.1193795
142	0x3f4d7467	0.8025574
143	0x3f62a452	0.8853198
144	0x3f29b00d	0.6628426
145	0x3f235dda	0.6381508
146	0x3f06f02f	0.5271024
147	0x3f363972	0.71181405
148	0xbebb14bc	-0.36539257
149	0x3edf334c	0.43593824
150	0x3dbf2864	0.09333876
151	0xbf5097ba	-0.81481516
152	0x3e82ecec	0.25571382
153	0x3ef0e3fc	0.47048938
154	0x3f5a1371	0.85185915
155	0x3f3e51b1	0.743434
156	0x3edf5d74	0.43625987
157	0x3f3b2d31	0.7311583
158	0x3f902be5	1.1263396
159	0xbef523b3	-0.478788
160	0xbebd62c0	-0.36989403
161	0x3d698346	0.057009958
162	0x3f5998a1	0.8499852
163	0x3f0653c3	0.5247156
164	0x3f3a5ca4	0.7279761
165	0x3d8393d9	0.06424684
166	0xbecca7ba	-0.39971715
167	0x3f393d6f	0.72359365
168	0x3f1e9fef	0.6196279
169	0x3eaa8379	0.3330343
170	0xbed22b90	-0.4104886
171	0x3f631008	0.88696337
172	0x3f17740e	0.5916146
173	0xbf139e1f	-0.5766315
174	0x3e046fb5	0.12933238
175	0x3ee62959	0.4495342
176	0x3e5617e1	0.20907547
177	0x3f0974d4	0.5369389
178	0xbf7aa0f1	-0.9790183
179	0x3edc7b3e	0.43062776
180	0x3ea36295	0.3191115
181	0xbea0a235	-0.31373754
182	0x3f66e5f1	0.9019461
183	0x3f12a608	0.57284594
184	0x3bce5448	0.006296668
185	0x3f571e0c	0.8403022
186	0x3f165d24	0.5873587
187	0xbe9d6160	-0.30738354
188	0x3f16b56d	0.58870584
189	0x3f69cd63	0.9132902
190	0xbeedaf8b	-0.4642299
191	0xbee07c36	-0.43844765
192	0xbccbf427	-0.024896694
193	0x3eec2197	0.46119377
194	0x3f3303ab	0.6992747
195	0x3ebef3af	0.3729529
196	0xbec50658	-0.38481402
197	0x3f8fbc3b	1.1229318
198	0x3f6d78d4	0.92762494
199	0xbf05bb2d	-0.5223873
200	0x3e232922	0.1593366
201	0x3f0070e1	0.5017224
202	0x3f4ffcdc	0.8124521
203	0x3df0f19b	0.117648326
204	0x3f92fe85	1.1483923
205	0x3f6455f5	0.8919366
206	0x3f81c63b	1.013862
207	0x3e89cfdf	0.26916406
208	0x3f069395	0.5256894
209	0xbe9d8520	-0.3076563
210	0x3f791200	0.9729309
211	0x3f07782b	0.52917737
212	0x3f060d38	0.5236392
213	0xbeb9c8b7	-0.36285946
214	0x3f8d7cfe	1.105377
215	0x3f6ecea7	0.93284076
216	0xbef12e96	-0.47105855
217	0x3f6354a7	0.88801044
218	0xbf96a7cf	-1.1769961
219	0x3f2c7530	0.67366314
220	0xbf174bff	-0.59100336
221	0x3f05354c	0.5203445
222	0x3f704cef	0.9386739
223	0x3f2f0a5a	0.6837517
224	0x3f46fcbd	0.777294
225	0x3f95c2a5	1.1700026
226	0x3f0d0692	0.5508815
227	0x3f83109a	1.0239441
228	0x3cc74fce	0.024330046
229	0x3f112fda	0.5671364
230	0xbf352551	-0.70760065
231	0x3ec7d79b	0.3903168
232	0xbf508613	-0.8145458
233	0xbefe8043	-0.4970723
234	0x3e1cecf6	0.15324768
235	0x3f0fed2a	0.5622126
236	0xbda94bd1	-0.08266414
237	0x3ea17b47	0.31539366
238	0x3e245853	0.16049318
239	0xbdedb33d	-0.116064526
240	0xbe7df31e	-0.24799773
241	0x3ef8746d	0.48526326
242	0x3f9262ec	1.1436439
243	0xbeb1dcc3	-0.3473874
244	0xbf7ba8f2	-0.98304665
245	0x3e83f9ff	0.2577667
246	0x3f025ee7	0.5092606
247	0x3f19ca69	0.6007448
248	0x3f018557	0.50594085
249	0x3f6486eb	0.8926837
250	0xbe68e3a6	-0.22743091
251	0xbeef5413	-0.4674383
252	0x3f004238	0.5010104
253	0x3f1361b7	0.57570976
254	0xbdcfcbf3	-0.10146322
255	0x3f7b6889	0.98206383

weight f4 [256, 256]
0	0xbc605b5a	-0.013693655
1	0xbcc7d69b	-0.024394324
2	0xbd4e627e	-0.0503869
3	0xbd1f0f32	-0.03883285
4	0xbd0d1dc4	-0.034452215
5	0x3bb675c6	0.005568239
6	0x3f22dcaa	0.63617957
7	0xbc6689e4	-0.014070962
8	0x3f376457	0.7163748
9	0x3f2f6115	0.6850751
10	0x3efb732f	0.49111316
11	0x3f161322	0.58622944
12	0xbc651f99	-0.013984584
13	0x3f284cac	0.6574199
14	0x3dd35669	0.10319216
15	0xbc21876d	-0.009858948
16	0x3f32836a	0.6973177
17	0x3f28321e	0.6570147
18	0x3e069c37	0.13145529
19	0xbca8ad6f	-0.020590512
20	0xbcaee7d2	-0.021350775
21	0x3f1dceea	0.6164385
22	0x3e330536	0.17482457
23	0xbda59c59	-0.080864616
24	0xbd95dd70	-0.073176265
25	0x3ce75674	0.028239466
26	0x3f2949dd	0.6612833
27	0x3d08fbec	0.033443376
28	0x3e4664f2	0.19374445
29	0x3e7726f4	0.24135953
30	0x3de142ec	0.109990925
31	0x3f1b54b1	0.60676104
32	0xbb2db5df	-0.0026506109
33	0x3e96902d	0.29406872
34	0xbe0a96e0	-0.13534117
35	0x3d6c59fc	0.057703003
36	0x3d2c2399	0.042026136
37	0x3df06c03	0.117393516
38	0x3d617dc7	0.05505159
39	0x3ec46959	0.38361624
40	0x3de11eb7	0.109921865
41	0x3f1a6cd6	0.6032232
42	0x3b5d9de1	0.0033816027
43	0x3bf6d7db	0.007533056
44	0x3f3399b5	0.70156413
45	0xbdbb2253	-0.09137406
46	0x3cb3d945	0.021954188
47	0x3f2f5e84	0.68503594
48	0xbdb45e62	-0.088070646
49	0xbbf063a9	-0.007336099
50	0xbd279f52	-0.040923424
51	0x3f288d34	0.6584046
52	0xbcdbb541	-0.026819827
53	0x3e677521	0.22603275
54	0x3f09ca10	0.5382395
55	0xbca94344	-0.020661958
56	0x3f1dce4a	0.616429
57	0xbc1475f3	-0.009061324
58	0xbdc10601	-0.09424973
59	0x3e6435fe	0.22286221
60	0xbd7210fb	-0.059098225
61	0xbd347060	-0.04405248
62	0xbcdabbd9	-0.0267009
63	0xbd57d1f2	-0.052690454
64	0xbce63be5	-0.028104732
65	0x3f294ac2	0.66129696
66	0x3f2901ee	0.6601857
67	0x3f1e7b36	0.61906755
68	0xbd1573f3	-0.03648753
69	0x3dca4570	0.098765254
70	0x3f1d1293	0.61356467
71	0x3f110057	0.56641144
72	0xbdbe98f0	-0.09306514
73	0x3dd1e731	0.102491744
74	0x3c5848e7	0.013200975
75	0x3e40db1f	0.18833588
76	0xbd6b1b6f	-0.05739921
77	0x3f2790de	0.65455425
78	0xbda9bec0	-0.08288336
79	0xbd81b102	-0.0633259
80	0x3f2ab75e	0.66686046
81	0x3d5fad86	0.054608844
82	0xbd7c2ff6	-0.061569177
83	0x3f374c09	0.71600395
84	0xbdb3d751	-0.08781303
85	0xbddbfe0c	-0.10741815
86	0x3f298b34	0.6622803
87	0x3e22dbb5	0.15904124
88	0x3f30e2d9	0.6909614
89	0x3d8656ff	0.06559562
90	0x3ea1901b	0.31555256
91	0xbd958b15	-0.073019184
92	0xbcaf1cc2	-0.021376017
93	0xbcd15654	-0.02555386
94	0x3d0b5b7f	0.034022804
95	0x3e24c0f3	0.1608923
96	0xbcfba266	-0.030717086
97	0x3dab5335	0.0836548
98	0xbd7c97d3	-0.06166823
99	0x3f21371f	0.62974733
100	0x3f3bc210	0.7334299
101	0x3f2f2cb6	0.684276
102	0xbd7236f5	-0.059134442
103	0x3d4b754d	0.049672414
104	0x3f2d16d3	0.6761295
105	0x3f33687f	0.70081323
106	0x3e30315b	0.17206328
107	0x3ead75e4	0.33879006
108	0xbd6bc8b5	-0.057564456
109	0xbd578f90	-0.052627146
110	0x3e2e6cea	0.17033735
111	0xbdd73198	-0.10507506
112	0x3e02d9a6	0.12778339
113	0xbdcc3805	-0.099716224
114	0x3c5d9387	0.013523943
115	0x3f323b1a	0.6962143
116	0xbc1de9eb	-0.00963829
117	0x3f3af761	0.7303372
118	0x3f0000f7	0.5000147
119	0xbdadd8f1	-0.08488644
120	0x3bbabb8f	0.0056986283
121	0xbdf4cd65	-0.119532384
122	0xbc8a275f	-0.016864477
123	0xbcc11bfb	-0.023572912
124	0xbc2f4580	-0.010697722
125	0xbdd6f148	-0.104952395
126	0xbcc4efc1	-0.024040105
127	0x3f284cf0	0.657424
128	0x3f141c94	0.57856107
129	0x3cf34e97	0.02970056
130	0x3d6053b5	0.05476733
131	0x3f2b4c56	0.66913354
132	0x3d794bf3	0.060863446
133	0x3e70ee8d	0.235285
134	0xbbac2831	-0.0052538146
135	0xbdc9d6dd	-0.09855435
136	0xbd1041d7	-0.03521904
137	0xbcb45d3e	-0.022017118
138	0x3d808430	0.06275213
139	0xbc2d6e23	-0.010585341
140	0x3f29a91f	0.66273683
141	0x3e507a83	0.20359235
142	0xbca103ad	-0.019655073
143	0x3e04fcc0	0.12987041
144	0x3f218ac7	0.6310238
145	0x3df49564	0.119425565
146	0x3d750e3c	0.059828028
147	0x3f1cf9a0	0.613184
148	0xbcd88ce8	-0.026434377
149	0x3b3ed1b6	0.0029116697
150	0x3f212caa	0.62958777
151	0xbda45625	-0.08024243
152	0xbd97997b	-0.07402321
153	0xbd17352b	-0.03691594
154	0x3ea4f1d7	0.3221576
155	0x3e493172	0.19647768
156	0x3f30997a	0.68984187
157	0x3f2b6e32	0.6696502
158	0x3f2a8763	0.66612834
159	0xbd3bb470	-0.045826375
160	0xbdcb3b41	-0.09923411
161	0x3ce32bb2	0.027730796
162	0x3f1ffbcc	0.62493587
163	0x3f1bfa2f	0.60928625
164	0xbc6579a2	-0.01400605
165	0xbe039f9e	-0.12853858
166	0xbd8bcbc0	-0.068259716
167	0x3f218d33	0.6310608
168	0x3f1e4fc0	0.6184044
169	0x3f2c3991	0.6727534
170	0x3cea65f4	0.028613068
171	0x3ea49881	0.321476
172	0xbd527e17	-0.05138978
173	0xbd236e3e	-0.039900057
174	0xbc7ec531	-0.015549944
175	0x3ba26f5d	0.004957123
176	0xbd5291e8	-0.05140868
177	0x3f2bdcc2	0.67133725
178	0xbdb240f3	-0.08703794
179	0xbd04c8bb	-0.032417994
180	0x3f1e02a4	0.6172278
181	0x3cf020c4	0.029312499
182	0x3f1a5cd5	0.602979
183	0x3f235047	0.6379437
184	0xbdbbf0a0	-0.09176755
185	0x3f2b1570	0.66829586
186	0x3eabcf1b	0.33556446
187	0xbd79e576	-0.061009847
188	0x3c298764	0.010347221
189	0x3f19314b	0.5984084
190	0x3d91bd11	0.0711614
191	0xbd177b1d	-0.036982644
192	0x3d6b41fa	0.057435967
193	0x3c959c2e	0.018262949
194	0xbd73bbeb	-0.059505384
195	0xbcf901d4	-0.03039638
196	0xbdb68d0e	-0.08913623
197	0x3f325132	0.69655144
198	0x3c2cbb30	0.010542676
199	0xbac54180	-0.0015049428
200	0xbd60f3e9	-0.05492011
201	0xbc96cfb1	-0.018409582
202	0x3d0c5fb9	0.034270976
203	0x3d0a4b3f	0.033763167
204	0x3e2628ce	0.16226503
205	0x3e47c015	0.19506867
206	0x3f172859	0.5904594
207	0x3f236770	0.6382971
208	0x3dce3376	0.10068409
209	0xbd128628	-0.035772473
210	0x3f314a0b	0.69253606
211	0x3f1d815f	0.6152553
212	0xbd0ae0d5	-0.033905823
213	0xbc290549	-0.0103162015
214	0x3f312375	0.6919473
215	0x3f1ce5e2	0.61288273
216	0xbcfb1928	-0.030651644
217	0x3f1f44eb	0.62214535
218	0xbc28578f	-0.010274782
219	0xbabf2f9d	-0.0014586333
220	0xbd281309	-0.04103378
221	0xbd9a5a98	-0.07536811
222	0x3f1e0e60	0.61740685
223	0x3f1a3c9a	0.6024872
224	0x3d97181a	0.07377644
225	0x3f2eb901	0.68251044
226	0xbd22cbd8	-0.03974518
227	0x3e0659d6	0.13120207
228	0xbdf964e9	-0.1217745
229	0xbe082f88	-0.13299382
230	0xbcd3cff2	-0.025855992
231	0xbe0cfe07	-0.13768779
232	0xbd6e5add	-0.058192123
233	0xbcf2f7d6	-0.029659193
234	0xbd6738d4	-0.05645068
235	0xbd875216	-0.066074535
236	0xbcf08a70	-0.029362887
237	0x3f366c42	0.7125894
238	0xbd904edf	-0.070462935
239	0xbd3d8e19	-0.046278093
240	0x3bd34480	0.006447375
241	0x3e3b00ef	0.18262075
242	0x3e4f9dc1	0.20275022
243	0xbbd7a5ee	-0.0065810597
244	0xbd2aee00	-0.04173088
245	0x3f334a27	0.7003502
246	0x3d84b94f	0.06480657
247	0x3f2169e6	0.63052213
248	0xbd2db111	-0.04240519
249	0x3e18c1b1	0.14917637
250	0xbcb14818	-0.021640822
251	0xbd288702	-0.04114438
252	0xbd8cde6a	-0.068783596
253	0xbdc5cae7	-0.09657841
254	0x3d457759	0.048209522
255	0x3e476156	0.19470724

bias f4 [256]
0	0x3f095168	0.5363984
1	0xbd343288	-0.043993503
2	0x3c55c6f9	0.013047927
3	0x3f0e15dc	0.55502105
4	0x3c60cce2	0.013720723
5	0xbd42d69e	-0.047567956
6	0xbd62afbc	-0.055343375
7	0xbd0c923c	-0.034319147
8	0x3f35545b	0.7083184
9	0x3f1062cd	0.5640076
10	0x3f3f9141	0.74831015
11	0x3ce24094	0.027618684
12	0x3f14408f	0.5791101
13	0x3c574d9c	0.013141062
14	0x3f2facd0	0.68623066
15	0xbd8b5929	-0.06804115
16	0xbc33c4b7	-0.010972193
17	0xbce50ae5	-0.027959296
18	0xbd833926	-0.064073846
19	0x3f0958d2	0.53651154
20	0xbcb639a6	-0.022244286
21	0xbd028fd6	-0.031875454
22	0x3f294f26	0.66136396
23	0xbd281cb0	-0.041042984
24	0x3eddf94e	0.43354267
25	0xbd67440e	-0.056461386
26	0x3f0a711d	0.5407885
27	0x3b89b320	0.0042022616
28	0xbd706f1e	-0.05869972
29	0x3d40cea8	0.047072083
30	0x3f2f86b1	0.685649
31	0x3d23d5d3	0.03999884
32	0x3f9d23d7	1.2276562
33	0x3f2ab0d7	0.66676086
34	0xbd545cc6	-0.05184629
35	0x3ee90b92	0.4551664
36	0x3f4f45f5	0.8096612
37	0xbd68918a	-0.056779422
38	0x3d2e9f3b	0.042632323
39	0xbc88bad1	-0.016690644
40	0x3f08fa29	0.53506714
41	0x3f2f2d2a	0.6842829
42	0x3f7439f2	0.9540092
43	0x3f18c7a3	0.5967962
44	0xbdaeca2e	-0.085346565
45	0xbd5c0772	-0.053718038
46	0x3b9fecd4	0.004880527
47	0x3f232bc1	0.6373864
48	0xbd5add57	-0.053433742
49	0x3be53bfc	0.006995676
50	0xbd4d107e	-0.050064556
51	0xbca319db	-0.01990979
52	0x3ced25d6	0.028948706
53	0xbd892189	-0.066958494
54	0x3f35d178	0.7102275
55	0x3f04c76f	0.5186681
56	0x3f9a869b	1.2072328
57	0xbcaca515	-0.021074811
58	0xbc43d958	-0.011953674
59	0xbc08b470	-0.008343801
60	0x3f0bf182	0.54665387
61	0x3c9da969	0.01924582
62	0x3f32e944	0.69887185
63	0x3b9f9fe5	0.004871356
64	0x3f2c418c	0.67287517
65	0x3f04fee8	0.51951456
66	0x3f2f6203	0.6850893
67	0x3f1fd099	0.6242767
68	0xbda84b0d	-0.0821744
69	0xbd4c9c5e	-0.04995381
70	0x3f331427	0.69952625
71	0x3c6c7248	0.014431544
72	0xbd50587d	-0.05086564
73	0xbcf9c4be	-0.030489322
74	0xbd7bbea1	-0.061461095
75	0x3f370abb	0.7150075
76	0x3f62e080	0.8862381
77	0xbd5ec5d5	-0.054387886
78	0xbd1734b0	-0.03691548
79	0x3f3c4006	0.7353519
80	0xbd81e145	-0.06341795
81	0x3f035bc5	0.51311904
82	0xbda3c09f	-0.07995724
83	0x3c6d55fd	0.014485833
84	0xbd76f53e	-0.060292475
85	0x3f0f7013	0.56030387
86	0x3f048726	0.5176872
87	0xbc044c98	-0.008074902
88	0x3ef4a038	0.47778487
89	0x3c84caf0	0.01621005
90	0xbd1c60a1	-0.03817809
91	0xbd811ee6	-0.063047215
92	0xbd8b8aa1	-0.06813551
93	0x3ed10daf	0.40830752
94	0xbd0ae8a3	-0.033913266
95	0xbcd4a0e6	-0.025955629
96	0x3f699dbd	0.91256315
97	0x3f0e5ed7	0.55613464
98	0xbd75a146	-0.059968255
99	0x3f1dfd2f	0.6171445
100	0x3f332c75	0.6998971
101	0x3c32b273	0.010906803
102	0xbd0c62f7	-0.034274068
103	0xbd46d3ba	-0.048541762
104	0xbd5a8a01	-0.053354267
105	0x3edb28ea	0.42804652
106	0x3f2d2980	0.6764145
107	0xbd1396e4	-0.036032572
108	0x3f355a8a	0.70841277
109	0x3f26040b	0.6484992
110	0x3d33dc4c	0.043911263
111	0xbd36bb69	-0.044612322
112	0x3cd79457	0.026315851
113	0xbd353262	-0.044237502
114	0xbc39ba73	-0.011335957
115	0xbdb68ade	-0.089132056
116	0xbd3c4bc9	-0.04597071
117	0xbbbf7d42	-0.0058437893
118	0x3f264831	0.64953905
119	0x3d2743ae	0.04083603
120	0x3bf96468	0.0076108463
121	0xbc745c85	-0.0149146365
122	0xbd966ac6	-0.07344584
123	0x3f48e6a1	0.7847691
124	0x3f244cb6	0.6417955
125	0x3f35c98e	0.71010673
126	0x3f162b11	0.58659464
127	0x3cb94454	0.02261559
128	0xbd7b7dff	-0.061399456
129	0x3f11c906	0.5694736
130	0x3f2ba113	0.67042655
131	0x3c7317e1	0.014837236
132	0x3ca63194	0.020287313
133	0xbd87b694	-0.06626621
134	0x3c15e297	0.0091482615
135	0x3f24fd36	0.6444887
136	0xbca7c174	-0.020477988
137	0x3f177d43	0.5917551
138	0x3f42cd6b	0.7609469
139	0x3cc2ee8b	0.023795387
140	0x3f025b97	0.50921005
141	0x3cd7e3eb	0.026353797
142	0x3f358f86	0.70922124
143	0xbd453fc3	-0.04815651
144	0x3f1cba1c	0.6122148
145	0x3f0f8f7d	0.5607832
146	0x3c728e22	0.014804395
147	0x3f15acea	0.5846697
148	0x3d38c66d	0.04511111
149	0x3f097020	0.53686714
150	0x3cd78fd8	0.026313707
151	0xba281ee8	-0.0006413297
152	0x3ceb85b2	0.028750274
153	0xbd804fa5	-0.06265191
154	0x3f0bc683	0.5459978
155	0xbd8a008f	-0.06738388
156	0x3c27d857	0.0102444505
157	0x3f060134	0.52345586
158	0x3d0a4e92	0.033766337
159	0x3f35a72d	0.70958215
160	0x3f0d6709	0.55235344
161	0xbc810ab6	-0.015752178
162	0x3f3c6847	0.73596615
163	0x3ce50204	0.027955063
164	0x3f0bd9eb	0.5462939
165	0x3bd50cb8	0.0065017603
166	0x3c2e1300	0.010624647
167	0x3f17c549	0.5928541
168	0x3f008871	0.50208193
169	0x3d3add0e	0.04562097
170	0x3f62dda6	0.8861946
171	0x3f14509e	0.5793551
172	0x3f3848e7	0.7198624
173	0x3c08823e	0.008331833
174	0xbd5207e1	-0.051277045
175	0x3f351a01	0.70742804
176	0xbd0cd387	-0.034381416
177	0x3f037fc6	0.5136684
178	0x3f047108	0.5173497
179	0x3ce2a742	0.027667645
180	0x3d3f10c2	0.04664684
181	0x3efcbfe0	0.4936514
182	0x3f0733d7	0.52813476
183	0x3ef7cf5b	0.48400387
184	0x3f04ed5e	0.51924694
185	0x3f04b77b	0.5184247
186	0xbd2b3c82	-0.04180575
187	0xbd726bac	-0.059184715
188	0x3d32396e	0.0435118
189	0x3cdba4a9	0.026811915
190	0x3c871b30	0.016492456
191	0x3cb4782c	0.022029959
192	0xbcf1c77e	-0.02951407
193	0xbbcb3f3f	-0.006202608
194	0xbd97de61	-0.07415462
195	0xbd6217d0	-0.05519849
196	0x3f075e1b	0.5287797
197	0x3f0e2e47	0.55539364
198	0xbd1931d7	-0.037401047
199	0x3f2e3195	0.68044406
200	0xbd84bf60	-0.064818144
201	0x3f2f6434	0.6851227
202	0xbcff58d5	-0.031170288
203	0xbc2ebdb2	-0.010665344
204	0x3c979abd	0.018506402
205	0x3ce72826	0.028217386
206	0x3cd492d1	0.025948914
207	0x3f2dd89c	0.67908645
208	0x3cfd1eac	0.030898415
209	0xbd4dc6a3	-0.050238263
210	0x3f29aee7	0.66282505
211	0x3d5a50e2	0.053299792
212	0x3c8dbb21	0.017301144
213	0x3cd79829	0.026317673
214	0x3f005aa7	0.50138324
215	0xbcd4b2b8	-0.025964126
216	0x3f165f91	0.5873957
217	0x3f186df2	0.59542763
218	0x3ef3a3c4	0.4758588
219	0xbd0521e7	-0.032503035
220	0x3d4c0cd6	0.04981693
221	0x3f3918e4	0.72303605
222	0x3f19d11e	0.6008471
223	0x3c5e1e8a	0.013557086
224	0x3f0997be	0.53747165
225	0xba92134e	-0.0011144669
226	0x3f6d926b	0.9280154
227	0xbc8aa8a0	-0.01692611
228	0x3f1f341c	0.6218889
229	0xbccea777	-0.025226338
230	0x3eea4e43	0.45762834
231	0x3f24394f	0.64149946
232	0x3baef283	0.0053389682
233	0xbd821374	-0.06351367
234	0x3f0e631e	0.5561999
235	0x3f0d8c20	0.5529194
236	0x3f1dff4e	0.6171769
237	0x3f2b0020	0.66797066
238	0x3d1cde5b	0.038297992
239	0x3c3cc6eb	0.011522035
240	0xbd8e6ae0	-0.069539785
241	0x3f0e83a7	0.55669636
242	0x3bdf84ea	0.0068212645
243	0xbd9aa066	-0.07550125
244	0x3f38065e	0.71884716
245	0xbd60b2e0	-0.05485809
246	0xbd8115c7	-0.06302982
247	0x3d33dd78	0.04391238
248	0xbd9ca029	-0.076477356
249	0x3f3028b8	0.6881213
250	0xbd83682c	-0.064163536
251	0x3f09bfd2	0.5380832
252	0x3ceb3d05	0.02871562
253	0xbd0eadf1	-0.034833852
254	0x3ee2a7f5	0.44268766
255	0xbdb8bf30	-0.09020841

weight f4 [2, 256]
0	0xbe901f0b	-0.28148684
1	0xba7f27a3	-0.00097333844
2	0xbc13288f	-0.008981838
3	0xbecc6cf2	-0.3992687
4	0x3c9a5de0	0.018843591
5	0xbbd9ab63	-0.0066427453
6	0x392ee336	0.00016678576
7	0x3c9a62c0	0.018845916
8	0xbee24b0c	-0.4419788
9	0xbe904c0d	-0.28183022
10	0xbdac1e54	-0.08404222
11	0xba2dac0d	-0.0006625064
12	0xbe95b671	-0.29240754
13	0xbc1be256	-0.009514412
14	0xbd9b652c	-0.075876564
15	0x3cb8b657	0.022547884
16	0xba8875d9	-0.0010411098
17	0x3c012dd3	0.0078844605
18	0xbb4d76aa	-0.0031351247
19	0xbe8a285a	-0.2698391
20	0xba76a464	-0.00094086514
21	0x3d03bef6	0.032164536
22	0xbdb52b65	-0.088461675
23	0xba501ab9	-0.00079385523
24	0xbed50117	-0.41602394
25	0x3bd01a7c	0.0063508134
26	0xbebcf1fa	-0.36903363
27	0x3991c754	0.00027805066
28	0xba1f0ee8	-0.000606759
29	0x3be1e209	0.0068934006
30	0xbdb34bff	-0.087547295
31	0x3c0bd044	0.008533541
32	0xbf3a1dcb	-0.7270171
33	0xbd9f31d5	-0.077731766
34	0x3c2a5d82	0.010398271
35	0xbf051fae	-0.52001464
36	0xbf04f1d3	-0.51931494
37	0xb94dd021	-0.00019627858
38	0xbc0eb6c4	-0.008710567
39	0x3ce5c337	0.028047187
40	0xbed18d3c	-0.40928066
41	0xbe4c1215	-0.19928773
42	0xbef87018	-0.4852302
43	0xbe92ba0b	-0.28657565
44	0x3a040a60	0.00050369464
45	0xbc089640	-0.008336604
46	0xb9e54a3d	-0.00043733596
47	0xbca6f3d4	-0.020379938
48	0xbc02d17e	-0.007984517
49	0x3b95006a	0.0045471685
50	0x3a4069e4	0.00073399977
51	0xb91ffb06	-0.00015256935
52	0x3901062c	0.00012304698
53	0xbbe76728	-0.0070618577
54	0xbd72dbca	-0.05929164
55	0xbec00edf	-0.37511346
56	0xbf3ba559	-0.73299176
57	0x3bbefe1d	0.0058286325
58	0xbc09676a	-0.008386472
59	0x3c1edc96	0.0096961465
60	0xbe95f0a8	-0.2928517
61	0xbc113ee8	-0.008865096
62	0xbd9ec676	-0.07752697
63	0x3b5e9e0a	0.003396871
64	0xbdb1d27c	-0.08682725
65	0xbeb8d70f	-0.36101577
66	0xbe1c4047	-0.15258895
67	0xbf0eaafd	-0.5572966
68	0xbcd5d02a	-0.026100237
69	0xba7a8a24	-0.0009557328
70	0xbdbbd765	-0.091719426
71	0xbb4be296	-0.0031110398
72	0x38c7628c	9.507415e-05
73	0x3bfe4686	0.007759872
74	0xbc0700d8	-0.008239947
75	0xbf197c51	-0.59955317
76	0xbefca853	-0.4934717
77	0xbba72eba	-0.005102006
78	0xbc389fb2	-0.011268543
79	0xbdaf7d8e	-0.085688695
80	0xbb80c869	-0.0039301408
81	0xbec61fa2	-0.3869601
82	0xbcf85ccc	-0.030317686
83	0xb9815b64	-0.0002467289
84	0x3a7bdb8f	0.0009607607
85	0xbe9319c9	-0.2873061
86	0xbe82d091	-0.2554975
87	0xb8b0442a	-8.4050305e-05
88	0xbf00c941	-0.5030709
89	0x3c73db25	0.014883791
90	0xbca256a3	-0.019816702
91	0x3c69de65	0.014274214
92	0x3aaa75be	0.0013005061
93	0x3e6c7641	0.23091985
94	0x3a97335b	0.0011535691
95	0x395466a6	0.00020256135
96	0xbefb9321	-0.49135688
97	0xbeb2ceac	-0.34923303
98	0x3be17fa9	0.0068816734
99	0xbe17e3ad	-0.14832945
100	0xbdb7a335	-0.08966676
101	0xbbacbdd0	-0.005271651
102	0xbaaa17b1	-0.0012977031
103	0xbb81c3d8	-0.003960114
104	0xbc9c492b	-0.019077858
105	0xbeb42f51	-0.3519235
106	0xbdaeb010	-0.08529675
107	0x39c0eb3c	0.00036796357
108	0xbdb6ae47	-0.089199595
109	0xbd23b066	-0.03996315
110	0xbc01bb56	-0.0079181995
111	0xbce98e28	-0.028510168
112	0xbc1ba804	-0.009500507
113	0x3c1bac76	0.009501567
114	0x3cb3ad38	0.021933183
115	0x3aca326a	0.0015426402
116	0xbc34c5f9	-0.0110335285
117	0xba4d91ec	-0.00078418734
118	0xbd9d57cd	-0.07682762
119	0x3a2cef9e	0.0006596985
120	0xba8267fb	-0.0009949201
121	0x3bba8e80	0.005693257
122	0xbc095171	-0.008381234
123	0xbec224b9	-0.37918642
124	0xbea9fb7e	-0.33199686
125	0xbe96f3f1	-0.29482988
126	0xbe9d9f70	-0.30785704
127	0xbb87f7ca	-0.004149412
128	0xbc0a4674	-0.008439649
129	0xbe973e18	-0.2953956
130	0xbdb1fc44	-0.08690694
131	0x3d012b0d	0.031535197
132	0xba8056c6	-0.0009791485
133	0x3c9682c5	0.018372903
134	0xbce4478b	-0.027866146
135	0xbd9dc900	-0.07704353
136	0x3be147bd	0.006875007
137	0xbe8c5210	-0.2740636
138	0xbec1763c	-0.37785518
139	0x3bd68db1	0.0065476527
140	0xbf0c3cd1	-0.547803
141	0xbceac041	-0.028656127
142	0xbe370c84	-0.17875868
143	0x3bba4b6e	0.0056852615
144	0xbe8fc489	-0.28079632
145	0xbebcd78c	-0.368832
146	0x3c65f5dc	0.014035668
147	0xbeb52cba	-0.35385686
148	0xbc122b90	-0.008921519
149	0xbf06b531	-0.52620226
150	0x3ca0303b	0.019554248
151	0x39b0938c	0.00033679267
152	0x3909fe05	0.00013159968
153	0xbcf213ee	-0.029550519
154	0xbe94933f	-0.2901859
155	0x3af4b4f5	0.0018669652
156	0x39916e09	0.00027738538
157	0xbf051276	-0.51981294
158	0x3bcae184	0.0061914343
159	0xbe1702c8	-0.14747155
160	0xbe929531	-0.2862945
161	0x3bb7d249	0.0056097847
162	0xbed1fbe1	-0.4101248
163	0xbb88b442	-0.004171879
164	0xbeb9f595	-0.36320177
165	0xba4d61bc	-0.0007834693
166	0xb7f17a5f	-2.8786422e-05
167	0xbe9f4fe4	-0.3111564
168	0xbe80e0a9	-0.25171402
169	0xbb907eba	-0.0044096382
170	0xbf28855f	-0.6582851
171	0xbebc3553	-0.36759433
172	0xbd7d041c	-0.061771497
173	0xbc0a5c95	-0.008444925
174	0xbbdfce74	-0.006830031
175	0xbdb19e1c	-0.08672735
176	0x3cee004e	0.02905288
177	0xbe89e9f3	-0.26936302
178	0xbec8b021	-0.39196876
179	0x39272e75	0.00015943668
180	0x3a711657	0.00091967493
181	0xbec0d470	-0.37662077
182	0xbea72c21	-0.32650855
183	0xbec8d3c2	-0.39224058
184	0xbec4f7dd	-0.38470355
185	0xbed196c2	-0.40935332
186	0xbc39c4d0	-0.011338428
187	0xbbca38af	-0.006171308
188	0xbbfa1062	-0.0076313475
189	0x3be037db	0.006842596
190	0xbac76b83	-0.0015214536
191	0xba11910d	-0.0005552925
192	0xbbbc8364	-0.0057529677
193	0x3972cd50	0.00023155403
194	0xbd10e947	-0.03537872
195	0x3a14cb32	0.00056760304
196	0xbe8df7ae	-0.27728027
197	0xbe9f4dbd	-0.31113997
198	0xbb98638f	-0.00465054
199	0xbf25c366	-0.6475128
200	0xbcfb3a3a	-0.030667413
201	0xbe189e75	-0.14904197
202	0xbbad18e0	-0.0052825063
203	0xbcaaad9a	-0.020834733
204	0xbc1c78e3	-0.009550306
205	0x39eec860	0.00045544188
206	0xbcf50d1a	-0.029913474
207	0xbe082a8e	-0.13297483
208	0xbb987d04	-0.004653575
209	0xbc009d44	-0.007849995
210	0xbd94473d	-0.0724015
211	0xbb40323d	-0.002932682
212	0x3cc4653b	0.023974052
213	0xbbe75103	-0.007059218
214	0xbec3bca2	-0.38229853
215	0xbc43ac45	-0.011942928
216	0xbe98ea28	-0.29866147
217	0xbead6930	-0.33869314
218	0xbefdc964	-0.4956771
219	0xba246f58	-0.0006272695
220	0x39513e80	0.00019955076
221	0xbd84885e	-0.064713225
222	0xbe8fc3af	-0.28078982
223	0xbbc96185	-0.0061456584
224	0xbe969da8	-0.29417157
225	0x3d119eae	0.03555172
226	0xbf0a39fc	-0.5399473
227	0x39dbbf48	0.0004191345
228	0xbeced177	-0.40394184
229	0xbb7a5c23	-0.003820189
230	0xbec5a9bb	-0.38606057
231	0xbcab7aa1	-0.020932497
232	0xbc702161	-0.014656396
233	0x3ac1b83e	0.001477964
234	0xbec5a1e7	-0.38600084
235	0xbea5cad6	-0.32381314
236	0xbea57368	-0.3231461
237	0xbdabd3ec	-0.0839003
238	0x3b507601	0.0031808617
239	0xbc0892c7	-0.008335776
240	0x3c6db6f8	0.014508955
241	0xbef58e90	-0.4796033
242	0xbbe07ac5	-0.006850573
243	0xbbe2062c	-0.0068977084
244	0xbdaeff21	-0.08544756
245	0x3ccb3874	0.024807192
246	0x3b5d5f2c	0.003377865
247	0x3826343a	3.9626124e-05
248	0x3cddffde	0.027099546
249	0xbda0a1cd	-0.07843361
250	0x3b627fde	0.0034561078
251	0xbeb60d53	-0.3555704
252	0xbb04e57c	-0.0020278385
253	0x3ba7cf74	0.005121166
254	0xbee14f2e	-0.44005722
255	0x3c26d607	0.010182864

bias f4 [2]
0	0xbf1e1779	-0.61754566
1	0xbf22a5ed	-0.6353443
